CM.IRT/irt_model.pt (torch, 253538 bytes, 3 tensors)

theta.weight f4 [27424, 1]
0	0x3c1dfa67	0.00964222
1	0x4161592e	14.084272
2	0x4166a6aa	14.415689
3	0x414ff16e	12.996443
4	0x3bd03f7b	0.0063552237
5	0x413f2baa	11.94816
6	0x412cec66	10.807714
7	0xbc180c96	-0.0092803445
8	0x3b25a791	0.002527688
9	0x41333025	11.199254
10	0x41455905	12.334233
11	0x4118abee	9.541975
12	0xc1152039	-9.320367
13	0xc1101d17	-9.007102
14	0xc0fc772a	-7.8895464
15	0xc1089109	-8.535409
16	0xc0e165ac	-7.043661
17	0xc0d90887	-6.782291
18	0xbc7b4737	-0.015336803
19	0xc0b7c7b0	-5.743126
20	0xc100bc41	-8.04596
21	0xc0f03a8d	-7.5071473
22	0xc109c67a	-8.610956
23	0xc10bb5d6	-8.731894
24	0xc138463f	-11.51715
25	0xc1266c3a	-10.4014225
26	0xc1373c3e	-11.452208
27	0xc13e3c1e	-11.889677
28	0xc157018a	-13.437876
29	0xc182ed02	-16.365726
30	0xbc33c160	-0.010971397
31	0x3b809bc4	0.0039248187
32	0x3c1755da	0.009236777
33	0xc179e4e9	-15.618386
34	0x416c72dd	14.778043
35	0xbca5e875	-0.020252446
36	0x3b94806a	0.0045319097
37	0x414306b8	12.18914
38	0x411ff0c0	9.996277
39	0x40b12fd5	5.537089
40	0x40e9b261	7.303025
41	0x40836589	4.1061444
42	0xbc06cf8d	-0.008228195
43	0x3f91897f	1.1370085
44	0xbf89bdf5	-1.0761095
45	0xbbabd0a9	-0.00524338
46	0x411eca89	9.924447
47	0xbaa7d8b1	-0.0012805668
48	0x40cc9852	6.393594
49	0x41143a20	9.264191
50	0x4119bc15	9.608418
51	0x40fc7a78	7.88995
52	0x41057ce0	8.342987
53	0xbbc6cd97	-0.0060669887
54	0x40ea7f5d	7.3280473
55	0xbbed5792	-0.007243105
56	0xbfc53240	-1.540596
57	0xc0a35c60	-5.1050262
58	0x3c24b1f1	0.01005219
59	0xc0ba2081	-5.816468
60	0xbc45ce98	-0.012073182
61	0xc0bc1f31	-5.8788075
62	0xc08fabc7	-4.489719
63	0xc0cce258	-6.40263
64	0xc0babffa	-5.8359346
65	0xc0b2cb7f	-5.587341
66	0xc0e23475	-7.0689034
67	0x40f018a7	7.5030093
68	0x4082c90e	4.087043
69	0x405efece	3.484302
70	0x3b442e7d	0.0029934936
71	0x41062c87	8.385871
72	0x41106ab2	9.026049
73	0xbb0ebcaa	-0.0021779933
74	0x40e6b86b	7.210012
75	0x402b70cd	2.6787598
76	0xb9b54d80	-0.00034580752
77	0x40cbda06	6.370364
78	0x3f9b1304	1.2115178
79	0xbda96f75	-0.08273212
80	0xbfed57ba	-1.8542397
81	0x3fd6f975	1.6794878
82	0xbd962e10	-0.073330045
83	0xbf625674	-0.88413167
84	0x3c3b1c2e	0.011420293
85	0xbf9199bd	-1.1375042
86	0x3fbf11ab	1.4927267
87	0x4013ce93	2.3094833
88	0x3f9c3ceb	1.2206091
89	0x3c995a92	0.018719945
90	0x4189212d	17.1412
91	0x418441d2	16.532139
92	0x3bd1f9f4	0.0064079706
93	0x4172a8a1	15.166169
94	0x41650ea1	14.3160715
95	0x415b5cbb	13.710139
96	0x4174eaa3	15.307284
97	0xbc06145f	-0.008183568
98	0x414c1674	12.755482
99	0x416c74fb	14.77856
100	0x3b7fbeb8	0.003902359
101	0x4189c774	17.22239
102	0x3c4eea87	0.012629158
103	0xbb2f5be2	-0.0026757647
104	0xbbf9fb95	-0.007628868
105	0x3e4bf2b3	0.19916801
106	0x3f85edee	1.0463235
107	0xbf605579	-0.8763042
108	0xbfb77372	-1.4332106
109	0x3f35071e	0.70713985
110	0xc097bef1	-4.7420583
111	0xc0af600c	-5.4804745
112	0xc0876548	-4.2311134
113	0xc089c5f7	-4.3054156
114	0xc0495ddc	-3.1463537
115	0xc0137e09	-2.3045676
116	0x39f27ba5	0.0004624996
117	0xc0a449a4	-5.1339893
118	0xc09c397b	-4.8820167
119	0xc0ab5f0a	-5.3553514
120	0x3c805aaa	0.015668232
121	0xc08efc04	-4.4682636
122	0x3c4a5582	0.012349488
123	0x405e4757	3.4731042
124	0xbbb02cdd	-0.005376442
125	0x3feb7878	1.8396139
126	0x401162da	2.2716584
127	0x3ff11964	1.8835874
128	0xbbe7f0b8	-0.0070782565
129	0xbf4dcf18	-0.80394125
130	0x3f13b66e	0.5770024
131	0xbe7a9985	-0.24472626
132	0x3f10a6c4	0.56504464
133	0x4189d2db	17.227957
134	0xbba665ab	-0.0050780377
135	0xbb6c6311	-0.003606979
136	0x413e6421	11.899446
137	0x41427429	12.153359
138	0x412ea21a	10.914576
139	0x41446ebb	12.277034
140	0x3b8fb7ad	0.0043859095
141	0x411b25bb	9.696712
142	0x412d937c	10.848507
143	0x410fd3f3	8.989245
144	0x3fa3dd9f	1.2802008
145	0xb9ab388e	-0.00032657798
146	0x409dcc70	4.9312057
147	0x3bfb4db8	0.007669177
148	0x3b506b0e	0.003180209
149	0x40230bf2	2.547604
150	0x3f825523	1.0182232
151	0xbc0103f3	-0.007874477
152	0x4024a9c4	2.5728617
153	0xbaa8c3d9	-0.001287575
154	0x3f88b695	1.068072
155	0xbef83c57	-0.48483536
156	0x3fb2f4c0	1.3980942
157	0xbfd4c9d6	-1.6624095
158	0x3f7677c3	0.9627649
159	0xbfadd438	-1.3580389
160	0xbf9222cd	-1.141687
161	0xc051c129	-3.2774146
162	0xbd128f24	-0.03578104
163	0x3e048225	0.12940271
164	0x3e71ade4	0.2360149
165	0x3e3c58cf	0.18393253
166	0xbf8d591e	-1.1042821
167	0xbcc14c5b	-0.02359598
168	0x3a8e6fd7	0.0010867071
169	0x3afaf33d	0.0019145977
170	0xc04cc8dd	-3.1997597
171	0xc07e2615	-3.9710743
172	0xc06fefac	-3.7490034
173	0xc08955aa	-4.291707
174	0xc061eddd	-3.530143
175	0xc04ffa04	-3.2496347
176	0xbc0d2aa5	-0.008616124
177	0x412445e0	10.267059
178	0x412f3896	10.951315
179	0x4126b9f1	10.420396
180	0x41286656	10.524984
181	0x3bf3a7e4	0.0074357856
182	0x410fbea6	8.984045
183	0x408f10c1	4.470795
184	0xc127546f	-10.458114
185	0xc1354ce3	-11.331271
186	0xc158d280	-13.551392
187	0xc1720edc	-15.128628
188	0xc08b35b3	-4.350305
189	0xbb8d79d7	-0.004317503
190	0xc0ad2d7d	-5.411803
191	0xc0c73e11	-6.2263265
192	0xc0b1c0a3	-5.554765
193	0xc0cbb81d	-6.366225
194	0xc10ea3df	-8.915008
195	0xbc0992d9	-0.008396828
196	0xc17ded69	-15.870461
197	0xbc7fd419	-0.015614533
198	0xc189f3f8	-17.244125
199	0x41a821f2	21.016575
200	0xbc693a7b	-0.014235134
201	0xbc9ce48d	-0.01915195
202	0x41a0cd7c	20.100334
203	0x41a40c13	20.505896
204	0x418bb7cf	17.46475
205	0x41575f18	13.460716
206	0x41a6ad0e	20.8345
207	0x41a03ccb	20.029684
208	0x418f9dee	17.952114
209	0xbc712af5	-0.014719714
210	0xc0991d6c	-4.7848415
211	0xbb9d5491	-0.004801341
212	0xbf8c5cf3	-1.0965866
213	0xc0486db5	-3.131696
214	0xbff4c271	-1.9121839
215	0xbf8024f7	-1.0011281
216	0xc0274896	-2.6138053
217	0xbfa85f48	-1.3154078
218	0x3bed5ac5	0.0072434866
219	0x3bd290e3	0.0064259632
220	0xbf875281	-1.0572053
221	0x40bf9c23	5.9878097
222	0xbc86589c	-0.016399674
223	0xbb9c7eb7	-0.004775848
224	0x40793c2a	3.8942971
225	0x39a77bcc	0.00031944958
226	0x40a94403	5.289552
227	0x40c616cc	6.190283
228	0x3c05eedf	0.008174627
229	0x3fdac848	1.7092371
230	0x40af7183	5.4826064
231	0x3bcd2e9e	0.0062616607
232	0x3ab5f1c2	0.0013881254
233	0x4145fc15	12.374043
234	0x414b4ee0	12.706757
235	0x4145e2bb	12.367854
236	0x413bcc3c	11.737362
237	0x4130ba49	11.04548
238	0x413a115a	11.629236
239	0x4140d243	12.051333
240	0x3c0d194b	0.008611987
241	0x41129b3b	9.162898
242	0x41363338	11.387505
243	0x3bc1d06c	0.0059147384
244	0xbc1b0fc5	-0.009464209
245	0x4095e5fe	4.684325
246	0xbbf18083	-0.007370056
247	0x3fc556fd	1.5417172
248	0xbc118116	-0.008880874
249	0x3eecb929	0.46235016
250	0x3ef2e6f2	0.47441822
251	0xbbb1170f	-0.00540436
252	0xbc356cc7	-0.011073298
253	0x3f8c86c1	1.0978624
254	0x41444f7f	12.269408
255	0x41485b8a	12.522348

a.weight f4 [17747, 1]
0	0xbc2be3a5	-0.010491286
1	0x412cee78	10.80822
2	0x41606150	14.023758
3	0x416841f7	14.516105
4	0x41468bdf	12.409148
5	0x416afeb3	14.687182
6	0x411eb5bf	9.919372
7	0x41696f5c	14.589687
8	0x414c9c03	12.788089
9	0x40471757	3.1107996
10	0x41536fb2	13.214769
11	0x40e36bf9	7.1069303
12	0x412fede0	10.995575
13	0x414e8fa0	12.910065
14	0x40487af3	3.1325042
15	0x41198206	9.594244
16	0x41413066	12.074316
17	0x4167e1d1	14.492631
18	0x4161a9c0	14.103943
19	0x4143aab7	12.229178
20	0x414f61ba	12.961359
21	0x4114a780	9.290894
22	0x4119e8fb	9.61938
23	0x40c9b1f4	6.302973
24	0x40c6828d	6.2034364
25	0x4169a187	14.601935
26	0x414ff4c0	12.997253
27	0xbf6d4204	-0.92678857
28	0x3f9b784f	1.214609
29	0x413ba35f	11.7273855
30	0x413508ed	11.314679
31	0x4148401f	12.515655
32	0x415ba710	13.728287
33	0x414560d2	12.336138
34	0x413246f7	11.142325
35	0x410ad9bd	8.678159
36	0x4165d284	14.363895
37	0x3db69f7b	0.08917137
38	0x415c5b67	13.772315
39	0x4131ed7a	11.120478
40	0x415993fa	13.598627
41	0x416408bd	14.252133
42	0x40f2b3a6	7.5844297
43	0x411c9294	9.785786
44	0x4155a95b	13.353847
45	0x415ca93d	13.791318
46	0x413e0d04	11.878178
47	0xbf6beafd	-0.9215544
48	0x41437f28	12.218544
49	0x415acf12	13.675554
50	0x401fafb4	2.495099
51	0xbeeaf76a	-0.45891887
52	0x4139819b	11.594142
53	0x408f0cd6	4.470317
54	0xbfa4062d	-1.2814385
55	0x4170dd76	15.054068
56	0x415ed74b	13.927562
57	0xbecc356e	-0.39884514
58	0x4153421d	13.203641
59	0xbf2f35ef	-0.6844167
60	0x414ad405	12.676763
61	0x4149c27d	12.6099825
62	0x40a6cd0c	5.21253
63	0x412922b7	10.570975
64	0x416a86fd	14.657956
65	0x41100d0a	9.003183
66	0x4173130b	15.192149
67	0x410f0a96	8.940084
68	0x3f9adec5	1.2099234
69	0x41679f0b	14.476329
70	0x4117cbbb	9.487239
71	0x3ed17ce2	0.4091559
72	0x4152bfa0	13.171783
73	0x409893e9	4.7680554
74	0x413dc276	11.859976
75	0x415aea31	13.682176
76	0x414f6724	12.962681
77	0x41551d05	13.319585
78	0x414f5e3c	12.960506
79	0x4162c1cf	14.172317
80	0x409d0087	4.9063144
81	0xbf6ec0a7	-0.93262714
82	0x41018d0c	8.096935
83	0x415fb1dd	13.980924
84	0x41144bf3	9.268542
85	0x4165a94f	14.353835
86	0x415df99e	13.873442
87	0x414057a1	12.021394
88	0x4078460b	3.879275
89	0x4123123e	10.191954
90	0x41405e4f	12.023025
91	0x4112ccc7	9.174994
92	0x4161e333	14.117969
93	0x414984fa	12.594965
94	0x41090152	8.562822
95	0x409a38fa	4.819455
96	0x415e49b4	13.892994
97	0x408adcf0	4.33947
98	0x4083637d	4.1058946
99	0x403a2d6c	2.9090223
100	0x414a5b5a	12.647303
101	0x41478c30	12.471725
102	0x40dcf4a5	6.904864
103	0x413c94b9	11.786309
104	0x4157630f	13.461684
105	0x3e04ec71	0.1298082
106	0x409373a0	4.6078644
107	0x40e0f664	7.030077
108	0x4147d7a0	12.490143
109	0x41575581	13.458375
110	0x415f7502	13.966066
111	0x412b7078	10.714958
112	0x4066f45c	3.6086645
113	0x406cd696	3.7005973
114	0x4154e391	13.305558
115	0xbe971b2c	-0.29512918
116	0x41631a6e	14.193953
117	0x408e42d0	4.445656
118	0x4157994f	13.474929
119	0x4136bad0	11.4206085
120	0x411f5d35	9.960256
121	0x41489c35	12.5381365
122	0x413d752b	11.841105
123	0x4081fabd	4.0618577
124	0x413f6f64	11.964695
125	0x4145e54d	12.368482
126	0x4152c52b	13.173137
127	0x414b2689	12.696908
128	0x41362bf7	11.385734
129	0x4131d8c1	11.115418
130	0x40940b2f	4.626365
131	0x41571790	13.443253
132	0x3e9719f2	0.29511982
133	0x4169a807	14.603522
134	0x4166e012	14.429705
135	0xbf8ede17	-1.1161526
136	0x41657468	14.3409195
137	0x41643216	14.262228
138	0x40ffe17c	7.996275
139	0x40b5c33d	5.680083
140	0x40f7a926	7.739398
141	0x4132fee8	11.187233
142	0x415d025a	13.813074
143	0x40dfd5e6	6.9948606
144	0x414cfe19	12.812036
145	0x4156cf60	13.425629
146	0x3f6b5840	0.91931534
147	0xbf9abc4e	-1.2088716
148	0xc01fd924	-2.4976282
149	0x4151ba8a	13.108042
150	0xc01c7d51	-2.4451487
151	0x415ab35e	13.668791
152	0x405e3eed	3.4725907
153	0x415fc216	13.984884
154	0x4154120d	13.254407
155	0x4151a698	13.103172
156	0x41663516	14.38796
157	0x4153f32b	13.246867
158	0x415ffa4c	13.998608
159	0x415db9a7	13.857825
160	0x4129c590	10.610733
161	0x411740d5	9.453328
162	0x414d8fd8	12.847618
163	0x41115e88	9.085579
164	0x415ddbc4	13.866154
165	0x4158c7ec	13.548809
166	0x3e1a4918	0.15066946
167	0x414c3d1d	12.76492
168	0x415a3886	13.6388
169	0x4161f7cc	14.122997
170	0x41639dff	14.226073
171	0x4165f042	14.371157
172	0x4165552a	14.333292
173	0x40da27a2	6.817338
174	0x41583d81	13.515016
175	0x415337e7	13.201148
176	0x3f2781e8	0.65432596
177	0x416e9778	14.91198
178	0x415af150	13.683914
179	0x410e38aa	8.888834
180	0x3fbce210	1.4756489
181	0x415abb10	13.67067
182	0x416f407e	14.953245
183	0x415fbdde	13.983854
184	0x41622a69	14.135354
185	0x414e0fe6	12.878881
186	0x414fbcfc	12.983639
187	0x4148c30f	12.547622
188	0x4102ece2	8.182833
189	0x415f43e5	13.954076
190	0x41639c99	14.225732
191	0x41622c19	14.135766
192	0x40b0a283	5.519838
193	0x414d89aa	12.846109
194	0x41438e8d	12.222302
195	0x40eda374	7.426203
196	0x416458ed	14.27171
197	0x415d67c2	13.8378315
198	0x4148db18	12.55349
199	0x41659b13	14.35036
200	0x416b5524	14.708286
201	0x414ff3b7	12.997001
202	0x415c8fa7	13.785071
203	0x4166b0f7	14.418204
204	0x412cb813	10.79494
205	0x4158fc4e	13.561598
206	0x40ffa300	7.9886475
207	0x4147414a	12.45344
208	0x412fc535	10.985646
209	0x41604e8d	14.019177
210	0xbc9de941	-0.019276263
211	0x41612a1b	14.07278
212	0x40ed64b7	7.4185443
213	0x41248bbb	10.284114
214	0x4102de64	8.179295
215	0xbef327a4	-0.4749118
216	0x4153d7d6	13.240194
217	0x41371456	11.442465
218	0xbc518136	-0.012787154
219	0x412b3f86	10.703009
220	0x4145fc32	12.374071
221	0x41522660	13.134369
222	0x4164890e	14.283461
223	0x415f4bf4	13.956043
224	0x40cae6c0	6.3406677
225	0x415203f4	13.125965
226	0x415bca5a	13.736902
227	0x413be6e8	11.743874
228	0x414a49b0	12.64299
229	0x40b46f19	5.6385617
230	0xbecd585b	-0.40106472
231	0x416585cb	14.345164
232	0x415d2b51	13.823075
233	0x4104c525	8.298131
234	0x415bf9b7	13.748466
235	0x40d571b5	6.6701303
236	0x416b6033	14.710986
237	0x41642daf	14.261153
238	0x4146248c	12.383923
239	0x416579be	14.342222
240	0x40e9d68f	7.307441
241	0x415d89d9	13.846154
242	0x41311075	11.066518
243	0x41474734	12.454884
244	0x405cb606	3.4486098
245	0x414e6c0a	12.901377
246	0x40b3b48c	5.6157894
247	0x4136ee79	11.433221
248	0x3f54568c	0.8294456
249	0x413bcb2e	11.737104
250	0x41626761	14.150239
251	0x416af11f	14.683867
252	0x41664097	14.390769
253	0x416b30ab	14.699382
254	0x4160facb	14.061229
255	0x402a6355	2.6623127

b.weight f4 [17747, 1]
0	0xbb1e0246	-0.0024110242
1	0xc110a84b	-9.041087
2	0xc044668b	-3.0687587
3	0x4101984b	8.099681
4	0xc0a157e9	-5.041981
5	0x40b020e8	5.504017
6	0xc106feec	-8.437237
7	0x40262d5c	2.5965185
8	0xbfb2da1b	-1.397281
9	0x3f984cff	1.1898497
10	0xc0bad545	-5.838534
11	0xc13e9848	-11.912178
12	0x40ad64ec	5.4185696
13	0x41659eb1	14.351243
14	0xc0ab6ef5	-5.3572946
15	0xc12d457f	-10.829467
16	0xc0f65c7e	-7.6987906
17	0x409e608f	4.949287
18	0xbff37f42	-1.9023211
19	0xc094f2b3	-4.6546264
20	0xbe8ddf62	-0.2770949
21	0xc115df30	-9.366989
22	0xc1044e84	-8.269169
23	0x41d1a094	26.203407
24	0xc160ef5c	-14.058437
25	0x4093063d	4.5945115
26	0xc0558aed	-3.3366044
27	0xbffb6655	-1.9640604
28	0xbfe451a4	-1.7837415
29	0xc127c32a	-10.485147
30	0xbf03703b	-0.51343125
31	0xc022bc0b	-2.5427272
32	0x4116f0d7	9.433799
33	0xc12eac10	-10.917007
34	0xc127d29e	-10.48892
35	0xc0eb7548	-7.3580666
36	0x3f9c9b31	1.2234861
37	0xc0bfdf15	-5.9959817
38	0xc1267057	-10.402427
39	0xc1076e6b	-8.4644575
40	0x40684a5b	3.6295383
41	0x4112f16f	9.183944
42	0xc107d66c	-8.489849
43	0xbf3eca29	-0.7452722
44	0x3f40cdba	0.75313914
45	0xc109c0e5	-8.609593
46	0xc12e25eb	-10.884257
47	0xc11c9065	-9.785253
48	0xc11d879b	-9.845607
49	0x3ef57387	0.47939703
50	0xc10725c5	-8.446721
51	0xc016f792	-2.3588605
52	0xc09c5d82	-4.8864145
53	0xc146813a	-12.406549
54	0xc1063366	-8.387548
55	0x40271b59	2.6110442
56	0xbfad4469	-1.3536502
57	0xc0c89c43	-6.269075
58	0xc0eb7fc2	-7.3593454
59	0xc0d812ca	-6.7522936
60	0x3f8f59b4	1.119925
61	0xc14d2819	-12.822289
62	0xc11bdffa	-9.742182
63	0xc1199645	-9.599187
64	0x408d00ca	4.4063463
65	0xc14774ba	-12.465998
66	0x40ea177d	7.315367
67	0xc170dea5	-15.054357
68	0x40eae30c	7.3402157
69	0xbfaea1d1	-1.3643132
70	0xc1022b60	-8.13559
71	0xc039f948	-2.90584
72	0x40746ca2	3.8191304
73	0xc0d09b98	-6.5189934
74	0xc1950ea1	-18.632143
75	0xc0009a5a	-2.0094209
76	0xc09df89e	-4.936599
77	0xc0a2a659	-5.082806
78	0x40cc929c	6.3928967
79	0x3e3a7dfc	0.18212122
80	0xc0b43efe	-5.6326895
81	0x410eeb7e	8.932493
82	0xc10c969d	-8.786771
83	0x40ddc4a9	6.9302564
84	0xc11be4fd	-9.743405
85	0x3f2fbaf5	0.6864465
86	0x40e3cd13	7.1187835
87	0xc0b7c9b0	-5.74337
88	0xc116817a	-9.4066105
89	0x3f176da6	0.59151685
90	0x40e60241	7.187775
91	0xc0257b8c	-2.5856657
92	0x3f4845aa	0.782313
93	0x40605224	3.5050135
94	0x405acb9f	3.418678
95	0xc142a344	-12.16486
96	0x3fc97af0	1.5740643
97	0xc0d3948e	-6.611884
98	0xc0df73e9	-6.982899
99	0xc03513f2	-2.8293424
100	0xc10c5a46	-8.772039
101	0xc026b8bc	-2.6050253
102	0xc1010358	-8.063316
103	0x407cf65a	3.952536
104	0x40cf43b8	6.4770164
105	0x404feb03	3.248719
106	0xc0b6a933	-5.708154
107	0x40b42d17	5.630504
108	0x4009b06a	2.1513925
109	0x3f1a1ed8	0.60203314
110	0x3fb541d0	1.4160709
111	0xc109b4b4	-8.606617
112	0xc11648c1	-9.392762
113	0xc0ed9f7c	-7.4257183
114	0x419b7a3b	19.434683
115	0x407ee61e	3.9827952
116	0x40dd2bce	6.9115973
117	0xc0cfe47d	-6.4966416
118	0x40e95d0f	7.2926097
119	0x40e744fd	7.2271714
120	0xc0f0b9fe	-7.522704
121	0x3e9fb392	0.3119169
122	0xbf69739d	-0.91192037
123	0xc0e9c285	-7.304995
124	0x40ec9eae	7.39437
125	0x4036ce9d	2.8563607
126	0x405588d1	3.3364756
127	0x3f733fe2	0.9501935
128	0x404428eb	3.0649974
129	0x40d1f437	6.5610614
130	0xc0d559c0	-6.667206
131	0x41a5ca68	20.723831
132	0xc0eae2d2	-7.340188
133	0xbfd098a5	-1.6296583
134	0x3fe003d3	1.7501167
135	0x410c6bf4	8.776356
136	0x408bae45	4.365023
137	0x40b68a6e	5.704398
138	0x41185fe0	9.523407
139	0x40d8a10a	6.769658
140	0x404aa982	3.166596
141	0xc12fb2ac	-10.981121
142	0x41292059	10.570397
143	0xbe833215	-0.25624147
144	0x40a4c12d	5.148581
145	0x40091bf2	2.1423306
146	0x40ce6f55	6.4510903
147	0xbfb32a38	-1.3997259
148	0x418a2c81	17.27173
149	0xbf891cbf	-1.0711898
150	0xbf4eba03	-0.8075258
151	0xc0dbfc9e	-6.874587
152	0x41449c9b	12.288234
153	0x4083fbee	4.124503
154	0xc0aebfe5	-5.4609246
155	0xc0a36fd1	-5.1073995
156	0x4003e1b5	2.060651
157	0x418f134d	17.884424
158	0x40617806	3.5229506
159	0x40e4267f	7.129699
160	0x4023f2e3	2.5616996
161	0x409413fa	4.6274385
162	0x3ea63fdb	0.32470593
163	0xc0f39b13	-7.61268
164	0x40513608	3.2689228
165	0xbfa3dc83	-1.280167
166	0xc108d19d	-8.551175
167	0x40835d1b	4.1051154
168	0x4018a8e6	2.3853087
169	0x410657f0	8.396469
170	0x41252f47	10.324042
171	0x40e72dfc	7.2243633
172	0x3f0f0bf7	0.5587763
173	0xc104a04e	-8.289137
174	0x40db0c3c	6.8452435
175	0x3f320529	0.69539124
176	0xbf08fe5c	-0.5351312
177	0xc0569760	-3.3529892
178	0x40bad880	5.838928
179	0x3f491183	0.78542346
180	0xc0557c32	-3.3357053
181	0xc001c57d	-2.0276787
182	0x401b4c10	2.4265175
183	0xbf134a5a	-0.57535326
184	0x406ae078	3.6699505
185	0x4172199d	15.131253
186	0x40b0239c	5.504347
187	0xc0f5149d	-7.6587663
188	0xc178b018	-15.542992
189	0x409e4fca	4.94724
190	0x408c218e	4.379096
191	0xbf16d2ed	-0.589156
192	0x40070cf1	2.1101649
193	0x404879a2	3.1324239
194	0x3fdc6a84	1.7220006
195	0xbf892529	-1.0714465
196	0x40bc2b9f	5.880325
197	0x4119b59d	9.606839
198	0x41492fcf	12.574172
199	0xbf5d0367	-0.86333317
200	0x413e6e29	11.901895
201	0x40c3e629	6.1218457
202	0xc0a957f4	-5.2919865
203	0xc033598b	-2.8023403
204	0x3eed3cda	0.4633549
205	0x401ebde4	2.48034
206	0x40ea824e	7.3284063
207	0x3f8a3070	1.0796032
208	0xc0f6121a	-7.6897097
209	0x3f3abcac	0.7294414
210	0x40984b21	4.759171
211	0xbf572685	-0.8404315
212	0x3fb1508d	1.3852707
213	0xbfc5e78b	-1.5461286
214	0xbf367bca	-0.7128264
215	0xc110c808	-9.048836
216	0x40f80b47	7.7513766
217	0xbf79746e	-0.9744328
218	0x3fd0d3bd	1.6314617
219	0xc019325f	-2.3936994
220	0x406d25ac	3.7054243
221	0xc0481f47	-3.126909
222	0x40202b1f	2.502632
223	0x40f94c73	7.790582
224	0xc03bcac5	-2.934251
225	0xc0ae9f39	-5.4569364
226	0xc0b4cee8	-5.650257
227	0x413a6d37	11.651664
228	0xc08eeb74	-4.466242
229	0xbdbd61ad	-0.09247146
230	0xc0ccfc7b	-6.4058204
231	0xc044fcf2	-3.0779386
232	0x4105d1ac	8.363689
233	0x400fe358	2.248251
234	0x41793904	15.57642
235	0x417a9bf2	15.663073
236	0xbff83e0b	-1.9393934
237	0xbf8ac15d	-1.084026
238	0x3f2efd8b	0.68355626
239	0x41333313	11.199969
240	0xc13d6826	-11.837927
241	0x40fdf9a5	7.936724
242	0xc08eb7b3	-4.459924
243	0x40b6765e	5.701949
244	0x40873266	4.224902
245	0xc0de9181	-6.9552617
246	0xbf3e65f3	-0.7437431
247	0xc033addd	-2.8074868
248	0xbf045db8	-0.51705503
249	0x40cb24a9	6.348225
250	0xc06b03cd	-3.672107
251	0x4080a86b	4.020559
252	0x40e09685	7.018374
253	0x4016cc1d	2.356208
254	0x4068e9b0	3.6392632
255	0x4110e815	9.056661
