CM.IRT/irt_model.pth (torch, 324768 bytes, 4 tensors)

theta.weight f4 [27424, 1]
00000000: 0e79 c63d 995a 0e40 3f56 eb3f c892 bd3f
00000010: 2d50 b33f 9dd5 903f 6f13 7c3f b1d5 843f
00000020: ef62 483f 4ff5 533f 7d14 1a3f a270 033f
00000030: a0bf dbbf 2bb0 dabf d439 e1bf 5692 efbf
00000040: a5b0 f4bf b7ab f0bf 24a9 f6bf 82c4 f4bf
00000050: 7b64 04c0 7255 01c0 d1e1 05c0 7567 a6bf
00000060: 7c4d 9abf fa1c 95bf 2f39 0fc0 48d0 35c0
00000070: 6efb 3dc0 f7c1 5dc0 5eff 81c0 148a 50c0
00000080: eadf 52c0 e69e acc0 06a0 d23f a4f6 b33f
00000090: 0b82 9e3f c8ef 8d3f 2421 593f 517f 343f
000000a0: f4fa 203f 43a0 093f 512b e23e 4e89 c73e
000000b0: 49d7 5c3e 078f b93f 1ff6 b73f 5d21 bd3f
000000c0: 0165 ab3f df82 a83f 8879 9f3f 2f3d 993f
000000d0: dc18 973f a150 853f 8b68 813f 0505 863f
000000e0: 0b28 ca3d 0324 17be ed13 5bbe 792f c2be
000000f0: 11c5 debe 88a3 50bf e0d8 71bf 9b41 91bf
00000100: 9f03 cebf fb41 4fc0 66dd 1cc0 628c 703f
00000110: d35e 863f a61e 5f3f daee 673f d05e 663f
00000120: a76c 513f 0b98 4f3f fcfb 5a3f d856 3c3f
00000130: 757d 443f 05a4 343f 77e5 8e3e dc13 7a3e
00000140: 0cea 6d3e 196b 823e 037e 5c3e ab00 3f3e
00000150: 128b 3c3e 5525 a13d 0106 7d3c 4240 b9bc
00000160: bedf cfbd 1b07 c03f c97c c93f da10 b83f
00000170: e1a2 ab3f 2fc3 af3f 2ff0 a63f 80ad 933f
00000180: 915f 903f 9b64 923f e701 8d3f fa0d 893f
00000190: 07e4 ba3f 5d97 5f3f 81b6 203f 98d1 143f
000001a0: 4940 a93e 85b8 00be 7f8b 8abe 94ba 08bf
000001b0: f97e 16bf 85d5 06bf b2d3 2abf 3b51 9ebf
000001c0: ac98 a2bf 9b42 a8bf b854 afbf 037f afbf
000001d0: e0df aebf ac72 abbf f8e7 a8bf 3752 b7bf
000001e0: b75e b2bf 2535 bbbf 1af7 353f 1e75 203f
000001f0: cb81 f03e 5496 be3e 4a60 633e 071a 4c3e
00000200: 2ace 2c3e 4111 7f3c 1266 8cbd 768c 19be
00000210: 06bf a4be f5f6 da3f 2f15 c13f 40e0 b33f
00000220: a79a 8d3f c5bd 7a3f 1f60 733f c3b0 673f
00000230: 5f54 453f eccc 423f 2b75 2c3f b31a e33e
00000240: 6f09 10be 3e1f 3fbe e2e2 e7bd a69b b5bd
00000250: 57b8 8cbe aa08 3abe ea91 bbbe e057 86be
00000260: a0a7 7cbe b4af c0be 61a7 d1be 0a38 03bd
00000270: 9eac ffbd 6339 79be 924b 93be cf4d 9dbe
00000280: a53d 6cbe d526 7fbe 4b97 d2be 7cec e9be
00000290: 394a fabe c977 37bf 0f83 66be 2023 a7be
000002a0: f796 95be 9f6a 05bf 7288 0dbf 44de 96bf
000002b0: 9f72 31bf 9425 52bf 89f2 51bf f4a8 7abf
000002c0: 5c45 7cbf b2e5 1b40 58e7 1240 4bc5 5d40
000002d0: 70eb 2a40 4305 d53e cfd2 9ebf 0b7d 31bf
000002e0: 0b84 8ebf ec71 61bf 008e bebf 632f 57bf
000002f0: a0b2 ccbd f7eb bbbe 2f51 03bf 3ac9 3cbf
00000300: 381c 96bf 9651 63bf ca21 73bf c6c4 d6bf
00000310: dea7 09c0 21f9 ecbf 936a 00c0 3256 a63f
00000320: 49a9 a03f ebdc a23f 6779 a33f ff79 9d3f
00000330: 3222 9a3f 8445 9a3f d182 943f 9e22 9e3f
00000340: 18f2 883f 27e7 8b3f d323 79bf ad81 83bf
00000350: c1f4 72bf 50f7 86bf a175 7fbf ed12 72bf
00000360: cdd5 78bf c706 6ebf 94f6 83bf 9d3e 82bf
00000370: fd22 8dbf 3147 3a3e bff4 073e c493 903d
00000380: f29f 1a3e 6aee 4c3c 5d30 8a3d 409b 923c
00000390: 34a7 a03d dd13 f1bc 402e 84bd c84b 13bd
000003a0: 786c bc3f 8b5b b63f 419c b03f 0ce6 ab3f
000003b0: e253 ad3f 924b a43f be55 a43f 019a 9a3f
000003c0: d050 903f 2388 983f b5dc 8d3f 1cc9 4a3e
000003d0: 1d85 ef3e 344a a83e 8150 a73e b459 293e
000003e0: 57bf e0ba d287 ddbd d0da 9cbe a97d b0be
000003f0: ffb5 21bf 70f3 e1be cab5 3540 44cf 4d40
0.09691058 2.2242796 1.8385695 1.4810419 1.4008843 1.131519 0.98467153 1.0377713
0.7827596 0.82796186 0.6018751 0.5134374 -1.7167854 -1.7085012 -1.7595773 -1.8716533
-1.9116408 -1.8802403 -1.9270368 -1.912247 -2.0686328 -2.0208402 -2.0919077 -1.3000323
-1.2054896 -1.1649468 -2.2378652 -2.8408375 -2.968471 -3.4649637 -4.0624228 -3.2584276
-3.2949166 -5.394397 1.6455085 1.4059644 1.2383436 1.10888 0.84816194 0.7050677
0.62882924 0.53760165 0.44173673 0.38971943 0.215665 1.4496773 1.4371985 1.4775807
1.3390199 1.3164939 1.2458963 1.1971797 1.1804461 1.0415231 1.0110029 1.0470282
0.09870919 -0.14759831 -0.2139432 -0.37926844 -0.43509725 -0.8149953 -0.9447155 -1.1348146
-1.6094855 -3.2384021 -2.451013 0.9396421 1.0497688 0.8715614 0.90598834 0.8998842
0.81806415 0.81091374 0.8554075 0.73570013 0.7675393 0.70562774 0.27909443 0.24421638
0.23233813 0.25472334 0.21532445 0.18652599 0.18412426 0.07868449 0.015443326 -0.022613648
-0.10150097 1.5002168 1.5741206 1.4380143 1.3409082 1.373144 1.3042048 1.1537323
1.1279165 1.1436952 1.1016206 1.070739 1.4600838 0.8734034 0.6277848 0.58132315
0.33056858 -0.12570389 -0.27059552 -0.53409696 -0.58787495 -0.52669555 -0.6672927 -1.236854
-1.2702842 -1.3145326 -1.3697729 -1.3710636 -1.3662071 -1.339437 -1.3195791 -1.4321965
-1.3935155 -1.4625593 0.7108017 0.62678707 0.46974024 0.37224066 0.222047 0.19931804
0.1687552 0.0155680785 -0.06855406 -0.14994988 -0.3217699 1.7106615 1.508459 1.4052811
1.1062821 0.97945815 0.95068544 0.9050409 0.77081865 0.76093936 0.67366284 0.44356307
-0.14066099 -0.18664262 -0.11322571 -0.08867578 -0.2748439 -0.18167368 -0.3663476 -0.26238918
-0.24673319 -0.3763405 -0.40948012 -0.032035865 -0.12484096 -0.24338298 -0.28768593 -0.30723426
-0.2307039 -0.24917157 -0.41131052 -0.45688236 -0.48884752 -0.7166715 -0.22510932 -0.32643986
-0.2921674 -0.52115816 -0.55286324 -1.178658 -0.6931552 -0.8208859 -0.82010704 -0.9791405
-0.98543334 2.4358945 2.29537 3.4651668 2.67062 0.41605577 -1.2408084 -0.69331425
-1.1134046 -0.88064456 -1.4887085 -0.8405668 -0.099950075 -0.36703464 -0.5129575 -0.7374455
-1.1727362 -0.88796365 -0.94973433 -1.67788 -2.1508708 -1.8513528 -2.0065048 1.2995055
1.2551662 1.2723669 1.2771424 1.2302855 1.2041686 1.2052464 1.1602422 1.2354314
1.0698881 1.0929917 -0.9732029 -1.0273949 -0.94904715 -1.0544224 -0.9978886 -0.9456013
-0.97201234 -0.9297909 -1.0309625 -1.0175358 -1.1026303 0.1819122 0.13276957 0.07059434
0.15100077 0.012508014 0.06747506 0.017896295 0.078443915 -0.029428417 -0.06454134 -0.035960943
1.4720602 1.4246687 1.3797685 1.342958 1.3541224 1.2835562 1.2838666 1.2078248
1.1274662 1.1916546 1.108298 0.1980328 0.46781245 0.32869112 0.32678607 0.16538125
-0.0017146867 -0.10816921 -0.3063569 -0.3447087 -0.6316833 -0.4413104 2.8392205 3.2157755

a.weight f4 [17747, 1]
00000000: 6bb5 77be 7ed9 cdbe 2fbb d13f 6870 5540
00000010: eb3a 94bf bfb0 af3e da80 e63e 01ff 8b3f
00000020: 71df 623f 8948 453f f783 5140 a1b8 c4bf
00000030: 56e4 5ebf bfa9 11bc 99a1 a0bf b983 ebbe
00000040: fd4e 6f3e 7699 cb3f 6fd8 183e 5cc2 fbbe
00000050: e0db 9d3f 7114 60c0 c0d2 80bf 653e 9cbf
00000060: 6ccb 19c0 2bac ee3f d380 2040 f2f0 4ebe
00000070: 32d7 d63e 0465 29bf 9f2b 39bc daca 593f
00000080: b1e1 0e3f d3f9 c43e 2a98 b7bd fcc3 0d40
00000090: 4258 3340 c0ac c63f f2f9 3f3e 2746 48c0
000000a0: 81ca 273f 92b4 9a3e 4e8d 143f da92 813f
000000b0: 47e5 11be 79f8 1e3f 5f88 69bd cfa8 d3be
000000c0: 112b 2940 2811 0940 6a6e 67c0 3f4b 813e
000000d0: fc0b 303f 0fbf 8b3f ffa7 87be 8124 f23f
000000e0: 6225 393f 41cf 9c3e 12d7 92bf c218 df3f
000000f0: e0b5 903f ab84 083f 9b31 0a3f 36bb 8ebf
00000100: b87f 4040 74e2 9d3e e334 1b40 b950 82bf
00000110: 9b87 213c a5dc 8abe 7d99 0440 0dcd 043f
00000120: 138a a83f 5a1b 213f 014d cabd d87b 84bd
00000130: f7a7 d0bf 2e58 8a3e 9d83 5bbe 3e1e 6140
00000140: abc3 b9bf cc60 bc3f 04f8 a6bf 530c 8e3f
00000150: 917a f8be 5855 f2be 668f f43f 73f0 a0bf
00000160: ce33 503f 88cc 4bbf 5254 a73f a018 823f
00000170: 8838 78bf 3da8 1f3f 7074 1740 f1a3 053f
00000180: f5f1 1c40 fbcc acbf d3a7 b93d d22e 56bf
00000190: a192 88bf 3930 d93d 79fc 52be d08f 173d
000001a0: fe49 83bd d450 5c3f 3fa0 513f 750f 9f3f
000001b0: f0d5 0bbe bb04 0040 9b86 f93e c99f b5be
000001c0: ae53 7740 19f9 01c0 f10c 0b40 54ff cf3f
000001d0: eb1d 9c40 5aaa 0a3e d908 c3bd b291 7e40
000001e0: 1f63 5b3f b75d db3e 0907 163f c7a9 08c0
000001f0: 29ce ff3f c7c1 73bf 22cf b440 85b8 0340
00000200: 5624 76bf 7fed 5b40 0912 253f 2417 3bc0
00000210: 4c45 7a3e c95d ecbd 4ca0 47be aae7 0fbf
00000220: 28c9 a83f cd0c 1e3f 8f4d dc3c 8965 553e
00000230: ce7e e2be 4a13 ce3e 5fd3 1140 dd74 803f
00000240: 0872 a23f e63b bf3f 3250 493f 6691 013f
00000250: 62a9 f03d 963c 643e 417d eb3e e40a 3b40
00000260: c798 bebd 73d8 a63f c8a1 1c3f a5ea 68bf
00000270: 4ad5 1040 3ac8 c3bf 3865 443f 6a35 873f
00000280: 62c0 1340 f939 473e 0693 6d3f 1199 c2be
00000290: 6c82 5740 4108 883f de3d 86be a823 c13f
000002a0: 5542 973e 94bd 1840 534c 6b3f 4345 ee3f
000002b0: 072c 263f 966e ea3e dd89 393d cec5 623f
000002c0: 9777 87bf ac4d 35bf fdb0 0740 2df0 b13f
000002d0: 04a6 f7bf aaa3 9240 cae1 3640 62e4 ad3f
000002e0: 7717 b43f b060 793f fcd5 4e3f 507b d73e
000002f0: 527a fcbd a5a9 e2be c93a 7b3f 9005 a13f
00000300: 1f2e 923f 04a5 8ebf 5b03 0e40 4fcd da3e
00000310: bcd1 453f 0eb0 3d40 3880 8d3e 688c 59be
00000320: cfea 783f 57c1 f73f a703 74bf 528b 3e3f
00000330: 5293 0ebf 4d60 be3f ffb9 533f 209d 5f40
00000340: f85d a03f 3777 3b3f 0e30 103f 6b79 00bf
00000350: ac9d 8e3f 02a8 783f 1f42 20bc 1853 3140
00000360: 34d3 febe 69cd 0dbf dde7 1840 e21e 8fbe
00000370: e7c8 b0be 8a92 173f c114 293f 2848 66be
00000380: f5f0 2f40 a84f 123f 7129 853d 9e67 1a3f
00000390: 2d27 d33e 6155 a2be 918a ccbf 3bf4 37be
000003a0: 5d1c 873e 218f cb3e f0dc b03f 77e2 323f
000003b0: 670a 73be 361b 6bbf 1f6b 943e aabd a63f
000003c0: eacd 38bf b856 0440 258d e43e b6a9 2dbf
000003d0: 4d30 813f 0988 533e 0e7d f9bd 917d a13f
000003e0: 91de 2abf 172c 713f 1e6d 273f a91f 833f
000003f0: 1239 74be e7e8 0d3f a170 853f 596d 6abe
-0.24190299 -0.40204996 1.6385249 3.3349857 -1.158048 0.34314534 0.4502018 1.0937196
0.88622195 0.77063805 3.2736795 -1.5368844 -0.87067163 -0.008890568 -1.2549316 -0.45998934
0.23369975 1.5906208 0.14926313 -0.49171722 1.2332726 -3.5012476 -1.0064316 -1.2206541
-2.403041 1.8646291 2.5078628 -0.20209101 0.41961056 -0.6616976 -0.011301904 0.8507515
0.5581313 0.3847185 -0.0896457 2.215087 2.8022618 1.5521469 0.1874769 -3.1292818
0.6554337 0.3021589 0.58028114 1.012294 -0.14247619 0.6209789 -0.05701482 -0.41339728
2.6432536 2.1416721 -3.6161141 0.2525272 0.68768287 1.0917681 -0.26495358 1.891739
0.72322667 0.30626872 -1.1471884 1.742943 1.1305504 0.53327435 0.5398194 -1.1150882
3.0077953 0.30836833 2.425103 -1.0180885 0.009858991 -0.27121463 2.0718682 0.5187538
1.3167137 0.6293236 -0.098779686 -0.06468934 -1.6301259 0.270204 -0.21436925 3.5174708
-1.4512838 1.471704 -1.3044438 1.1097511 -0.4853101 -0.47330737 1.9106262 -1.2573379
0.8132905 -0.79608965 1.3072608 1.0163765 -0.9696126 0.62366086 2.3664818 0.5220328
2.452268 -1.3500055 0.09065213 -0.8366519 -1.0669748 0.10604901 -0.20604123 0.037002385
-0.06410597 0.86060834 0.8188514 1.2426592 -0.1365583 2.0002887 0.48735508 -0.3547347
3.8644824 -2.0308287 2.1726649 1.6249795 4.878652 0.13541546 -0.09523172 3.9776425
0.8569812 0.42844936 0.58604485 -2.1353624 1.998479 -0.95217556 5.650285 2.0581372
-0.96149194 3.4363706 0.64480644 -2.9232874 0.24440497 -0.115413256 -0.19494742 -0.56212866
1.3186388 0.6173828 0.026892452 0.20839514 -0.4423737 0.4024909 2.278526 1.0035664
1.269105 1.4940155 0.78637993 0.50612485 0.11751057 0.22288737 0.45994 2.9225397
-0.09306484 1.3034805 0.6118436 -0.9098304 2.2630181 -1.5295479 0.7671695 1.0563176
2.308617 0.19455709 0.92802465 -0.38007405 3.3673353 1.0627519 -0.26219076 1.5089006
0.29542795 2.386571 0.91913337 1.8614887 0.6491093 0.45787495 0.045297492 0.88583076
-1.0583371 -0.7082164 2.1201775 1.3901421 -1.9347539 4.5824785 2.857531 1.3585322
1.4069661 0.9741316 0.80795264 0.42086267 -0.12328018 -0.44270054 0.98136574 1.2579823
1.1420325 -1.1144109 2.2189548 0.42734763 0.77273154 2.9638705 0.27636886 -0.21244967
0.9723329 1.9355878 -0.95318073 0.74431336 -0.5569354 1.4873139 0.8270568 3.4939651
1.2528677 0.7322878 0.56323326 -0.5018527 1.1141868 0.9713136 -0.0097813895 2.7706966
-0.4977051 -0.55391556 2.3891518 -0.2795325 -0.34528276 0.59207976 0.6604729 -0.22488463
2.7490819 0.57152796 0.06502045 0.6031436 0.41240826 -0.31705764 -1.5979787 -0.1796426
0.26388827 0.39757636 1.3817425 0.6987681 -0.23734437 -0.91838396 0.28987977 1.3026631
-0.721892 2.067793 0.44638935 -0.67837083 1.0092865 0.20657362 -0.121820554 1.2616445
-0.6674586 0.942079 0.65400875 1.0244037 -0.23849896 0.55433506 1.0424997 -0.22893275

b.weight f4 [17747, 1]
00000000: 0946 e33f 8aa7 a7bd d3a5 dabe e0c0 533f
00000010: e9ad d03d da28 6e3f 7d1d c43f af9e b23f
00000020: 1499 c7be d18f d03e 0a8a aabf 3866 d9bf
00000030: 1fd7 9b3f f256 823f 9cf6 84be 9f07 54bf
00000040: 9d81 94bf ea11 133e 77e7 8ebe 5b99 463f
00000050: d650 08bf 6a14 263f 2877 98bf 36d9 b83f
00000060: e3fb 943f 08f5 c93d 42e7 83be 3ea4 d1be
00000070: 9535 60be 4246 33bf 5159 51be fe59 c63f
00000080: 0b9b 813f 2a81 263c 7eb0 3fbc 27ab 123c
00000090: 2781 41be 385b 833e a6b4 8bbf db78 aa3f
000000a0: 9e78 973c 1c7e 483f fbc9 023f c07c c83e
000000b0: ba0a aa3f 60c4 99bc 8636 c0be bd89 95bf
000000c0: e797 103e a963 503e 0d63 a63f f11d 2f3f
000000d0: 6d38 3dbf 134b 343e 89a0 3b3e 267b 343e
000000e0: a481 9b3e c07a b33e 677e 093f c681 1bbd
000000f0: 71af f1bd 785d 133f 94df 98bf c052 7fbd
00000100: 6316 b83e 19a8 a1be 3414 083f dff5 2bbe
00000110: 1eb6 813f 458e 513e c3cc dd3f 8af2 1e3e
00000120: 3d7d 643e 21f3 a4be 5df6 2d3f 9824 be3e
00000130: b36f 713e 4b7b 77be a30e aa3f dbab 57be
00000140: 4a60 313e f51a a33f e994 a33e 50da 4c3f
00000150: 3520 4abf 01e6 db3f 1f69 0a3f 23b8 d4bf
00000160: 3613 853f 8fe3 d43f 4319 c93f 3b49 023f
00000170: 5006 b03f 4d9c 423f ed7c f33e 4dee 0940
00000180: 3819 bfbe 347a 05be 8bff e03e 1959 c93e
00000190: f275 27be 7f67 b6bd 05df 25be d638 12be
000001a0: d1d9 6f3f d34c 5e3e 016f 8abe cb67 543f
000001b0: f34d 41bf c87d c23c 8b1c 5d3c 8dc2 1ebf
000001c0: f3af 383f 6e21 bd3f 08a7 e43f b21b b03f
000001d0: fc66 353f 465d 95bf 8553 a53f 1b77 293f
000001e0: d1dc 1d3f 12aa f73e cd43 43bf d80a c63e
000001f0: 59e5 823f b29d b63f 4ba2 a43d 38ca febe
00000200: 7bcf 11be 50aa cb3e 0441 963e fb6c cb3f
00000210: 080d 2fbf caa5 2a3e f1ac 883f b4c2 433f
00000220: 89ab ed3e 3e1b 0b3f bb28 523f 6fdc f23e
00000230: f506 d13f 9944 45bf c0df 693f 5b77 433f
00000240: ebda 643d 4569 563e 499a 0a3f 565e 293f
00000250: 7a06 ae3f 670e 443f d807 6b3e f1d1 3c3f
00000260: aace 0940 03f2 373e 1f6e 283e 34e8 c5be
00000270: 0be5 2ebe 6d4c cf3f aa69 ddbd 1be1 833f
00000280: 898f c7bd 8975 e53e b121 1d3f e962 a0bd
00000290: 4780 7c3f 0e25 a83d 6726 38bf 6dad 913e
000002a0: 119b 8a3e fd2b 4c3f fe3d 5b3f 6d61 523e
000002b0: fdb4 613e 8962 f2be 45c7 043f 951e ce3e
000002c0: d4a9 e23f b5ce 9f3e a691 523f bbca e73e
000002d0: 6e66 123f 4568 d2be 48a4 c83e 23aa 883d
000002e0: 5128 043d 4bae 603f 168d b43f b6ba 6abf
000002f0: 083b b7bf 3f92 b33f f086 153c 4586 1b3d
00000300: 9f61 ce3d 2d92 0340 4899 9c3e aacd 593f
00000310: d6ff ce3e d0de 6c3f a900 943f 0c5d bfbc
00000320: 9161 563f 87ea bb3e 3712 4d3f a201 b33e
00000330: 4ac1 803f 82ac cc3d 9e75 263f 6108 963d
00000340: 8c21 23bf 962d eebd 2b7d 303f 69c0 c73e
00000350: 8e20 3a3e 3111 dcbe 8165 233f 5b74 873e
00000360: e45f 0e3f 4596 503f 871f 443f 85bb 96be
00000370: 18c4 ad3f 4178 87be 749f ac3e ccb9 763f
00000380: d8d6 563e 9cd4 d2bd aea3 47be 86ee 743f
00000390: 666f 5d3f f867 57bf e728 4abd c752 f13e
000003a0: b93b 9a3f 7279 603d d241 c43f e7cd c23f
000003b0: 19cf 9cbe c0d3 cb3f 84ad aa3f 4d00 3a3f
000003c0: efe5 0cc0 fbb0 3c3f ffbf dd3e 1524 bc3d
000003d0: 3caf 823e 10f3 abbc 072a be3e 594d fb3d
000003e0: a4c5 c53f 74cc e73e 9fff 23bf 1e8f fa3e
000003f0: d218 723f ffb3 a53e 284b f83e 9505 cf3f
1.7755748 -0.081862524 -0.4270464 0.8271618 0.10189421 0.93031085 1.5321499 1.3954676
-0.38983977 0.40734723 -1.3323376 -1.698432 1.2175025 1.0182784 -0.25969398 -0.8282413
-1.1602055 0.14362302 -0.2791097 0.7757775 -0.53248346 0.648749 -1.1911364 1.4441288
1.163937 0.09861189 -0.25762373 -0.4094562 -0.2189544 -0.7002908 -0.20444228 1.5496213
1.012544 0.010162631 -0.011699794 0.008951939 -0.18896924 0.25655532 -1.0914505 1.3318132
0.018490132 0.7831743 0.5108945 0.39157677 1.3284523 -0.018770397 -0.37541598 -1.1682659
0.14120446 0.20350517 1.2998978 0.6840506 -0.73914224 0.17606764 0.18322958 0.17625102
0.30372345 0.35054588 0.537085 -0.03796556 -0.11801041 0.57564497 -1.1943231 -0.062334776
0.3595458 -0.3157356 0.5315583 -0.16793011 1.0133703 0.20464428 1.7328113 0.15522209
0.223134 -0.32216743 0.67954046 0.37137294 0.23577766 -0.24168126 1.3285717 -0.21061651
0.17321888 1.2742602 0.31949547 0.8002062 -0.78955394 1.7179567 0.5406665 -1.6618694
1.0396488 1.6631945 1.5710834 0.5089299 1.3751926 0.76019746 0.47556248 2.1551697
-0.37323928 -0.13034898 0.43944964 0.3932579 -0.16353586 -0.08906459 -0.16198356 -0.14279494
0.93691736 0.21708994 -0.27037814 0.82970876 -0.75509566 0.023741618 0.013495575 -0.6201561
0.7214348 1.4775827 1.7863474 1.3758452 0.70860267 -1.166909 1.2916113 0.66197366
0.61665064 0.4837194 -0.7627533 0.38680148 1.0226241 1.4266875 0.080387674 -0.49763656
-0.14239304 0.39778376 0.29346478 1.5892633 -0.6837926 0.16664806 1.0677778 0.7646897
0.46419933 0.54338443 0.820934 0.47433802 1.6330248 -0.77057797 0.9135704 0.76353997
0.05587284 0.20938595 0.5414167 0.6615957 1.3595726 0.76584476 0.22952211 0.73757845
2.1532388 0.17963414 0.16448258 -0.3865372 -0.1707956 1.6195198 -0.108111694 1.0303072
-0.09744174 0.44816235 0.61379534 -0.078313656 0.98633236 0.082101926 -0.719336 0.28452626
0.2707143 0.7975462 0.8564147 0.20544977 0.22041698 -0.473408 0.5186656 0.40257707
1.7708077 0.31212392 0.8225349 0.4527186 0.57187545 -0.41095176 0.39187837 0.06673076
0.03226501 0.8776595 1.4105556 -0.9169115 -1.431489 1.4029006 0.00912641 0.037969846
0.100772135 2.0557969 0.30585694 0.85079443 0.40429562 0.92527485 1.1562701 -0.023359798
0.83742625 0.36702368 0.8010592 0.34962183 1.0058987 0.09993841 0.6502322 0.07325817
-0.63723063 -0.116297886 0.6894099 0.39013985 0.18176481 -0.42981866 0.6382676 0.2645596
0.5561507 0.81479293 0.76610607 -0.2943994 1.3575468 -0.26458934 0.33715403 0.96377254
0.20980394 -0.10294458 -0.19496033 0.9567646 0.86498106 -0.8414302 -0.049355414 0.47133467
1.2049476 0.05480332 1.5332587 1.5219086 -0.30626753 1.5923996 1.3334203 0.7265671
-2.201534 0.7370755 0.43310544 0.091865696 0.25524318 -0.020989925 0.3714144 0.12270612
1.545094 0.45273173 -0.6406192 0.48937315 0.9456912 0.3236389 0.4849484 1.6173579

c.weight f4 [17747, 1]
00000000: bb54 df3e 7d08 36bf 0db3 82bf f5c3 bebf
00000010: 2bec dcbf 8a44 44bf b308 4c3f d7c9 803d
00000020: 13a4 03c0 852a 21bf d5cc 20c0 df6f cb3e
00000030: a24f 60bf 13b8 92c0 9e6e 993e 864f 273f
00000040: 5d7a febf 6189 67c0 fa91 73bf 9a9d 16bf
00000050: df1a cfbf 82ad d2be 0497 92be e6db d4bf
00000060: b9d3 05be 3393 93bf 82e4 10c0 69cd d5bf
00000070: 6d67 acbf 05dc 13bf 3283 56bf 099a f43e
00000080: 1d96 95bf fce3 a7bf 6124 173e b530 b9bf
00000090: 3a58 fbbe 4469 6bbf 3064 09be 976f debf
000000a0: df04 1cc0 2977 d5be 8875 cb3e 7d87 82bd
000000b0: 197a e1be a047 3abf 8b0f adbf b9c0 1cc0
000000c0: 9e85 f4bd dd61 f8be dc1e 403e a0dd 5dbe
000000d0: a670 32bf 05c7 6cbe 8a8b a4bf aac0 3fbf
000000e0: 79e0 87bf f8c7 40bf e3d3 bbbe cb88 31bf
000000f0: 4afb 1dbf 4293 b73d 9ec8 48bf c338 bf3b
00000100: ad05 fabf db7d 77bf 8b24 ccbf bd08 9bbd
00000110: 6448 c4be 7f0b 32bf 820b 7b3f b7b0 9fbf
00000120: ac17 1cbf 7c75 10bf 3114 c63e 3eb2 b4bf
00000130: d3f0 f2bd eca5 4c3e 5d71 0dbe 9ecf 80bf
00000140: 16c0 a63d 60b2 7dbf bbff 373f 1399 8abf
00000150: 6e8c fdbf 4e1a 9fbe 6908 d2bf acdd 2dbf
00000160: d9fd 4f3f 7218 2cbf a1d4 233e d399 3d3f
00000170: 9180 e8be 50ea 55bf 9870 21be a0f6 943d
00000180: cd63 91bf 807c aabe cb41 933f 2ab9 debf
00000190: 6a9f 0ebd 3930 6ebf 8c09 99be 15c4 00bf
000001a0: 0a84 30c0 4dea e1bd f3e0 acbe d303 88bf
000001b0: 502d d9bf 11f0 27bf e2e3 febf f792 c9be
000001c0: e95b e8bb b704 dc3e 1bd8 82c0 da3c 983e
000001d0: 2770 97bf 76a1 f5bf eabf b3bf 99cc 6ac0
000001e0: da10 943e a3cf 0ac0 3d2d cabf 50d5 a7bd
000001f0: 4d2c 45be 84ce 8fbf 642a 01c0 f78b d6bf
00000200: d20e bbbf 7d30 89bf a1bb 0b3f 17ea 20c0
00000210: 3e51 373f 66c0 6ec0 a7e0 76bf a14b bebf
00000220: c7d2 5bc0 4b9f 44c0 56ee b0bf d330 11c0
00000230: e9d8 febe 8aca 94bf f011 88bf e028 acbe
00000240: 1295 49c0 d34a 28c0 3716 dabf e379 e4bf
00000250: a233 2ac0 5bbd 31bf 8bc8 5ac0 b064 2dbe
00000260: 6213 47bf 24e8 05c0 f8db f7be 1a1c d3bf
00000270: ed00 2bc0 80d9 27c0 94c1 09c0 9ea3 83bf
00000280: 0b89 82c0 c041 ccbe 8962 9bbe 48f8 d23f
00000290: 4904 e9bd 5bc2 99be 858f 84c0 bf82 16c0
000002a0: ffda 21c0 4611 b4bf ecb9 3cc0 d150 e8bf
000002b0: 1b1e 58bf 2bd5 70bf 5659 4cc0 37b4 66bf
000002c0: a74b 33bf 5c4e d0bf 6dc6 8dbf 21f8 453d
000002d0: 44c8 873e 3d9b 24c0 365a 52bf 2feb f4bf
000002e0: 37f6 05c0 a450 bfbf d59d b5bf 225c b93c
000002f0: 7a39 0e3f efae 02c0 7190 0bc0 cc4b 0ec0
00000300: 7504 34bf d3b0 94bf 0a57 27c0 9486 cbbf
00000310: 1f70 02c0 3f39 a3bf 3309 e4bf 07ad 95bf
00000320: c803 febf e578 97bf 255b 04c0 624d 27bf
00000330: f9e1 a5bf 8370 d8bf 7ab9 7fbf 28c8 8bbf
00000340: 0531 afbd 75ac 88c0 b898 42c0 3206 94bf
00000350: 5cd2 c4bf 3f55 53c0 ef16 433d dfed 15bf
00000360: d971 56c0 b570 fdbe 041c c4be 83e7 04c0
00000370: 0385 4bbf 78fe 20c0 a614 02c0 18d9 31c0
00000380: 55aa dc3e 16a5 8fbe f519 84bf 5149 93bf
00000390: 98a0 24bf 364d 753f bd60 8bbf c785 d8bf
000003a0: d7e2 bebf 7088 2cc0 d159 f0bf ac45 16c0
000003b0: 4083 c8bf 39dd d6bf e176 4dbf 4107 eebf
000003c0: 17cc e3be bce0 cfbf b5fd 21bf ff97 09c0
000003d0: 7d64 a0bf 850f ce3d e494 ecbe 3941 c9bf
000003e0: abd7 94bf 7212 7bbf 619e 29c0 24fb edbf
000003f0: 3132 f5bf 710d f2bf dbb8 84c0 28ac 6dbf
0.43619332 -0.711067 -1.0210892 -1.4903551 -1.7259573 -0.7666708 0.79700774 0.06288498
-2.0568893 -0.62955505 -2.512502 0.39733788 -0.8762151 -4.58497 0.29967207 0.6535572
-1.9881092 -3.61776 -0.9514462 -0.5883423 -1.6180075 -0.41148 -0.2863084 -1.6629608
-0.13069047 -1.1529297 -2.263947 -1.6703311 -1.3469063 -0.577576 -0.8379394 0.4777377
-1.1686436 -1.311645 0.14759971 -1.4467989 -0.4909075 -0.919575 -0.13417125 -1.7377805
-2.4377973 -0.41692474 0.39738107 -0.063734986 -0.44038466 -0.7276554 -1.3520368 -2.4492629
-0.11939548 -0.48512164 0.18761772 -0.21666574 -0.6970314 -0.23122795 -1.2855084 -0.7490336
-1.0615379 -0.7530513 -0.36685094 -0.69349355 -0.6171156 0.08963634 -0.7843112 0.005835624
-1.9532982 -0.96676415 -1.5948652 -0.07570026 -0.3833648 -0.6954879 0.98064435 -1.2475804
-0.6097362 -0.56429267 0.3868728 -1.4116895 -0.1186234 0.19985169 -0.13812776 -1.006336
0.08142106 -0.99100304 0.7187459 -1.0827965 -1.9808481 -0.31074756 -1.6408817 -0.6791637
0.81246716 -0.672248 0.1599908 0.7406284 -0.45410588 -0.8356066 -0.15765607 0.072736025
-1.1358582 -0.3329811 1.1504453 -1.7400258 -0.034819998 -0.9304233 -0.29890096 -0.502992
-2.758059 -0.110310175 -0.33765373 -1.0626167 -1.6966953 -0.6560069 -1.9913294 -0.39369938
-0.0070910347 0.42972347 -4.08888 0.29733926 -1.1831101 -1.9189899 -1.4042943 -3.6687376
0.28919107 -2.1689231 -1.5795056 -0.08194983 -0.1925518 -1.1234899 -2.0182123 -1.6761464
-1.4613898 -1.0717922 0.54583174 -2.5142877 0.7160834 -3.730493 -0.9643654 -1.486683
-3.4347398 -3.0722225 -1.3822734 -2.268605 -0.49774864 -1.162431 -1.0630474 -0.33624935
-3.1497235 -2.629567 -1.703803 -1.7849697 -2.6594014 -0.6942956 -3.4184902 -0.1693294
-0.7776395 -2.0922937 -0.4841001 -1.6492951 -2.6719315 -2.6226501 -2.15244 -1.0284307
-4.079229 -0.39893913 -0.30348614 1.648202 -0.113777705 -0.30031094 -4.1425195 -2.35173
-2.5289915 -1.4067771 -2.9488478 -1.8149663 -0.8442094 -0.9407527 -3.1929526 -0.90118736
-0.7003731 -1.6273913 -1.107618 0.048332337 0.26519978 -2.571975 -0.821689 -1.9134272
-2.0931528 -1.4946485 -1.4188792 0.02262694 0.5555645 -2.041927 -2.180691 -2.2233763
-0.703193 -1.1616462 -2.6146874 -1.5900445 -2.0380933 -1.2751845 -1.7815307 -1.1693429
-1.9844904 -1.1833769 -2.068063 -0.6535245 -1.2959586 -1.6909336 -0.9989239 -1.0920458
-0.085542716 -4.271052 -3.0405712 -1.1564391 -1.5376697 -3.302078 0.047629293 -0.5856609
-3.3506987 -0.4950005 -0.38302624 -2.0766304 -0.79499835 -2.5155315 -2.0325103 -2.7788754
0.43098703 -0.28055638 -1.0320421 -1.1506749 -0.64307547 0.9582094 -1.0888897 -1.6915826
-1.4912976 -2.6958275 -1.877741 -2.3480024 -1.5665054 -1.6786262 -0.8025952 -1.8595964
-0.44491646 -1.6240458 -0.6327775 -2.149902 -1.2530667 0.10061554 -0.46207345 -1.5723029
-1.1628317 -0.9807502 -2.6502917 -1.8592267 -1.9155942 -1.8910352 -4.1475654 -0.92840815
