IRT_finial/irt_model.pth (torch, 394528 bytes, 4 tensors)

theta.weight f4 [44875, 1]
0.1328195 -0.20408739 0.91734046 -1.5874254 0.6097748 0.74685633 0.76444143 1.7815121
0.76479053 1.8302922 -0.3203626 1.9123483 -0.0070536844 -0.13788572 2.1373625 -1.6505033
0.48282415 -1.3649077 -0.32348025 1.3107128 -0.79188424 0.6901166 -0.04888409 -1.7556136
-1.2696466 -0.19264345 -1.809432 0.7830479 0.93932575 -1.3118635 0.31802994 0.82553494
-0.36713484 -0.90201086 -0.71321005 -0.46007487 0.27768996 1.3889004 -1.3202482 0.7418063
0.1731588 -0.8516941 0.15978031 0.19690712 -1.9962615 -0.87685865 0.56270915 0.5779639
0.40240332 -1.4211184 1.2309077 1.2029816 -0.11982444 0.47271985 -0.6849124 0.27910778
1.0954208 0.54193914 0.037986826 -0.2088705 -1.3184049 -0.78205335 -0.8669286 -0.6540339
-0.24044171 0.8747094 0.91935503 -0.83551645 1.7634102 -0.29400933 -1.2912025 -0.60888976
-0.5022849 1.5016379 0.41841844 1.3494823 -0.7009283 0.48338008 0.25171405 -0.19506526
-1.4803685 -0.32054904 2.1914058 -0.76072925 0.75072986 -0.032900006 2.3223314 -0.1588336
-1.7792056 -0.48231655 0.6937365 0.13842124 0.38717467 -0.50668335 -0.6000199 0.7268943
-1.0201222 -1.4479779 -2.994547 -0.5561265 1.6184663 -0.05749118 1.0029405 -0.52308595
-1.2885181 -2.374836 -1.4417081 -0.92766714 -1.2953243 0.8347644 1.708697 0.9275099
-0.37730753 -0.17347454 -0.27581972 -0.14660935 -0.17598224 -0.07415394 0.5033547 0.4636045
-1.902738 -0.036556486 0.47523472 0.1558426 -1.4454341 -1.5926118 0.7553041 0.63318634
0.7550662 0.48726964 -1.3829491 -1.6872177 -2.127041 -1.6435939 -1.9535501 0.6440137
-1.0349346 -0.6807658 0.5499118 -0.19265677 -1.091071 -0.4180823 0.26155344 -1.100113
-1.4496647 1.4023422 -2.556487 -0.93605477 1.0011362 0.49501568 0.64076644 -0.479271
-0.15024911 0.33266723 -1.6761419 0.5292693 -0.53307945 -0.51856154 -0.139029 -1.3485963
0.42401603 -0.019538129 -0.19163418 -0.19851606 0.6427624 1.2926626 0.16850473 -0.51260275
0.33538198 -1.2207543 -1.1977024 1.4864813 0.85772544 0.6852959 0.2280452 -0.47507417
-0.63276136 -1.5240724 0.49822697 -0.30092475 0.85443574 0.44233802 0.19422334 0.75786376
0.031906847 -0.7687693 -0.9317237 -1.3913411 -0.0037314927 1.9907508 1.1397485 1.2199086
0.35583597 0.2550518 -0.6854119 -0.2823594 -1.2726964 -1.6851504 0.16733074 1.9612163
1.0778962 1.4120744 0.33707154 0.3800074 0.6129188 -1.3996514 1.0444466 1.5902269
-0.16678685 -0.5446132 1.6222637 -0.5413646 1.5065205 -1.6371527 0.8172983 0.17623468
-0.14256336 0.9048507 0.6412712 0.9335386 0.26629692 0.8939984 -0.44523293 -0.48872465
-0.7395419 0.13295344 1.8198833 1.0003731 -0.6140262 0.63260406 0.010259386 -2.3620088
0.40257812 0.075652964 -0.65777385 -0.73593223 0.8539636 1.0476934 -0.5475996 -1.3264793
-1.7400417 1.8398412 -0.96965057 0.8526372 -0.51426893 0.44287965 -0.33999866 0.49222457
0.28463864 -0.98889947 -1.3333459 -1.7993613 0.90170306 1.3698826 1.1355162 0.29164058
00000000: d601 083e 49fc 50be d3d6 6a3f c130 cbbf
00000010: 341a 1c3f fa31 3f3f 6fb2 433f 9708 e43f
00000020: 50c9 433f 0447 ea3f 9106 a4be d4c7 f43f
00000030: 9822 e7bb ea31 0dbe 8cca 0840 b143 d3bf
00000040: ba34 f73e 4cb5 aebf 349f a5be 70c5 a73f
00000050: edb8 4abf 7bab 303f af3a 48bd f2b7 e0bf
00000060: c883 a2bf 5344 45be 789b e7bf d475 483f
00000070: a777 703f 25eb a7bf d2d4 a23e 4256 533f
00000080: 19f9 bbbe 2fea 66bf ef94 36bf ef8e ebbe
00000090: 612d 8e3e 7dc7 b13f e5fd a8bf 05e7 3d3f
000000a0: 8a50 313e a008 5abf 739d 233e 05a2 493e
000000b0: 7f85 ffbf cf79 60bf b50d 103f 71f5 133f
000000c0: cf07 ce3e 35e7 b5bf 628e 9d3f 4dfb 993f
000000d0: 8466 f5bd 5608 f23e 6b56 2fbf 37e7 8e3e
000000e0: c036 8c3f 86bc 0a3f 1398 1b3d 26e2 55be
000000f0: 7ec1 a8bf a634 48bf 08ef 5dbf c46e 27bf
00000100: 5a36 76be f5ec 5f3f da5a 6b3f 68e4 55bf
00000110: 6db7 e13f 6488 96be 2046 a5bf 33e0 1bbf
00000120: be95 00bf ac35 c03f f13a d63e d6bb ac3f
00000130: 0970 33bf 987d f73e aae0 803e 30bf 47be
00000140: b77c bdbf 011f a4be fe3f 0c40 27bf 42bf
00000150: d52f 403f 28c2 06bd 14a1 1440 46a5 22be
00000160: 02bd e3bf 32f2 f6be b798 313f 4cbe 0d3e
00000170: c23b c63e 00b6 01bf e79a 19bf bf15 3a3f
00000180: 5d93 82bf 5757 b9bf a8a6 3fc0 4e5e 0ebf
00000190: e729 cf3f df7b 6bbd 5b60 803f f6e8 05bf
000001a0: 29ee a4bf 50fd 17c0 e489 b8bf 987b 6dbf
000001b0: 30cd a5bf 1fb3 553f 95b6 da3f 4a71 6d3f
000001c0: 742e c1be 4fa3 31be 3e38 8dbe c320 16be
000001d0: b034 34be 05de 97bd dbdb 003f 925d ed3e
000001e0: eb8c f3bf 41bc 15bd f751 f33e 3495 1f3e
000001f0: fc03 b9bf b4da cbbf 9c5b 413f 8018 223f
00000200: 054c 413f 687b f93e 7a04 b1bf c0f6 d7bf
00000210: 7121 08c0 4961 d2bf ee0d fabf 15de 243f
00000220: bd78 84bf ab46 2ebf 05c7 0c3f d147 45be
00000230: 37a8 8bbf e20e d6be 55ea 853e 81d0 8cbf
00000240: 9d8e b9bf f37f b33f 7c9d 23c0 49a1 6fbf
00000250: 3b25 803f b272 fd3e 4509 243f 0263 f5be
00000260: e7da 19be 5c53 aa3e d18b d6bf 317e 073f
00000270: e577 08bf 73c0 04bf 9e5d 0ebe ce9e acbf
00000280: a118 d93e 6d0e a0bc c03b 44be cb47 4bbe
00000290: 148c 243f f875 a53f 818c 2c3e ef39 03bf
000002a0: 30b7 ab3e ad41 9cbf 504e 99bf 0545 be3f
000002b0: e593 5b3f 8d6f 2f3f ae84 693e ec3c f3be
000002c0: a6fc 21bf ce14 c3bf 9b17 ff3e cf12 9abe
000002d0: 4dbc 5a3f 217a e23e 7ce2 463e 5c03 423f
000002e0: c1b0 023d 11ce 44bf 7285 6ebf 7717 b2bf
000002f0: 0f8c 74bb ecd0 fe3f 47e3 913f f725 9c3f
00000300: 2230 b63e 2696 823e 2777 2fbf 6991 90be
00000310: b7e7 a2bf 02b3 d7bf c058 2b3e 2309 fb3f
00000320: 81f8 893f dbbe b43f a494 ac3e 5490 c23e
00000330: 3fe8 1c3f c727 b3bf 6db0 853f 8e8c cb3f
00000340: 2cca 2abe c56b 0bbf 56a6 cf3f df96 0abf
00000350: aad5 c03f 388e d1bf 763a 513f dd76 343e
00000360: 21fc 11be 4ca4 673f 592a 243f 63fc 6e3f
00000370: 1258 883e 14dd 643f 92f5 e3be 1e3a fabe
00000380: 9e52 3dbf f224 083e f0f1 e83f 3a0c 803f
00000390: d230 1dbf 57f2 213f fc16 283c 272b 17c0
000003a0: b81e ce3e f1ef 9a3d de63 28bf 0e66 3cbf
000003b0: 5c9d 5a3f d11a 863f 7d2f 0cbf 13ca a9bf
000003c0: b0b9 debf eb7f eb3f 053b 78bf 6e46 5a3f
000003d0: 21a7 03bf 1fc1 e23e 4e14 aebe dc04 fc3e
000003e0: 28bc 913e 8428 7dbf 14ab aabf 7951 e6bf
000003f0: 03d6 663f 5058 af3f 9858 913f ea51 953e

a.weight f4 [17747, 1]
0.55210066 -0.0891581 -0.3154758 -0.5691276 -0.650953 -0.7575936 -1.0498053 -1.3098043
-0.9466454 -0.6183532 -0.07030393 -0.11973031 -1.3988001 0.74483025 0.21243964 -1.1960377
0.9525711 -1.0027235 -1.2636214 -0.66898996 0.40179694 -1.3666092 -1.4627439 -0.6092874
0.82824194 -0.5214038 0.087544 0.04854112 -0.9857329 -1.371047 -0.20067121 0.037934497
-1.8265789 -1.6609273 -0.031098835 0.32757792 0.49155656 0.28103384 -1.0739312 -1.186551
-1.6188971 -0.7740983 -0.31811786 -0.2323587 -3.5142126 1.049845 0.16512932 1.1106263
-0.6739332 -1.3202441 -1.3712219 -1.1948966 -1.3807665 0.47723302 -1.9700044 -1.3373705
-1.1085123 -0.15435207 -0.99354553 0.33022273 -0.96368146 -0.22646299 -0.617889 -0.31797275
0.52030236 0.57681626 0.4708245 -1.1063671 -0.43748894 0.7993222 0.17940722 -0.80498743
-1.4513007 0.008744201 -0.39475104 -1.5706738 -0.9218773 -1.7282273 -0.87446177 -0.8273655
-2.2734146 -1.1853918 -0.18046567 -0.47459096 -2.1921976 -1.9195657 -1.7334262 -0.11784238
-0.4239449 -1.5615147 -1.3060374 -1.1858975 0.33529425 0.031097239 0.038713884 0.25580853
-1.7191448 0.5005473 -0.16781273 -0.0421019 1.7862291 -0.6408519 -0.33354744 -0.5004737
-1.18291 -1.1345818 -0.42565814 -0.8285343 0.39232466 -0.7043098 0.7218233 -0.17204733
-1.2043955 -1.3129282 1.5063314 -1.2350168 -0.26241496 -0.4787565 -0.8960461 -0.18681996
-1.6151576 -0.6781635 -0.63960207 -1.2122748 -1.8276771 -0.5294314 -0.8510909 0.19078626
-0.5079181 -0.3291769 0.92839104 -0.93289095 -1.2183529 -1.4673525 -1.449898 -1.1280042
-0.7347423 -1.4482001 -0.02818786 0.637874 -0.7723504 -2.2415562 -0.965294 -0.8930872
0.46667802 -1.6879919 -1.410751 1.2189393 -0.937695 -0.6429205 -1.4340069 0.9519203
-0.848201 -0.4426191 -1.0984038 -0.7354572 -1.6015432 0.19361268 0.03687085 0.45150176
0.13995175 -1.7389612 -2.6523263 1.6954056 -1.2168983 -0.5708901 -1.8381833 0.12587361
-0.8546611 0.3656903 -0.4521847 -1.6796129 -1.6919013 0.5725103 -0.017320486 -0.17672877
-0.5235959 -0.69381416 -0.72161746 -0.011887295 -1.6132979 0.12333258 -1.1795281 -0.9090414
-2.077049 -1.5037947 0.21197206 0.285292 0.77337927 -0.5800168 -0.2785093 -2.4387503
-1.4908737 -0.108717434 -2.602227 -1.9982489 -0.19895025 -1.3363447 -1.266021 -1.7901487
-0.04775095 -1.6388747 -1.0912399 -1.5822492 -1.3650686 0.17066433 -0.3763319 -1.3419849
-1.1776421 1.0271991 -0.27614856 -0.9411427 -2.427148 1.5456761 -0.3690703 -0.9991436
-0.19644156 -1.4194034 -0.5400551 1.1654127 -0.21495916 0.06557583 -1.2784749 0.5562831
1.5461863 -0.807289 0.79165435 0.5021744 -0.5703164 0.39724317 -2.0936627 -0.7723128
1.1515234 -0.8273755 -2.2067401 -0.11770084 -1.328091 1.2164985 0.61654234 -0.10159782
0.120164365 -1.6306379 -1.5770862 0.0063141813 -1.5307729 -1.3902618 -0.29673332 -0.5765411
-2.3595831 -2.6143758 -2.364663 -0.04064518 -0.9580978 0.092214316 -0.6482789 -0.5310601
00000000: 7856 0d3f 8698 b6bd 0b86 a1be 59b2 11bf
00000010: dba4 26bf a7f1 41bf 0560 86bf aba7 a7bf
00000020: 5a57 72bf 654c 1ebf 82fb 8fbd 2a35 f5bd
00000030: e20b b3bf 32ad 3e3f c789 593e c317 99bf
00000040: b3db 733f 3e59 80bf 59be a1bf ed42 2bbf
00000050: 54b8 cd3e 0ded aebf 313b bbbf 42fa 1bbf
00000060: aa07 543f b87a 05bf 454a b33d 0ed3 463d
00000070: fe58 7cbf 787e afbf c17c 4dbe 3461 1b3d
00000080: 56cd e9bf 4499 d4bf fcc2 febc 4bb8 a73e
00000090: 4dad fb3e abe3 8f3e 9476 89bf e7e0 97bf
000000a0: 0538 cfbf 4e2b 46bf 58e0 a2be 70ef 6dbe
000000b0: dce8 60c0 5261 863f a917 293e 0129 8e3f
000000c0: e386 2cbf c2fd a8bf 3384 afbf 5ff2 98bf
000000d0: f5bc b0bf e357 f43e 1b29 fcbf f52e abbf
000000e0: bbe3 8dbf 780e 1ebe 0059 7ebf f412 a93e
000000f0: d4b3 76bf eae5 67be f92d 1ebf 53cd a2be
00000100: 8932 053f 3baa 133f e90f f13e 709d 8dbf
00000110: 8dfe dfbe 61a0 4c3f 87b6 373e a813 4ebf
00000120: 39c4 b9bf d643 0f3c cf1c cabe d70b c9bf
00000130: 2700 6cbf 8d36 ddbf badc 5fbf 3ace 53bf
00000140: a07f 11c0 ebba 97bf fecb 38be 96fd f2be
00000150: f74c 0cc0 54b4 f5bf e9e0 ddbf 5957 f1bd
00000160: 4e0f d9be b7df c7bf 3c2c a7bf 7dcb 97bf
00000170: b0ab ab3e a3bf fe3c 7392 1e3d 56f9 823e
00000180: f00c dcbf de23 003f 1ad7 2bbe 0b73 2cbd
00000190: 28a3 e43f df0e 24bf bbc6 aabe 0b1f 00bf
000001a0: 9869 97bf fa39 91bf ddef d9be d31a 54bf
000001b0: c7de c83e a64d 34bf 69c9 383f 2d2d 30be
000001c0: a229 9abf 080e a8bf 78cf c03f 0815 9ebf
000001d0: 415b 86be 921f f5be 4763 65bf bb4d 3fbe
000001e0: 7cbd cebf 209c 2dbf f6bc 23bf d22b 9bbf
000001f0: 53f1 e9bf d188 07bf 18e1 59bf 795d 433e
00000200: ec06 02bf e089 a8be 09ab 6d3f f1d1 6ebf
00000210: fdf2 9bbf 35d2 bbbf 4296 b9bf 7162 90bf
00000220: 1218 3cbf 9f5e b9bf 3aea e6bc b64b 233f
00000230: c1b8 45bf a875 0fc0 821d 77bf 5da1 64bf
00000240: 6cf0 ee3e 1e10 d8bf 7d93 b4bf 3406 9c3f
00000250: c80c 70bf 7096 24bf 8a8d b7bf 0cb1 733f
00000260: b323 59bf f89e e2be 7f98 8cbf ec46 3cbf
00000270: 5eff ccbf 6742 463e e305 173d 3d2b e73e
00000280: 834f 0f3e 4896 debf b7bf 29c0 0d03 d93f
00000290: 53c3 9bbf db25 12bf 9749 ebbf 03e5 003e
000002a0: 12cb 5abf c23b bb3e c184 e7be 8efd d6bf
000002b0: 3990 d8bf 0990 123f b1e3 8dbc 63f8 34be
000002c0: 620a 06bf ce9d 31bf ecbb 38bf eec2 42bc
000002d0: 8c80 cebf cb95 fc3d c7fa 96bf f0b6 68bf
000002e0: 5fee 04c0 587c c0bf 340f 593e cb11 923e
000002f0: 2ffc 453f fb7b 14bf c598 8ebe 7c14 1cc0
00000300: f3d4 bebf 3fa7 debd e38a 26c0 9fc6 ffbf
00000310: 9db9 4bbe 580d abbf fa0c a2bf 9823 e5bf
00000320: 8096 43bd a5c6 d1bf c0ad 8bbf 2487 cabf
00000330: 91ba aebf a1c2 2e3e 93ae c0be 29c6 abbf
00000340: fabc 96bf 437b 833f 5863 8dbe baee 70bf
00000350: 6556 1bc0 b7d8 c53f c8f6 bcbe e0c7 7fbf
00000360: fa27 49be 03af b5bf 0d41 0abf 3e2c 953f
00000370: 411e 5cbe 9f4c 863d 11a5 a3bf 9268 0e3f
00000380: 6fe9 c53f 7eaa 4ebf dca9 4a3f 808e 003f
00000390: 4100 12bf 7563 cb3e 92fe 05c0 4bb6 45bf
000003a0: 1e65 933f e1ce 53bf 3b3b 0dc0 230d f1bd
000003b0: e3fe a9bf 39b6 9b3f b8d5 1d3f 8512 d0bd
000003c0: bc18 f63d beb8 d0bf f6dd c9bf 31e7 ce3b
000003d0: 5ef0 c3bf 19f4 b1bf 6eed 97be 3398 13bf
000003e0: 6903 17c0 ef51 27c0 a356 17c0 8f7b 26bd
000003f0: e645 75bf dcda bc3d 9bf5 25bf 8ef3 07bf

b.weight f4 [17747, 1]
-0.25593266 1.4580327 -0.014358091 0.40383348 1.682143 0.82415617 1.226887 -0.27129504
-0.35773456 0.33914682 -1.0450732 -1.3754067 0.48635027 1.6952801 -0.6345101 -1.5238779
1.8817257 -0.454655 -0.18378812 0.93442094 0.3202121 -0.030653412 -1.3236126 0.5328626
-0.21857011 -0.04635673 2.0970588 1.6088104 -0.38787517 -0.24047194 0.06423227 1.8246996
0.47798386 -0.15838064 -0.32524934 -0.6271451 1.3980151 -0.40562764 -0.3874735 1.5176953
-0.38221267 0.41391215 -0.18102469 -0.62269557 -1.4464127 0.9835461 0.7394115 1.7893621
0.41943496 0.10296477 -0.46867496 1.4350386 -0.3686154 0.80775774 0.8406306 0.19290215
-1.2420819 0.06538103 0.6505112 1.5939524 -1.2485543 0.2795481 -1.9669523 0.09522368
2.0131068 0.84144586 1.3982693 0.23545927 1.0432737 0.74396867 -0.54923266 -0.61158264
0.6480474 -0.62696767 -0.27676013 -0.1915929 1.4422293 -1.2329632 0.40404662 -0.21823889
0.30673036 -0.37394252 1.3014996 -0.5544105 0.9748113 -0.89481103 -0.07500807 -0.48054287
-1.3440726 -0.14880338 -1.9370017 -0.36634403 1.06042 -0.7962727 -0.29239687 0.4622602
0.31448656 -1.6781067 -1.2563599 0.8128734 0.42331252 -0.16485299 -0.49936238 -1.6514035
0.13446265 -1.5881438 -0.6296233 -0.6230929 -1.3785582 0.59508884 1.5698948 0.7822016
-0.6848405 -2.049537 2.4045575 1.9319106 0.09865194 -1.8390402 0.23447056 1.0208956
-0.9373094 -0.22638258 0.5931323 -0.3000223 -0.5008115 -0.08990547 -0.18066055 0.09599723
1.1025969 0.05925065 -1.1823528 0.6904041 -0.50511795 0.75539273 1.0894597 -0.17155409
1.1338251 0.5952614 1.9270015 2.1305943 1.2748126 -0.36525804 0.87120754 -0.8885856
2.253297 0.37158686 0.4852921 1.0204804 2.3496687 0.93843657 0.44909748 0.9389476
1.0383322 0.7922602 0.3087724 1.2315329 1.5392814 2.227613 -0.01850738 1.1604812
-0.099765204 -0.121144116 -0.07781742 -1.4178052 -0.514095 0.9671561 0.13290513 0.68528116
1.5920395 0.9056669 1.2618176 0.95228434 0.92862815 1.3278505 0.7941043 0.6617957
0.9416758 0.6182464 -0.57249385 0.29307723 -1.04728 -1.2639247 -0.08623723 0.43199673
0.14957762 -0.41293758 1.3433362 1.1737723 0.20795609 1.8951356 1.670747 0.08077847
0.05048852 1.4819239 0.04426368 -0.8755569 1.3607879 0.17294711 1.4897257 -0.01910894
1.8076396 -1.8040929 0.5307652 0.37964705 -0.030084357 0.38246202 0.77791786 1.0096492
-0.61710924 3.6186686 1.0588825 1.30137 0.8531331 -0.26800993 -0.21578267 0.7787954
0.7972066 0.041199405 -0.62491083 2.0194144 1.9366945 1.6100688 1.0845364 2.13286
-0.64425933 -0.47129217 1.9047378 2.1014292 0.1700292 -1.0761913 0.5919818 1.1932348
2.492155 0.17003018 -0.3739647 1.7955616 1.9921756 2.585853 1.1437986 0.96322954
-0.32824817 0.4312028 0.40152997 0.3094662 0.15954235 0.18687716 -0.25535062 1.0045868
-0.07368493 -0.22521907 -0.8853887 1.5687608 3.1087558 1.2381542 1.4557163 0.7695223
00000000: 9b09 83be d1a0 ba3f 333e 6bbc 43c3 ce3e
00000010: 7650 d73f e6fb 523f a20a 9d3f 2fe7 8abe
00000020: fc28 b7be a7a4 ad3e f5c4 85bf 540d b0bf
00000030: e702 f93e f0fe d83f 416f 22bf 6e0e c3bf
00000040: 63dc f03f 8ac8 e8be f432 3cbe 3636 6f3f
00000050: d7f2 a33e dd1c fbbc 236c a9bf af69 083f
00000060: d8d0 5fbe 8ee0 3dbd 3636 0640 80ed cd3f
00000070: 9397 c6be 473e 76be 358c 833d c28f e93f
00000080: 4dba f43e 892e 22be 1587 a6be 958c 20bf
00000090: 29f2 b23f 6dae cfbe ed62 c6be d743 c23f
000000a0: 61b1 c3be 4bec d33e 895e 39be fa68 1fbf
000000b0: 0d24 b9bf adc9 7b3f 124a 3d3f d109 e53f
000000c0: 2ec0 d63e 31df d23d 2af6 efbe 58af b73f
000000d0: 28bb bcbe 36c9 4e3f 9133 573f 2488 453e
000000e0: 8afc 9ebf 7de6 853d e787 263f a206 cc3f
000000f0: a1d0 9fbf ee20 8f3e 18c5 fbbf a204 c33d
00000100: bed6 0040 ff68 573f 7dfa b23f 3c1c 713e
00000110: fe89 853f bb74 3e3f 839a 0cbf ae90 1cbf
00000120: 6fe6 253f f480 20bf 81b3 8dbe ee30 44be
00000130: f89a b83f bdd1 9dbf 33df ce3e 047a 5fbe
00000140: c30b 9d3e 6575 bfbe 8a97 a63f d9ed 0dbf
00000150: 3c8d 793f 5612 65bf d59d 99bd b709 f6be
00000160: 920a acbf ea5f 18be acef f7bf 7291 bbbe
00000170: d8bb 873f 87d8 4bbf 0bb5 95be 5ead ec3e
00000180: 6204 a13e 33cc d6bf 67d0 a0bf 7918 503f
00000190: 6bbc d83e 39cf 28be 6dac ffbe 3161 d3bf
000001a0: 94b0 093e 4c48 cbbf fe2e 21bf 0483 1fbf
000001b0: 9874 b0bf be57 183f 50f2 c83f 5d3e 483f
000001c0: b551 2fbf 9d2b 03c0 45e4 1940 d948 f73f
000001d0: 070a ca3d ab65 ebbf 0d19 703e b5ac 823f
000001e0: 82f3 6fbf d6d0 67be 85d7 173f 869c 99be
000001f0: 2f35 00bf 5c20 b8bd 14ff 38be 329a c43d
00000200: e521 8d3f cfb0 723d 5657 97bf 53be 303f
00000210: 694f 01bf 6b61 413f 6a73 8b3f e0ab 2fbe
00000220: 2e21 913f 0d63 183f fca7 f63f a85b 0840
00000230: 0f2d a33f 1a03 bbbe 7507 5f3f 597a 63bf
00000240: 0536 1040 a240 be3e 3578 f83e 1a9f 823f
00000250: f960 1640 613d 703f 1bf0 e53e df5e 703f
00000260: 12e8 843f 91d1 4a3f 6a17 9e3e dfa2 9d3f
00000270: 2c07 c53f 3691 0e40 ca9c 97bc a68a 943f
00000280: b351 ccbd 681a f8bd bd5e 9fbd a47a b5bf
00000290: bb9b 03bf 8b97 773f 4818 083e 966e 2f3f
000002a0: f3c7 cb3f c9d9 673f 3d83 a13f e8c8 733f
000002b0: 93ba 6d3f 01f7 a93f 6b4a 4b3f 716b 293f
000002c0: aa11 713f 6545 1e3f f58e 12bf 380e 963e
000002d0: 450d 86bf 49c8 a1bf 259d b0bd ad2e dd3e
000002e0: e02a 193e 8e6c d3be 71f2 ab3f 2c3e 963f
000002f0: 71f2 543e ce93 f23f 0adb d53f 2f6f a53d
00000300: 0dcd 4e3d afaf bd3f d54d 353d 7f24 60bf
00000310: 4c2e ae3f 0c19 313e 55af be3f 5a8a 9cbc
00000320: bc60 e73f 84ec e6bf 3ae0 073f 1961 c23e
00000330: 7873 f6bc 10d2 c33e a025 473f 2f3c 813f
00000340: dffa 1dbf 4498 6740 7689 873f 4b93 a63f
00000350: ee66 5a3f 9938 89be 22f6 5cbe 235f 473f
00000360: bb15 4c3f b5c0 283d 28fa 1fbf 163e 0140
00000370: 9be5 f73f bc16 ce3f 17d2 8a3f c780 0840
00000380: 2eee 24bf 354d f1be 73ce f33f d17d 0640
00000390: 221c 2e3e a3c0 89bf 1f8c 173f ebbb 983f
000003a0: 787f 1f40 641c 2e3e 4d78 bfbe f6d4 e53f
000003b0: 9cff fe3f 9e7e 2540 fe67 923f 3696 763f
000003c0: 2510 a8be 9dc6 dc3e 5695 cd3e 5b72 9e3e
000003d0: 125f 233e ba5c 3f3e 51bd 82be 4d96 803f
000003e0: 20e8 96bd d49f 66be d5a8 62bf 27cd c83f
000003f0: dbf5 4640 d67b 9e3f e954 ba3f 6aff 443f

c.weight f4 [17747, 1]
1.5319276 0.49562645 1.1516291 -0.3700828 -0.04998832 -0.5363486 0.8751758 -1.3194683
-0.44057333 -0.26022127 0.07946547 -1.2005117 -1.8146763 -0.27445784 -0.5595958 -0.010692286
1.4009163 -0.0557834 -0.5660623 0.01252697 0.23286898 -0.68757915 -1.0164952 -1.6690218
0.5207079 -0.57218176 0.5386751 0.7529887 -0.109862834 0.30603018 -0.50894016 0.48204708
-0.9243701 -0.20176454 0.30935305 0.2840648 0.39131683 -0.5313928 -0.13320214 -0.32419133
-0.13916849 0.4163326 -0.14220384 -0.1182464 -0.7384559 0.44995624 0.26370922 1.1915398
0.26199067 -0.031992976 -0.32989386 -0.20751695 0.8998151 0.4639646 -0.1273257 -0.47428307
-1.3171505 0.0055763833 -0.23356532 0.17533831 0.00738599 0.22375809 0.6525259 0.7779175
0.14003153 0.88428307 0.15532184 0.29216045 0.31156218 0.750436 -0.20904984 -1.1316894
0.7196491 0.07632985 -0.21478242 -1.1612992 0.20872994 0.21028835 -0.8952742 0.4623267
0.09891795 -1.1921948 1.0640994 0.3689802 -0.43671808 -1.2842824 -0.3841735 0.31036952
0.3570759 -1.5131967 -0.8031235 -1.1098241 0.31601396 -0.4524371 1.6804903 -0.62509197
0.024890777 0.1675955 1.935559 0.2203782 0.3906294 -0.1307962 0.3253516 -0.24774826
-2.10684 0.030987471 1.7462697 1.2304548 -0.35284337 0.75227547 0.37861216 0.6732708
-0.81766653 -0.072444156 -1.24549 0.3072539 0.23657702 0.73870033 -0.40103617 0.24310867
0.49965143 0.6483687 1.5340607 -0.8124676 -0.7295078 -1.2314245 -0.5460737 0.3499636
0.3494608 -2.7591846 0.09562359 -0.7289225 -0.9920254 -3.3509464 -1.7548226 0.21561351
-2.166613 -1.732444 -1.038827 -0.31868047 -0.6341479 0.9367296 0.30653054 -0.07013256
0.12779774 0.6085425 -0.5186073 0.24789295 -1.1695187 -0.7687442 -2.1719828 -0.15277062
-2.2429214 -0.27829215 0.105988756 -0.03802481 -0.7183807 -1.4876055 0.27827412 0.24742693
1.6916648 -0.46222907 0.14848638 1.0306412 -0.23823689 0.09819233 0.27072063 -0.59025604
0.3912393 -1.2217424 -0.6028795 0.24915288 -2.5769382 0.75896513 -0.41449526 -0.76623297
-0.3474445 -1.4711294 0.036874842 0.25603217 -0.4513876 1.4436823 -0.16389291 -1.5676188
0.22946152 -1.7438506 -0.29956305 0.40947333 0.40257192 -1.1953486 0.2845841 -1.697463
-0.7262733 -0.30365407 -0.8532172 -1.4500777 -0.18433164 -1.0178387 -2.0851846 -1.3811202
-0.56745666 0.827277 -1.9898204 -0.39262587 -1.3935488 0.36191678 0.5823146 0.35079193
0.1846049 0.6860025 -0.8252121 -0.33233184 -0.59159344 -0.4575594 -0.40281022 -0.06337305
-1.084342 0.38057077 -0.5564517 0.7323003 -0.0983177 -0.4771507 -0.11035907 0.78370476
0.74965066 -0.031739794 0.20109487 0.7194639 -1.5795076 -0.26177692 0.33105206 -1.1538634
-0.26165846 -2.4848268 -3.5328844 -3.0368958 -0.24060953 -0.35510427 -0.24307808 -0.96538496
1.0257021 -1.332951 0.315652 -0.16326047 -1.2743654 0.044391494 -0.9254664 0.071194015
-3.260161 -1.9337054 -0.38812226 -0.2952757 -0.36505997 -0.66827893 -1.6720823 -0.5344046
00000000: 3416 c43f c0c2 fd3e 9568 933f 7e7b bdbe
00000010: 8dc0 4cbd 244e 09bf 850b 603f 56e4 a8bf
00000020: d492 e1be b93b 85be cbbe a23d 5eaa 99bf
00000030: 5047 e8bf bd85 8cbe ac41 0fbf b32e 2fbc
00000040: 3a51 b33f 227d 64bd 75e9 10bf ec3d 4d3c
00000050: 3575 6e3e 3005 30bf 841c 82bf 82a2 d5bf
00000060: 1d4d 053f 817a 12bf 9de6 093f dec3 403f
00000070: c4ff e0bd fdaf 9c3e e749 02bf e0ce f63e
00000080: 85a3 6cbf 5d9b 4ebe 8663 9e3e f170 913e
00000090: ae5a c83e 5c09 08bf 2466 08be 68fc a5be
000000a0: 2f82 0ebe 8c29 d53e e29d 11be 2b2b f2bd
000000b0: 720b 3dbf aa60 e63e e504 873e 6084 983f
000000c0: a423 863e 110b 03bd d9e7 a8be 537f 54be
000000d0: 485a 663f c58c ed3e ab61 02be 3bd5 f2be
000000e0: 6398 a8bf 18ba b63b bf2b 6fbe e38b 333e
000000f0: 2d06 f23b d720 653e f00b 273f 9a25 473f
00000100: 6d64 0f3e 6060 623f b00c 1f3e 0e96 953e
00000110: 1485 9f3e 931c 403f 2911 56be 33db 90bf
00000120: ec3a 383f d352 9c3d ecef 5bbe 74a5 94bf
00000130: 4dbd 553e d455 573e b130 65bf 16b6 ec3e
00000140: 7f95 ca3d d799 98bf 6934 883f f9ea bc3e
00000150: 8399 dfbe 5e63 a4bf 64b2 c4be c1e8 9e3e
00000160: a7d2 b63e 6eb0 c1bf 8099 4dbf b70e 8ebf
00000170: 95cc a13e d6a5 e7be 4e1a d73f 0706 20bf
00000180: bee7 cb3c 289e 2b3e 66c0 f73f d3aa 613e
00000190: 9400 c83e 70ef 05be 7c94 a63e b8b1 7dbe
000001a0: 77d6 06c0 70d9 fd3c c485 df3f 8b7f 9d3f
000001b0: e3a7 b4be 2095 403f 74d9 c13e 7a5b 2c3f
000001c0: 9852 51bf 9a5d 94bd 376c 9fbf 6250 9d3e
000001d0: 3f41 723e 771b 3d3f 9d54 cdbe 7bf1 783e
000001e0: 50d2 ff3e 7efb 253f 1a5c c43f e0fd 4fbf
000001f0: 06c1 3abf 519f 9dbf 7ccb 0bbf 6e2e b33e
00000200: 87ec b23e 7b96 30c0 4dd6 c33d aa9a 3abf
00000210: 60f5 7dbf e875 56c0 079e e0bf cac9 5c3e
00000220: caa9 0ac0 bac0 ddbf 48f8 84bf 162a a3be
00000230: 8457 22bf 83cd 6f3f 92f1 9c3e a9a1 8fbd
00000240: 69dd 023e 71c9 1b3f 73c3 04bf a6d7 7d3e
00000250: cab2 95bf 6bcc 44bf c401 0bc0 e76f 1cbe
00000260: 068c 0fc0 4f7c 8ebe a210 d93d e7bf 1bbd
00000270: cce7 37bf db69 bebf f279 8e3e 7c5d 7d3e
00000280: 7988 d83f 4aa9 ecbe d00c 183e 0dec 833f
00000290: 5ff4 73be 0f19 c93d e59b 8a3e 051b 17bf
000002a0: 8450 c83e 0e62 9cbf 5056 1abf ef21 7f3e
000002b0: 8eec 24c0 8a4b 423f b938 d4be d827 44bf
000002c0: 3fe4 b1be f84d bcbf 130a 173d a616 833e
000002d0: 471c e7be 95ca b83f 8bd3 27be bca7 c8bf
000002e0: f6f7 6a3e 7f36 dfbf 5460 99be 7da6 d13e
000002f0: e81d ce3e 2f01 99bf 02b5 913e 7846 d9bf
00000300: 0ced 39bf 8c78 9bbe 716c 5abf 259c b9bf
00000310: 6fc1 3cbe 8a48 82bf aa73 05c0 8cc8 b0bf
00000320: d744 11bf 6dc8 533f 6fb2 febf 4206 c9be
00000330: cf5f b2bf 284d b93e 9212 153f 009b b33e
00000340: 1109 3d3e dc9d 2f3f 1a41 53bf 6627 aabe
00000350: ab72 17bf 3a45 eabe 243d cebe bbc9 81bd
00000360: b8cb 8abf 2cda c23e 9e73 0ebf 0878 3b3f
00000370: ca5a c9bd 194d f4be f003 e2bd e0a0 483f
00000380: 1be9 3f3f 9601 02bd d0eb 4d3e c92e 383f
00000390: 4e2d cabf a007 86be a87f a93e ccb1 93bf
000003a0: 19f8 85be 6707 1fc0 c71a 62c0 805c 42c0
000003b0: 5862 76be 3ad0 b5be 76e9 78be 7823 77bf
000003c0: 354a 833f 239e aabf 249d a13e c12d 27be
000003d0: 681e a3bf dbd3 353d 5eeb 6cbf 2bce 913d
000003e0: 7aa6 50c0 a983 f7bf f6b7 c6be 602e 97be
000003f0: 24e9 babe 5414 2bbf cb06 d6bf bdce 08bf
