IRT_finial/irt_model.pth (torch, 231712 bytes, 4 tensors)

theta.weight f4 [4164, 1]
0	0xbeef3bce	-0.46725315
1	0xbd88a472	-0.066719905
2	0xbe956d24	-0.2918483
3	0x3fcb4950	1.5881748
4	0x3faa0939	1.3284065
5	0x3f32c269	0.69827896
6	0xbf04792a	-0.5174738
7	0xbf2ad981	-0.66738135
8	0x3f4185bf	0.75594705
9	0xbeda879f	-0.42681596
10	0xbe8f8ef5	-0.28038755
11	0x3f0cb7d7	0.5496802
12	0xbfa80d5b	-1.3129076
13	0xbf22b8a9	-0.6356302
14	0x3f51b792	0.8192073
15	0xbdee6573	-0.11640444
16	0xbf741a32	-0.9535247
17	0x3f7e6eea	0.9938799
18	0xbfae4e8a	-1.3617718
19	0xbfa08218	-1.2539701
20	0xbea91d01	-0.3302994
21	0xbe18311f	-0.14862488
22	0x3f1ae680	0.60507965
23	0x3f6a89c0	0.9161644
24	0x3f62a7d4	0.88537335
25	0xbfd27974	-1.6443315
26	0x3e334424	0.17506462
27	0xbe212701	-0.15737535
28	0x3f574c45	0.84100753
29	0xbec85b6e	-0.39132255
30	0xbecca23a	-0.3996752
31	0x3ee7291a	0.45148546
32	0xbe277c93	-0.16356115
33	0x3f8bea31	1.0930845
34	0x40060a08	2.0943623
35	0xbee94155	-0.45557657
36	0xbe222898	-0.15835798
37	0xbf623439	-0.88360935
38	0xbff8de25	-1.9442793
39	0xbd7c8911	-0.061654154
40	0xbf8665cd	-1.0499817
41	0x3fc1ca98	1.5139952
42	0x40275891	2.6147807
43	0xbf7c7499	-0.98615414
44	0xbf970665	-1.1798826
45	0xbf0be77d	-0.546501
46	0xbfd8de5e	-1.6942861
47	0xbf95c677	-1.1701192
48	0x3eb9e64b	0.36308512
49	0x3fa428fd	1.2825009
50	0x3fe53311	1.7906209
51	0x3fc4483d	1.5334545
52	0x3f50f8f5	0.8162988
53	0x3f89b156	1.0757244
54	0x3f67d945	0.905659
55	0xbfd37ec6	-1.6523063
56	0xbfbb066e	-1.4611337
57	0xbf7bef59	-0.9841209
58	0xbd701376	-0.05861231
59	0x3fe80b12	1.8128378
60	0x3f9fc0be	1.2480695
61	0xbe4fc53c	-0.20290083
62	0x3f0c5a91	0.54825693
63	0x3db906bc	0.090344876
64	0xbf9d22a2	-1.2276194
65	0xbe2bdeb4	-0.16784173
66	0xbfdff242	-1.7495806
67	0xbe2b2048	-0.16711533
68	0xbe373a47	-0.17893325
69	0x3f405705	0.7513278
70	0x3c593916	0.013258239
71	0xbf3a35f3	-0.7273857
72	0xbf571204	-0.84011865
73	0xbf8ee290	-1.1162891
74	0xbd3d5ada	-0.04622922
75	0x3f561e4f	0.8364
76	0x3f257c5f	0.646429
77	0x3e3094c3	0.17244248
78	0x3f99f31b	1.2027315
79	0x3f40d51d	0.75325185
80	0xbf80e4dc	-1.0069842
81	0xbe8bca66	-0.27302855
82	0xc020c9a0	-2.5123062
83	0x3f07d541	0.53059775
84	0xbf09c1e1	-0.5381146
85	0x3f22841b	0.63482827
86	0xbd647a9c	-0.055780992
87	0x3eae74ca	0.34073478
88	0x3fae6a01	1.36261
89	0xbeca4415	-0.39505067
90	0xbf15759a	-0.5838257
91	0x3fa6be19	1.3026763
92	0xbeb4fe8a	-0.35350448
93	0xbea358b5	-0.31903616
94	0xbfa4e2f8	-1.2881765
95	0x3d1710cc	0.036881253
96	0xbfc02c7b	-1.5013574
97	0xbf0b516c	-0.54421115
98	0x3f247aa2	0.6424962
99	0xbea15007	-0.3150637
100	0x3f3953e7	0.7239365
101	0xbf91097f	-1.1331023
102	0xbfd24e84	-1.6430211
103	0x3ec6b312	0.38808495
104	0xbf79f4d1	-0.97639185
105	0x3f8ded6c	1.108808
106	0x3fc50538	1.5392218
107	0x3f5ae3c3	0.85503787
108	0x3f54132b	0.8284175
109	0xbe9fb073	-0.31189308
110	0xbf70169e	-0.9378451
111	0xbe89750e	-0.26847118
112	0xbf8c5eb9	-1.0966407
113	0xbf9e09ce	-1.2346742
114	0xbf03c44d	-0.51471406
115	0x3f5e2d32	0.8678771
116	0x3e44cf7c	0.19219774
117	0x3f110c70	0.56659603
118	0x3e7fbc61	0.24974205
119	0xbf48fea2	-0.7851354
120	0xbf2b55c8	-0.66927767
121	0x3f00937f	0.5022506
122	0x3f84ca86	1.0374305
123	0xbf0d4df6	-0.55197084
124	0xbf665149	-0.8996778
125	0x3f1b3a4e	0.6063584
126	0x3e806bb6	0.25082177
127	0x3e1cb263	0.15302424
128	0x402dfc7e	2.718536
129	0x3f8f2bcc	1.1185241
130	0x3fb275a7	1.3942155
131	0x3d5aec0f	0.05344778
132	0xbf62b861	-0.8856259
133	0xbc457916	-0.012052795
134	0x3e98a20a	0.29811126
135	0xbeaefb24	-0.3417598
136	0x3ed555e3	0.4166709
137	0x3f4e5242	0.80594265
138	0x3d7bf96a	0.061517157
139	0x3eaf2cd7	0.34213898
140	0xbfd9aec8	-1.7006464
141	0x4003dcd0	2.0603523
142	0xbf41e18b	-0.75734776
143	0xbf588a7b	-0.84586304
144	0x3f6c5001	0.92309576
145	0x3e484dcf	0.19560932
146	0x3f4cbf85	0.79979736
147	0xbfa228a7	-1.2668656
148	0xbf90f8b9	-1.1325904
149	0x3ea4eb25	0.3221065
150	0xbf96c2f0	-1.177824
151	0xbf6d1efb	-0.926254
152	0xbf81fa21	-1.0154458
153	0x3e8e66f8	0.27812934
154	0x3e85181c	0.25994956
155	0xbf155ee1	-0.583479
156	0x3f773f18	0.9658065
157	0xbebbd906	-0.36689013
158	0x3f9bddcd	1.2177063
159	0xbe3cb67f	-0.18428992
160	0xbf8d674b	-1.1047148
161	0xbfd88e66	-1.6918457
162	0xbf6e7bb2	-0.93157494
163	0xbe9ac55c	-0.30228698
164	0x3eea18f6	0.4572217
165	0x3e4531db	0.192573
166	0x3eba151f	0.3634424
167	0xbe7a3696	-0.24434885
168	0x3eaa28a6	0.33234137
169	0x3d577593	0.052602362
170	0x3f1e8be4	0.61932206
171	0x3e402312	0.18763378
172	0xbfb6cf0c	-1.4281936
173	0x3f7134f4	0.94221425
174	0x3eaa25c3	0.33231935
175	0x3f17f42b	0.59356946
176	0x3fcbd488	1.5924234
177	0x3ed822c4	0.42214024
178	0xbf115ca6	-0.56781995
179	0xbf80bf91	-1.0058461
180	0x3e2a62fc	0.16639322
181	0xbe4fd6ff	-0.20296858
182	0x3f193b65	0.59856254
183	0x3d53b104	0.051682487
184	0x3cf97996	0.030453485
185	0x3f53509d	0.8254488
186	0x3edd09f0	0.43171644
187	0x3fb8f772	1.4450514
188	0xbf82aa55	-1.0208231
189	0xbf4deed6	-0.8044256
190	0xbfcb6818	-1.5891142
191	0x3f6018d6	0.87537897
192	0x3f5d1210	0.86355686
193	0xbe92cafd	-0.28670493
194	0xbf52c206	-0.82327306
195	0xbfc1e329	-1.5147449
196	0xbf304042	-0.6884805
197	0xbf1428c0	-0.5787468
198	0xbfbcd173	-1.4751419
199	0x3fb5c30b	1.4200147
200	0x3fd4c221	1.6621743
201	0xbed60885	-0.41803375
202	0x3dad9719	0.08476085
203	0x3d4416e3	0.04787339
204	0xbdb45052	-0.088043824
205	0xbf9e4853	-1.2365822
206	0x3f7ea92d	0.9947689
207	0xbfa42337	-1.2823247
208	0x3fe6cc92	1.803118
209	0x3f1dee20	0.61691475
210	0x3e389b81	0.1802807
211	0xbfc81a39	-1.5633003
212	0x3fc80e80	1.5629425
213	0xbf727f5c	-0.94725585
214	0xbf5cc51e	-0.86238277
215	0xc020f0b4	-2.5146914
216	0x3eeb5f5c	0.4597119
217	0xbfe986bb	-1.8244241
218	0x3eb1e509	0.34745052
219	0x3c99edea	0.018790204
220	0xbf2963b0	-0.66167736
221	0xbdb99bb1	-0.09062899
222	0xbe894bb9	-0.26815584
223	0xbeafb293	-0.3431593
224	0xbf41c7c1	-0.75695425
225	0xc005fbef	-2.0935018
226	0xbf4a572f	-0.7903928
227	0xbf98bbaa	-1.193227
228	0x3f53f09e	0.8278903
229	0xbf1751e3	-0.59109324
230	0x3f2a064b	0.6641585
231	0x3e8cb4ee	0.27481788
232	0xbf1e9c2e	-0.6195706
233	0xbfdeae4b	-1.739694
234	0xbfb4dbc1	-1.4129564
235	0xbba92902	-0.005162359
236	0x3f383274	0.71951985
237	0x3fe81ffc	1.8134761
238	0x3e874489	0.26419476
239	0xbe972032	-0.2951675
240	0x3f6d4017	0.9267592
241	0xbf3c0d23	-0.73457545
242	0x3f7415c7	0.9534573
243	0x3f4bcd61	0.7961026
244	0x3f911c66	1.1336792
245	0xc004e1b7	-2.0762765
246	0xbf38b315	-0.7214826
247	0xbed809c3	-0.42194948
248	0xbfcaac99	-1.5833923
249	0x3eda05c8	0.42582536
250	0x3d1494a6	0.036274575
251	0x3eb1ee06	0.3475191
252	0xbe56bd5d	-0.20970674
253	0x3f5525c6	0.8326076
254	0xbee90baf	-0.45516726
255	0x3f4a9a46	0.7914165

a.weight f4 [17747, 1]
0	0xbe10a773	-0.14126377
1	0x3e2a5128	0.16632521
2	0xbf3b1414	-0.7307751
3	0xbfe440d5	-1.7832285
4	0x3ee56ed9	0.44811133
5	0xbdad1b64	-0.0845249
6	0x3eb52da7	0.35386392
7	0x3d9e57c0	0.07731581
8	0x3eb2efd5	0.34948602
9	0xbf6ecd61	-0.93282133
10	0x3d9edf57	0.077574424
11	0x3e93063e	0.287157
12	0xbfd9e8d1	-1.7024175
13	0x3f0cfe76	0.55075777
14	0x3f7e59e8	0.99355936
15	0x3f86a243	1.0518268
16	0x3c5458f9	0.012960666
17	0x3e497ee4	0.19677311
18	0xbf80d31a	-1.0064423
19	0xbbc4b06c	-0.0060024764
20	0x3f2e90d4	0.6818974
21	0xbe1b6732	-0.15176085
22	0xbf2a5446	-0.6653484
23	0x3e172bcd	0.14762802
24	0xbfe7cf62	-1.8110163
25	0x3dfea785	0.124342956
26	0x3fd49544	1.6608052
27	0xbf9e0546	-1.2345359
28	0xbf945fcf	-1.1591738
29	0x3fb3c231	1.4043638
30	0x3e920f1f	0.2852716
31	0x3f76b937	0.96376365
32	0xbf23283b	-0.6373326
33	0x3f652359	0.8950706
34	0xbed23e84	-0.4106332
35	0xbea408d1	-0.32037976
36	0x3f18fa4f	0.5975694
37	0x3f7c5dc6	0.98580587
38	0xbf88fcb3	-1.0702118
39	0xbe2ae345	-0.16688259
40	0xbed9f65e	-0.42570776
41	0xbf3a0c95	-0.7267545
42	0x3d6276e2	0.055289157
43	0xbe039ffd	-0.12854
44	0xbd56957f	-0.052388664
45	0x3ec2dcbc	0.38059032
46	0xbf767d40	-0.96284866
47	0x3eadd0a6	0.3394825
48	0xbfaa2dfa	-1.3295281
49	0x3eb3915e	0.35071844
50	0xbf2aacbf	-0.6666984
51	0x3fa16ac5	1.2610708
52	0x401ea03a	2.4785295
53	0x3f558b04	0.83415246
54	0x3d1291a3	0.03578342
55	0x3f0c4a78	0.5480113
56	0xbf72a0db	-0.94776696
57	0xbf2cb540	-0.67464066
58	0xbf907e09	-1.1288463
59	0x3e493e6d	0.1965272
60	0x3f44d48d	0.76886827
61	0x3f416d8c	0.7555778
62	0xbf92cfc5	-1.1469656
63	0x3c268335	0.010163118
64	0x3f25a9ca	0.647122
65	0xbfd053d5	-1.6275584
66	0xbe51668b	-0.20449273
67	0xbfa21185	-1.2661597
68	0xbc8711ed	-0.01648804
69	0x3d5ae567	0.05344143
70	0xbfde9b09	-1.7391063
71	0xbe536475	-0.2064379
72	0x3f0bcd07	0.5460972
73	0xbdc116f0	-0.09428203
74	0xc01a31c1	-2.4092867
75	0xbe234fd1	-0.15948416
76	0xc01ed06e	-2.4814715
77	0xbf963115	-1.1733729
78	0xbf989265	-1.1919676
79	0xbfb3ff6f	-1.4062327
80	0x3f4db3ef	0.8035268
81	0xbdf537b3	-0.119735144
82	0xbd730e2f	-0.0593397
83	0x3ed0e8df	0.40802667
84	0xbe475983	-0.1946774
85	0x3ebbd52c	0.36686075
86	0x3fae0df2	1.3598006
87	0x3fb86afe	1.4407651
88	0x3f55b3ce	0.83477485
89	0x3ed4407c	0.41455448
90	0x3c040806	0.008058554
91	0xc01dec51	-2.4675486
92	0x3f5a2556	0.8521322
93	0xbfdd3a27	-1.7283372
94	0xbf909916	-1.1296718
95	0x3e78e4e3	0.24306063
96	0xbf0a151c	-0.5393846
97	0x4016463d	2.348037
98	0xbf38da2a	-0.7220789
99	0xbfc33c68	-1.525281
100	0xbaf254c0	-0.0018488392
101	0xbf535635	-0.82553416
102	0x3eb9f364	0.36318505
103	0xbfc019e0	-1.5007896
104	0xbf987bd6	-1.1912792
105	0x3ef47dba	0.47752172
106	0x3f82e182	1.022507
107	0x3de8a183	0.11358931
108	0x3ebd7df2	0.3701015
109	0x3f3032c1	0.68827444
110	0x3fcbfaf1	1.5935956
111	0x3f6d8b6c	0.92790866
112	0xbda8920f	-0.082309835
113	0x3f36b063	0.71362895
114	0xbf236425	-0.63824683
115	0x3f484359	0.78227764
116	0xbf4202ff	-0.7578582
117	0xbfa52ddd	-1.2904621
118	0xbf26c164	-0.6513884
119	0xbfa7ca3b	-1.3108591
120	0xbee9af4f	-0.45641562
121	0x3fbb7e5d	1.4647938
122	0xbf674d0b	-0.90351933
123	0xbf867fda	-1.0507767
124	0xbfa9587f	-1.3230132
125	0x3c90d81c	0.017681174
126	0xbed6c12d	-0.41944256
127	0xbece7e8a	-0.40330917
128	0xbf25cbd0	-0.6476412
129	0x3fcbd2c2	1.5923693
130	0x3e3b3003	0.18280034
131	0xbe769160	-0.24078894
132	0xbd4a473a	-0.049384333
133	0xbee64872	-0.44977146
134	0x3e345a83	0.17612652
135	0x3f051e61	0.5199948
136	0x3fa784c0	1.3087387
137	0xbfe9d416	-1.8267848
138	0xc01adb4d	-2.419635
139	0x3f2cc6a2	0.6749059
140	0x3d7f850d	0.062382746
141	0xbf1e514c	-0.618428
142	0xbfd03134	-1.6265016
143	0xbd9b6a81	-0.075886734
144	0x3f3fb4c5	0.7488521
145	0xbf438332	-0.76372063
146	0x3ebdeac3	0.3709317
147	0xbeaad3b8	-0.33364654
148	0xbd85fe3a	-0.065426305
149	0xc0262706	-2.5961318
150	0x3f0842ee	0.53227127
151	0xbf82edaa	-1.0228779
152	0x3f2b458b	0.6690299
153	0x3f652397	0.8950743
154	0x40115f50	2.2714424
155	0x3f02ed6f	0.51143545
156	0xbe4483fe	-0.19190976
157	0xbfa8faba	-1.3201516
158	0xbff97b83	-1.9490818
159	0x4002335f	2.0343854
160	0x3fca5d3f	1.5809706
161	0x3ec59e1f	0.385972
162	0xbf38eddf	-0.7223796
163	0x3f07290f	0.52797025
164	0xbf6b593f	-0.91933054
165	0xbd4c9d1b	-0.049954515
166	0x3f811a54	1.008616
167	0x3db5232f	0.08844601
168	0x3f25ba92	0.6473781
169	0xbf947d44	-1.1600728
170	0xbcf628d4	-0.030048765
171	0x3ea8281d	0.32843104
172	0xbd23d2ab	-0.03999583
173	0xbe86f09f	-0.26355454
174	0x3fde0043	1.734383
175	0x3f121a32	0.5707122
176	0x3f64fe8d	0.89450914
177	0xbf8bf788	-1.0934916
178	0x3f32e20a	0.6987616
179	0x3eb0debd	0.34544936
180	0xbe46fa2d	-0.19431372
181	0xbf85e438	-1.0460272
182	0x3de01a6c	0.109425396
183	0xbe619f90	-0.22033525
184	0xbf4b47f5	-0.7940667
185	0xbf4d5faf	-0.80224127
186	0x3f23c2a9	0.639689
187	0xbf3f5b23	-0.7474844
188	0xbf057494	-0.5213101
189	0xbe16d5ce	-0.14729998
190	0x3ea09db7	0.31370327
191	0xbf36578c	-0.71227336
192	0xbf0940b5	-0.5361436
193	0x3e92c34c	0.28664625
194	0xbfdcbf14	-1.7245812
195	0x3f0581ea	0.5215136
196	0x3f8890ca	1.0669186
197	0x3e9d888f	0.30768248
198	0xbd823d95	-0.06359402
199	0xbe4b6dde	-0.1986613
200	0x3fed1b3d	1.8523937
201	0xbf01b5f7	-0.5066828
202	0xbf2c7abd	-0.67374784
203	0x3ff64eef	1.9242839
204	0xbf0af199	-0.542749
205	0x3e879f78	0.26488853
206	0x3f930772	1.1486647
207	0xbf939830	-1.1530819
208	0xbf68f84b	-0.91003865
209	0xbfbdcadf	-1.4827536
210	0xbf18a979	-0.59633595
211	0x3f238826	0.6387962
212	0xbfb3c01f	-1.4043006
213	0x3d5a2f57	0.053267803
214	0x3dd3d904	0.10344127
215	0x3f5fd709	0.8743749
216	0xbfb87e2e	-1.4413507
217	0xbf910ccb	-1.1332029
218	0xbd5ffbdb	-0.054683547
219	0x3fa3c59d	1.2794682
220	0xbfd77b7c	-1.683456
221	0xbfa07932	-1.2536986
222	0x3f558a1f	0.8341388
223	0xbf6bc066	-0.9209045
224	0xc015d1e8	-2.3409367
225	0xbdf2b37d	-0.11850641
226	0x3e946f4d	0.28991166
227	0x3e8e5cab	0.27805075
228	0xbedd3f23	-0.43212232
229	0xbf8fdde7	-1.1239594
230	0x3e00a776	0.12563881
231	0x3ecd7dae	0.40134948
232	0x3f20a7b2	0.6275588
233	0x3f00ef70	0.5036535
234	0x3ed114ac	0.40836084
235	0xbe878cc3	-0.2647458
236	0xbf075105	-0.52858
237	0x3fd0d816	1.6315944
238	0x3f06bb38	0.52629423
239	0xbf0a77f6	-0.54089296
240	0x3e0b2f2b	0.13592212
241	0xbf1ef9b3	-0.6209976
242	0x3f7d463f	0.9893531
243	0xbfcef8cd	-1.6169678
244	0xbf6e844e	-0.9317063
245	0x3e9cb6ea	0.30608302
246	0xbf673a88	-0.90323687
247	0xbe83dc22	-0.25753886
248	0x3eedc069	0.4643586
249	0xbf67b925	-0.90516883
250	0x4009c7bc	2.1528158
251	0xbfbab87f	-1.4587554
252	0xc000937a	-2.0090013
253	0x3fa295a7	1.270192
254	0xbecedeb4	-0.40404284
255	0xbf8cfc15	-1.1014429

b.weight f4 [17747, 1]
0	0xbf97b006	-1.1850593
1	0xbf6667c5	-0.9000209
2	0x3f62b0f8	0.8855128
3	0xbe998a39	-0.29988268
4	0x3f9e03a4	1.2344861
5	0xbfd7811e	-1.6836278
6	0xbf0bc02b	-0.545901
7	0x3efd28ad	0.49445096
8	0xbe8e96c1	-0.2784939
9	0x3f3c75b0	0.73617077
10	0xbe4b95cb	-0.1988136
11	0x400e95b3	2.227887
12	0x3ec4ea84	0.3846017
13	0xbe0c54ec	-0.1370427
14	0x3d295e86	0.04134991
15	0xbe1b1a2e	-0.15146706
16	0xbe1f92ab	-0.15583293
17	0xbf95003b	-1.1640695
18	0xbf838f8d	-1.0278183
19	0xbf43cb1f	-0.76481813
20	0xbf84034f	-1.031351
21	0x3e7fda77	0.24985681
22	0x3f943e08	1.158143
23	0x4001c184	2.0274363
24	0xbe430124	-0.19043404
25	0x3f73753d	0.95100766
26	0xbf5f96ea	-0.8733965
27	0x3f4ec8d8	0.80775213
28	0xbf1420b2	-0.5786239
29	0xbfc9f1e1	-1.577694
30	0x3e79c4e6	0.24391517
31	0x3f2a6a8f	0.66568846
32	0xbe450642	-0.19240668
33	0x3e55577f	0.20834158
34	0xbddbdca7	-0.107354455
35	0xbf019653	-0.5062
36	0x3fabcdca	1.3422177
37	0x3d503234	0.050829127
38	0xbfcd96f8	-1.6061697
39	0x3fcd848e	1.6056077
40	0x3fee28f5	1.8606249
41	0xbf20e830	-0.6285429
42	0x3ed1020a	0.40821868
43	0xbfe8730f	-1.8160113
44	0xbe1753bd	-0.14778037
45	0xbe8d3327	-0.2757809
46	0xbf80ab57	-1.0052289
47	0x3d3b69f5	0.045755345
48	0xbfc95fe6	-1.5732391
49	0x3eb27e67	0.34862062
50	0xbe930971	-0.2871814
51	0xbfd5567e	-1.666702
52	0xbf7db07f	-0.99097437
53	0x3e9d1561	0.30680373
54	0xbd36f16d	-0.044663835
55	0x3f7fd9ae	0.9994153
56	0x3e1348c1	0.14383222
57	0x3eb448ed	0.35211888
58	0x3eafb01e	0.34314054
59	0xbe42bace	-0.19016573
60	0xbdfbd090	-0.122956395
61	0x3fcad3fb	1.5845941
62	0xbf72b13c	-0.9480169
63	0x3e8c5a3e	0.274126
64	0xbfe85cc0	-1.8153305
65	0xbf628181	-0.8847886
66	0x3f041f04	0.51609826
67	0x3e296110	0.16540933
68	0xbef76b40	-0.48324013
69	0x3f22b5e6	0.63558805
70	0xbf512860	-0.8170223
71	0xbf4a459d	-0.7901247
72	0xbf693bc2	-0.9110681
73	0x3f47b488	0.78009844
74	0xbfdf81e3	-1.7461513
75	0xbe7bcbf4	-0.2458952
76	0xbf93322a	-1.1499684
77	0xbf57bdbf	-0.84273905
78	0x3f8f61f7	1.1201771
79	0xbfa048f7	-1.2522267
80	0xbe4abb25	-0.19797952
81	0x40104237	2.2540414
82	0xbea2fd34	-0.31833804
83	0x3e8713c7	0.26382276
84	0xbe341761	-0.17587043
85	0x3f2a999f	0.6664066
86	0x3f32cff0	0.6984854
87	0x3ec5ead1	0.38655713
88	0xbe0e485a	-0.13894787
89	0x3e1177e7	0.14205895
90	0xc007dddd	-2.1229165
91	0xc018c159	-2.386801
92	0x3f3a3253	0.7273304
93	0xbf97fa5f	-1.1873282
94	0xbf0e921c	-0.55691695
95	0xbf70195d	-0.937887
96	0x3f2542c8	0.64555025
97	0x3e952513	0.29129848
98	0x3ee10738	0.4395082
99	0xc007ecdb	-2.1238315
100	0x3e9ff72d	0.31243268
101	0xbe8f7a1c	-0.2802285
102	0xbeb82a2f	-0.35969684
103	0xbf1b0f16	-0.60569894
104	0xbfa7ddb3	-1.3114532
105	0x3ef4ec22	0.47836405
106	0xbf3af933	-0.730365
107	0xbf712e47	-0.9421124
108	0x3ea9950a	0.3312152
109	0xbf36f3f4	-0.7146599
110	0x3eeda822	0.46417338
111	0xbf654038	-0.89551115
112	0x3e94c8c3	0.2905942
113	0x3f461ab0	0.7738447
114	0x3f1e1cc7	0.6176266
115	0x3ff56ea1	1.9174386
116	0x3f83665b	1.0265611
117	0xbfaf9da2	-1.3719981
118	0x3f376698	0.7164092
119	0xbf80f22e	-1.0073907
120	0x3eee540d	0.465485
121	0x3f504dae	0.8136853
122	0xbf8e951d	-1.1139256
123	0x3f4dd421	0.8040181
124	0xbf0d6e4a	-0.5524641
125	0xbe96e7d3	-0.29473743
126	0xbd8926d3	-0.06696858
127	0x3fcd256e	1.6027048
128	0x3eea0ef3	0.4571453
129	0x3d83e2d1	0.06439746
130	0x3d87fa6d	0.06639562
131	0xbecac15f	-0.39600655
132	0xbf9383bc	-1.1524577
133	0x4022d62a	2.5443215
134	0x3ea25979	0.31708887
135	0x3f28b475	0.65900356
136	0x3f80a9ce	1.005182
137	0xbd1afec7	-0.03784063
138	0x3fdcdf03	1.7255558
139	0x3e83e4e3	0.25760564
140	0xbe240a3b	-0.16019528
141	0xbf66434b	-0.8994643
142	0xbdb11ef5	-0.08648483
143	0xbe7257ec	-0.23666352
144	0x3ed7cd4c	0.42148817
145	0x3fc3edf5	1.5306994
146	0x3f909996	1.1296871
147	0x3d8cd5fe	0.06876753
148	0x3fcb0e56	1.586375
149	0x3edca74d	0.4309639
150	0x3ff878af	1.941183
151	0x3f6e6519	0.9312301
152	0xbdd38b8b	-0.1032935
153	0xbfd876b4	-1.6911225
154	0xbf2b605b	-0.669439
155	0xbcdf2c7b	-0.02724289
156	0x3fbc917c	1.4731898
157	0x3e9093ea	0.2823785
158	0x3fa8f968	1.3201113
159	0x3fb03dc4	1.3768849
160	0x3f3d27ce	0.7388886
161	0x3f0bbae0	0.54582024
162	0x3e96f14a	0.29480964
163	0x3efd7d8c	0.49509847
164	0x3ec2fb87	0.38082525
165	0xbdbadb42	-0.09123851
166	0x3f2d4e46	0.6769756
167	0x3f892192	1.071337
168	0x3fbc6eab	1.4721273
169	0x3fd57186	1.667527
170	0x3e5c9963	0.21542887
171	0xbe83f048	-0.25769258
172	0x3ec55dca	0.38548118
173	0xbdbf8233	-0.093510054
174	0x3fd41218	1.6568022
175	0x3fc11951	1.5085851
176	0x3fa9b70c	1.3258986
177	0x3f3a3bdb	0.7274758
178	0x3f8afccc	1.0858397
179	0xbf17b5f0	-0.5926199
180	0x3f8679de	1.0505941
181	0xbf620600	-0.88290405
182	0x3f2c13c0	0.67217636
183	0x3fa82848	1.3137293
184	0x3f9ddde8	1.2333345
185	0xbf69146b	-0.9104678
186	0x3e80d25c	0.2516049
187	0x3e76bca3	0.24095397
188	0xbf02f130	-0.5114927
189	0x40247451	2.5695994
190	0x3f1eaa83	0.6197893
191	0x3f9805dc	1.1876788
192	0xbecd7919	-0.40131453
193	0xbc742ac1	-0.014902771
194	0x3f80abdf	1.0052451
195	0x3fc8dd00	1.5692444
196	0x3f4cb59b	0.7996461
197	0x3f525792	0.8216487
198	0x3f0f61bd	0.5600851
199	0x3fcedb20	1.6160622
200	0x3f8fb7b6	1.1227939
201	0xbf82fb3d	-1.0232922
202	0x3f389767	0.7210602
203	0xbe6164db	-0.2201113
204	0x3fca873d	1.5822521
205	0x3f9a3ce1	1.2049829
206	0x3f08579e	0.53258693
207	0x3ef6184a	0.48065406
208	0x3fb869f4	1.4407334
209	0x3fa427e5	1.2824675
210	0xbe2012fa	-0.15632239
211	0x3f96b1e9	1.1773044
212	0xbf09fe69	-0.53903824
213	0xbec4ad3b	-0.38413414
214	0xbd803045	-0.06259207
215	0xbe45f772	-0.19332674
216	0x3f6672a6	0.9001869
217	0xbcfd0ee5	-0.030890891
218	0xbf2a09aa	-0.66420996
219	0x3fab776f	1.3395823
220	0x3f496065	0.7866271
221	0x3f0de766	0.5543121
222	0x4024972d	2.571727
223	0x3f80cff6	1.0063465
224	0x3fa2dbbf	1.2723311
225	0x3f54651a	0.8296677
226	0xbf18f223	-0.5974447
227	0xbe7d98bf	-0.247653
228	0x3eda51ca	0.42640525
229	0x3f8fc451	1.1231786
230	0xbea82f3e	-0.32848543
231	0x3fbcaa13	1.4739403
232	0x3fb705b3	1.4298614
233	0xbcf98108	-0.030457035
234	0x3f5e613d	0.86867124
235	0xbf94e3f6	-1.1632068
236	0xbe356f98	-0.17718351
237	0x3fd5ae71	1.669386
238	0x3f8f9b04	1.1219182
239	0xbf54e81b	-0.83166665
240	0xbe938fbd	-0.288206
241	0x3fb5ec50	1.4212742
242	0x3f598a2e	0.8497647
243	0x3f227e51	0.63473994
244	0xbf10695c	-0.56410766
245	0x3f2259e6	0.63418424
246	0x3f085790	0.5325861
247	0xbf7338d9	-0.9500862
248	0x3f8b3914	1.0876794
249	0x3f6dc9ef	0.9288625
250	0x3eb77c8f	0.35837218
251	0x3f0fc930	0.5616636
252	0x3ecb569e	0.3971452
253	0x3e218f4c	0.1577732
254	0x3ec24c76	0.3794896
255	0x3f8960c5	1.0732657

c.weight f4 [17747, 1]
0	0x3eefde63	0.46849355
1	0xbf2d0f95	-0.676019
2	0x3c2b0823	0.010438952
3	0xbf3f408a	-0.74707854
4	0x3f1d9c84	0.6156695
5	0xbf04139a	-0.5159241
6	0x3f64ccbb	0.89374894
7	0xbf821fe1	-1.0165979
8	0xbd657f46	-0.05602958
9	0x3f2a4d0f	0.6652383
10	0x3fa7ac8c	1.3099532
11	0x4008d155	2.1377766
12	0xbedeeebe	-0.4354152
13	0xbe096103	-0.13415913
14	0x3d591c9a	0.053005792
15	0x3e2dbd4c	0.16966742
16	0x3f307fb5	0.68944865
17	0x3f44f184	0.76931024
18	0xbf470d70	-0.7775488
19	0xbf8d1dc1	-1.1024705
20	0xbd2a9fd8	-0.041656345
21	0x3e9e8cfb	0.30966935
22	0x3ee5685e	0.44806188
23	0xbf293425	-0.6609519
24	0xbe62c82d	-0.22146674
25	0x3f490997	0.7853026
26	0xbe09a4d2	-0.1344178
27	0x3e9b742d	0.30362073
28	0x3d002149	0.031281743
29	0xbed4a0d4	-0.41528952
30	0xbe1259c8	-0.14292061
31	0x3f148976	0.5802225
32	0xbfba2be1	-1.4544641
33	0xbf1d61d9	-0.6147743
34	0xbfcee28b	-1.6162885
35	0x3ee8981f	0.4542856
36	0x3ee857ff	0.45379636
37	0x3f629f4b	0.8852431
38	0x3bf8667d	0.007580577
39	0x3fe09548	1.7545557
40	0x3e90e885	0.28302398
41	0xbed8a640	-0.4231434
42	0xbd66166e	-0.056173734
43	0x3ec0c5f6	0.37651032
44	0x3e7ddfcb	0.24792401
45	0x3f4f6f2e	0.8102902
46	0xbd60327e	-0.054735653
47	0xbf972e25	-1.1810957
48	0xbf35dc8f	-0.7103967
49	0xbe77b96a	-0.24191824
50	0xbe292040	-0.16516209
51	0xbf8045d5	-1.0021311
52	0xbfda30a7	-1.7046098
53	0x3fe84f80	1.8149261
54	0xbf8a94be	-1.0826643
55	0x3e86cd50	0.26328516
56	0xbf53fe61	-0.82810026
57	0x3e1cd181	0.15314294
58	0xbf76c462	-0.96393406
59	0x3ee09672	0.4386478
60	0xbed4f2fe	-0.41591638
61	0x3f00538d	0.5012749
62	0x3e2bd48c	0.16780299
63	0x3f8bbd13	1.0917076
64	0xbe5c7f31	-0.21532895
65	0x3fc4b861	1.5368768
66	0xbbb9a25f	-0.005665108
67	0xbdc73b03	-0.097280525
68	0xbf9c25c3	-1.2199024
69	0x3d4e3b60	0.050349593
70	0xbf1d51d5	-0.6145299
71	0xbe8deab5	-0.2771813
72	0x3dec4d06	0.115381286
73	0x3f7fb74d	0.9988907
74	0xbefb8b42	-0.49129683
75	0xbf416d34	-0.75557256
76	0xbc0f65e0	-0.008752316
77	0x3f8919d8	1.0711012
78	0xbeec38ea	-0.46137172
79	0x3e2b47ba	0.1672658
80	0xbf041906	-0.5160068
81	0x3f3b4148	0.73146486
82	0xbe0a7e22	-0.13524678
83	0x3d943544	0.07236722
84	0xbf0afe79	-0.54294544
85	0xbdf7502b	-0.12075838
86	0xbf8dbcd8	-1.1073256
87	0x3fba765b	1.4567369
88	0x3f59d362	0.8508817
89	0x3e4277ba	0.18990985
90	0xbfd216a3	-1.6413158
91	0x3fd28035	1.6445376
92	0xbf947b47	-1.1600121
93	0x3f6eaee5	0.9323562
94	0xbf38264e	-0.7193345
95	0xc004022a	-2.062632
96	0xbfa100b5	-1.2578341
97	0x3e690b57	0.22758232
98	0xbdc94f54	-0.09829584
99	0x3fcebae5	1.6150786
100	0x3f13af88	0.57689714
101	0x3fb600c5	1.4218985
102	0xc0142b80	-2.315155
103	0x3f10ed8d	0.56612474
104	0xbf9ceebe	-1.2260358
105	0x3f680ce3	0.90644664
106	0xbf2c5fc7	-0.67333645
107	0xbff9a41b	-1.9503206
108	0xbf9b9a3a	-1.2156441
109	0xbf089a8a	-0.5336081
110	0xbda1997a	-0.078906015
111	0x3edb5a2a	0.42842227
112	0x3fbcbcbb	1.4745096
113	0x3f802caf	1.0013636
114	0xbf104fbe	-0.56371677
115	0xbf460107	-0.7734532
116	0x3fa0039d	1.2501103
117	0x3ff335b4	1.9000764
118	0xbf147bdc	-0.58001494
119	0xbfb8d397	-1.4439572
120	0x3f84f549	1.0387355
121	0x3f0727f3	0.5279533
122	0xbe35efed	-0.17767306
123	0x3d8dd5c5	0.06925539
124	0xbfb0d42a	-1.3814747
125	0x3f3530ca	0.7077757
126	0x3f00bbd9	0.5028663
127	0x3fa04373	1.2520584
128	0x3f125162	0.5715543
129	0xbed207be	-0.41021532
130	0xbdf645aa	-0.12025006
131	0xbc7fd7f0	-0.015615448
132	0x3f18430e	0.5947732
133	0xbed6caec	-0.41951692
134	0x3ecbeb59	0.39827994
135	0x3c7498c3	0.014928999
136	0xbea03dbe	-0.31297106
137	0xbf014c9f	-0.5050754
138	0xc0282f12	-2.627873
139	0xbfb9d5f9	-1.4518424
140	0xbfc2a737	-1.520728
141	0xbf9b16c6	-1.2116325
142	0xbebacd08	-0.3648455
143	0xbf8cde71	-1.1005384
144	0xbe676c2b	-0.22599857
145	0xbf4c6d96	-0.79854715
146	0xbf3342cb	-0.70023793
147	0x3e0e8980	0.1391964
148	0xbe7eaa8c	-0.24869746
149	0xbfa29994	-1.2703118
150	0x3f376ca0	0.71650124
151	0xbecca30c	-0.39968145
152	0xbe3c551f	-0.18391846
153	0x3dc1832c	0.09448847
154	0x3f2e6bd3	0.68133277
155	0xbe59472c	-0.21218556
156	0xbdf6bc47	-0.1204763
157	0xbf1a44c2	-0.60261166
158	0xbf4808e1	-0.7813855
159	0x3e0027c4	0.1251517
160	0x3ef87f44	0.48534596
161	0x3ec6ebdc	0.3885182
162	0x3ed08d4f	0.4073281
163	0x3fe38267	1.7774171
164	0x3f1244b2	0.5713607
165	0x3f30da2c	0.69082904
166	0xbf5ef1b0	-0.87087536
167	0x3ea70da1	0.32627586
168	0x3f95809a	1.1679871
169	0xbf463669	-0.77426773
170	0xbe836f72	-0.25670964
171	0xbf8ee73a	-1.1164315
172	0xbeeafdeb	-0.4589685
173	0x3da4000b	0.08007821
174	0x3e2e9630	0.1704948
175	0x3eb1bead	0.34715787
176	0x3f2d4fd5	0.6769994
177	0xbf892b7c	-1.0716395
178	0x3f67eaec	0.9059284
179	0xbf57fa14	-0.84365964
180	0xbecc1a27	-0.39863703
181	0xbd86cf21	-0.065824755
182	0xbdb26127	-0.087099366
183	0xbf5b3caa	-0.8563944
184	0xbef34c4d	-0.4751915
185	0xbf989f06	-1.192353
186	0x4002a115	2.0410817
187	0x3ebb97ae	0.3663916
188	0x3e2cdaac	0.16880292
189	0xbf578e40	-0.8420143
190	0xbfb0ce78	-1.3813009
191	0xbe21169d	-0.15731283
192	0xbf985186	-1.1899879
193	0x3f1d4011	0.6142588
194	0xbeb28968	-0.34870458
195	0x3e473649	0.19454302
196	0xbdd48e93	-0.103787564
197	0xbf024856	-0.50891626
198	0xbf99da48	-1.2019739
199	0xbfcf5e3b	-1.6200632
200	0xbdfd7ecb	-0.123776995
201	0x3fb524b9	1.4151832
202	0x3ee468c0	0.44611168
203	0xbf657527	-0.89631885
204	0x3e931b1a	0.28731614
205	0xbde08ffb	-0.10964962
206	0xbed5c4e6	-0.41751784
207	0x3e935382	0.2877465
208	0xbe33ce9e	-0.17559287
209	0x3f2a8086	0.6660236
210	0x3f23684b	0.63831013
211	0x3ef71bcb	0.48263392
212	0xc000b2d6	-2.0109153
213	0xbedaa790	-0.42705965
214	0x3f395dcb	0.7240874
215	0xbf345cae	-0.7045392
216	0xbf3cf736	-0.73814714
217	0xbf77cf72	-0.9680091
218	0xc01e38f1	-2.4722254
219	0x4030119c	2.7510748
220	0xbf8bbdaf	-1.0917262
221	0xbf3a41ac	-0.7275646
222	0x3eaacdf0	0.33360243
223	0xbe0f3291	-0.13984133
224	0x3f6e04ba	0.9297596
225	0xbfa4edad	-1.2885033
226	0xbfabd244	-1.3423543
227	0x3f2969ba	0.6617695
228	0xbdfde885	-0.12397865
229	0xbefaf117	-0.49012062
230	0x3eea272f	0.4573302
231	0x3f289251	0.6584826
232	0xbfb3eea4	-1.4057202
233	0x3f510020	0.81640816
234	0xc0041057	-2.0634973
235	0xbf4d03ce	-0.8008393
236	0x3d19f19d	0.037583936
237	0x3cd2f42c	0.025751196
238	0xbed4102a	-0.41418582
239	0xc038cc1d	-2.887458
240	0xbf044c17	-0.51678604
241	0x3f309c9c	0.68988967
242	0x3e070efb	0.13189308
243	0xbe24e74a	-0.16103855
244	0xbfec2ae2	-1.8450587
245	0xbeb95534	-0.36197817
246	0x3f53eafd	0.8278044
247	0x3bfa71cf	0.0076429616
248	0xbedd7136	-0.43250436
249	0xbe4067e0	-0.18789625
250	0xbfe9e533	-1.8273071
251	0x3ef8ef43	0.48620042
252	0xbfa2ee8e	-1.2729051
253	0xbf29d152	-0.6633502
254	0x3f844fb3	1.0336822
255	0x3cce7c94	0.025205888
