IRT_finial/irt_model.pth (torch, 324768 bytes, 4 tensors)

theta.weight f4 [27424, 1]
000000 f5 70 10 c0 a2 6a c3 3f 00 d0 ae 3f b7 d4 fd 3e
       -2.2568944 1.5266917 1.3657227 0.4957635
000010 00 57 f7 3e 62 c0 c1 bf 36 d7 7b be 74 f6 d1 be
       0.48308563 -1.5136836 -0.24593815 -0.4100834
000020 e1 a1 58 3f 77 80 3d bf 6a e6 43 bf 24 eb 9b bf
       0.8462201 -0.74024147 -0.7652346 -1.2181134
000030 9f 7b f6 bf e0 ec 16 3f 53 eb 43 3f 02 f9 9e be
       -1.9256476 0.5895519 0.7653095 -0.31049353
000040 d6 56 a5 3f e6 73 be bd 2a 7e 94 bf 67 51 58 bd
       1.2917125 -0.092994496 -1.1601002 -0.052812006
000050 07 3b 01 40 e4 24 b7 bd 43 86 17 c0 b5 15 5f bf
       2.0192277 -0.08942583 -2.3675697 -0.871425
000060 62 85 fb bf ce b7 09 c0 1b e5 82 bf 01 db 04 bf
       -1.965008 -2.1518435 -1.0226167 -0.51896673
000070 06 09 ca be 31 78 aa 3e ae 4b 20 3f ad 74 c0 bd
       -0.3946001 0.33294824 0.6261548 -0.09397254
000080 f2 c7 04 c0 eb 2e 12 3f f1 42 b4 3f 44 3e aa 3e
       -2.0747037 0.5710284 1.4082929 0.3325063
000090 3f 3f 40 40 2c 76 72 3f a0 42 69 3e 59 2b 1f bf
       3.0038602 0.94711566 0.22779322 -0.6217552
0000a0 23 c2 60 bf 18 a9 42 bd 52 e7 ff bf e8 b5 27 bd
       -0.8779623 -0.04752454 -1.9992468 -0.040944964
0000b0 76 0b 48 be f1 24 94 3f 58 c7 ec 3e 14 ff b1 3c
       -0.19535622 1.1573774 0.46245837 0.021728076
0000c0 16 8a 09 3f 4a 81 26 3f a6 f7 cf 3e 61 4c a3 bd
       0.5372633 0.6504103 0.40618628 -0.079735525
0000d0 fd cb 13 3f 2e 5e 1b bf 47 7f 8f be e8 5b 21 bf
       0.57733136 -0.6069058 -0.28026792 -0.6303086
0000e0 2e 92 f2 bc 95 e9 b3 bf 6f 1f f7 3f 25 1e 32 be
       -0.02961072 -1.4055659 1.9306468 -0.17394312
0000f0 41 23 8b 3f 02 5d 12 3f c0 aa af bf 33 8b ba bf
       1.0870134 0.5717317 -1.3723984 -1.457373
000100 ef 74 2c bf 37 f7 2d c0 d2 ec 81 3e a9 89 3b 3f
       -0.67365927 -2.7182138 0.25375992 0.7325693
000110 c1 bc 76 3e 00 ad 37 be 4a ef e9 3c 8d 81 01 3e
       0.24095441 -0.17937088 0.028556485 0.12647076
000120 b4 a8 bd bf 9a 1e 39 3e 88 53 55 bc f3 ff 15 bf
       -1.4817109 0.1807808 -0.013020404 -0.5859367
000130 e9 cc 28 bf cc a6 78 3d 93 79 29 3f d6 c8 c3 3e
       -0.6593767 0.060705945 0.6620113 0.38239163
000140 bf 3f f5 bf e4 8a 42 3e c3 8d e4 be 6d 74 d4 3e
       -1.9160079 0.18998295 -0.44639406 0.41495076
000150 52 7e f5 bd e0 ab 83 3e 6b af f9 3e 0f cc 2f 3f
       -0.11986984 0.25717068 0.48766646 0.68670744
000160 2c 6f b9 bf 81 54 37 bf 9a a0 64 bf 07 7f 96 3d
       -1.4487052 -0.7161332 -0.8930756 0.07348447
000170 9e e5 b7 3c 3b 13 a6 3e 7b 59 3d 3f e8 7f 14 3e
       0.022448357 0.32436547 0.7396466 0.14501917
000180 64 be 5f bf d0 c5 27 bf e8 15 60 3f ba 25 71 3e
       -0.8739989 -0.6553621 0.87533426 0.23549548
000190 ad 96 7f be fe da 0c 3d 8e 2b 2f 3e 72 07 a6 bd
       -0.24959822 0.034388535 0.17106459 -0.08106889
0001a0 2a ee 50 bf fa 6d 50 3f 99 30 16 3f c7 b7 72 bf
       -0.8161341 0.8141781 0.58667904 -0.9481167
0001b0 5d 68 8f bf f4 76 03 3f 56 48 44 be b3 1c 01 3f
       -1.1203724 0.51353383 -0.19168219 0.50434417
0001c0 62 cf bc bf 79 25 a6 bf 0c b0 0f bf e8 c0 a9 bd
       -1.4750788 -1.2980186 -0.56128 -0.08288747
0001d0 d1 01 08 be 63 de 90 3e 8a b3 07 c0 89 bf 23 be
       -0.13281943 0.28294668 -2.1203332 -0.15991034
0001e0 3e 8f b2 3e fd 2e 13 bf b8 58 eb 3e 9b b5 90 3e
       0.3487491 -0.57493573 0.45966125 0.28263554
0001f0 de cb d9 3e 98 de 0d 40 05 60 50 be 37 11 46 be
       0.4253835 2.216711 -0.20349129 -0.19342504
000200 15 92 54 bf 5c a7 15 3f 1e 05 21 3f cb 44 65 bf
       -0.83035403 0.58458495 0.62898433 -0.89558095
000210 0f 95 48 bf b8 08 ec be 81 59 b3 be a6 4b 16 be
       -0.78352445 -0.46100402 -0.35029224 -0.14677295
000220 7f 3b 70 3d 48 61 06 bf ee 56 e2 3c 84 ae 9c 3f
       0.05865049 -0.5249219 0.027629342 1.2240758
000230 b4 88 ac bf 2f 5c 1c bf 2a 4b 72 3e fe cd ec 3e
       -1.3479218 -0.6107816 0.23661485 0.4625091
000240 31 6d c9 be bf 5d 83 bf 3c 04 eb 3c da e9 29 bf
       -0.3934112 -1.0262984 0.028688543 -0.66372454
000250 bb a7 46 3f 26 55 05 bd c9 e2 a9 bf 8f af 79 be
       0.77599686 -0.032551907 -1.3272334 -0.24383377
000260 47 be 8a bf 51 3f 77 bf 77 62 56 3d da d5 2e be
       -1.0839318 -0.9658099 0.052339997 -0.17073765
000270 c5 c1 b6 be e3 87 04 bf 68 3b 5a bf c5 68 87 bf
       -0.3569471 -0.51769847 -0.85246897 -1.0578848
000280 9b be 40 be b0 22 9e bf 74 34 21 3e 12 1d 06 3f
       -0.1882271 -1.2354336 0.15742666 0.5238811
000290 60 8c 1e bf c5 62 0e 40 6a e8 48 bf 6e 31 52 bf
       -0.61932945 2.2247784 -0.78479636 -0.82106674
0002a0 70 d0 3f 3f f8 29 95 bf a3 51 b7 3e 55 b4 47 bf
       0.74927425 -1.1653433 0.3580447 -0.7800954
0002b0 af 67 cb bf 8b f8 99 bf 5b 52 43 bf ed 07 59 bf
       -1.5891017 -1.2028974 -0.7629754 -0.8477772
0002c0 08 5a 9a 3f 87 31 d3 3f 0b 6e bd 3f 81 e2 51 bf
       1.2058725 1.649949 1.4799207 -0.8198624
0002d0 b1 8a c6 3e 1b 20 a6 bf 83 27 d0 3d d5 62 cb bd
       0.38777688 -1.2978548 0.10163786 -0.0993096
0002e0 aa fc 6e 3d 92 79 8b 3e f2 9b d4 be 3e 00 b6 bf
       0.058346428 0.27241188 -0.41525227 -1.4218824
0002f0 dc 77 2a be db cd 8d 3e 9f 4d 3a bf 3d ec 86 3f
       -0.16647285 0.27696118 -0.7277469 1.0540844
000300 5d 7b e4 be 93 d2 b2 bf 68 04 74 bf b0 e0 5d bf
       -0.4462537 -1.3970512 -0.95319223 -0.8667097
000310 2a 3b 8c bf 1b b4 cc be 51 7c 67 3e 94 4d 7e bf
       -1.0955555 -0.3998116 0.22606017 -0.99337125
000320 ce ce c7 3f 83 2f 29 be f3 41 9f 3f 76 9e 8f 3e
       1.5609987 -0.1652203 1.2442001 0.28050584
000330 9b b3 0a 3f 6e 1c 82 3f 23 1c 78 3f ab 98 85 3f
       0.54180306 1.0164926 0.96917933 1.0437216
000340 c3 02 21 3f 4f 6e ff be fa 97 49 bf be 6f 51 bf
       0.6289484 -0.49888846 -0.7874752 -0.8181113
000350 04 0b 08 3f 77 60 bd bf a2 3b d6 be 02 dc b8 3e
       0.5314181 -1.4795064 -0.4184237 0.36105353
000360 23 e1 5e 3e 23 8a f0 bf 3d 6e 27 3e fc c7 cf 3e
       0.2176557 -1.8792156 0.16350646 0.40582263
000370 35 21 9a 3d 49 21 02 3e 1b 3c 6a be b6 df 80 bb
       0.07525865 0.1270801 -0.22874491 -0.0039329184
000380 6c e9 72 3e d9 33 5c be 4d d2 1f bd a7 e4 a7 3f
       0.23721856 -0.21504153 -0.039018918 1.3116654
000390 02 58 b7 be 04 dc f2 3b 94 b5 94 3f e9 6e d8 bc
       -0.35809332 0.007411482 1.1617913 -0.026420074
0003a0 8f 96 3b bf 49 1f 33 3f 6d 56 2b bd 08 eb 08 bf
       -0.7327661 0.6996961 -0.04183047 -0.5348363
0003b0 8f 3a 60 3e 4e 0b 0d 3f 66 0f 89 3f 34 f5 57 3d
       0.21897338 0.55095375 1.0707824 0.05272408
0003c0 65 5a 13 3f 04 ae 88 3c 43 4c 60 bf fa 7c bd bd
       0.57559806 0.01668454 -0.87616366 -0.09252353
0003d0 61 65 c1 bf bc 56 2e be f2 7a 84 bf 91 3a 9e bd
       -1.5109063 -0.17025274 -1.035002 -0.077260144
0003e0 c2 df db 3e 93 ab 2e bf 99 23 7f 3f 62 d9 9f bf
       0.4294415 -0.6823055 0.9966369 -1.2488215
0003f0 e2 90 20 bf c0 69 7e bf 55 a0 94 3f a2 a0 ef bd
       -0.62721074 -0.9938011 1.161143 -0.1170056

a.weight f4 [17747, 1]
000000 63 27 b6 bf dd 13 fb 3e 9c 59 6d bf a5 7b 8c bd
       -1.423077 0.49038592 -0.9271486 -0.06859521
000010 f3 34 b2 bf de 1a 3f be 27 4f 0a bf 83 95 1e bf
       -1.3922409 -0.18662593 -0.54027027 -0.61946887
000020 b0 bc 84 bf c8 35 52 be 2b ec 36 3f 89 5c 23 bf
       -1.0370083 -0.20528328 0.71454114 -0.6381307
000030 29 92 76 bf 0f 78 ce 3e ef 9f 2e bf e5 e0 2d c0
       -0.9631677 0.40325972 -0.6821279 -2.7168515
000040 13 a0 ce 3d 33 11 90 be 6f 34 4a bf bf e9 16 c0
       0.100891255 -0.28138122 -0.7898626 -2.3580167
000050 1d aa 9c bf 6c 88 5f bf 4b 3f 81 bf e6 13 53 3c
       -1.2239414 -0.8731754 -1.009744 0.012883162
000060 f8 cf 71 bf 9f ba 5b 3f 84 97 ba bd 70 4b 9d bf
       -0.9445796 0.85831636 -0.091109306 -1.2288647
000070 61 03 c0 bf 10 12 83 bf 13 0e a0 bf e5 e3 94 bf
       -1.5001031 -1.0239887 -1.2504295 -1.1632048
000080 84 af 81 bf fb be 18 40 f2 30 39 bf 9b bd 20 bf
       -1.0131688 2.3866565 -0.7234031 -0.62789315
000090 0b f1 91 3e 30 a2 8d 3e f0 03 02 bf da 97 d2 bf
       0.28504214 0.27662802 -0.5078726 -1.6452591
0000a0 32 20 9f bf 83 f9 02 c0 86 9e 8b be 58 6c 0b be
       -1.24317 -2.046479 -0.2726938 -0.13615549
0000b0 b1 7a ba 3f 57 ca f1 be 5e 2b 8b bf 85 45 c0 bf
       1.4568692 -0.47224686 -1.087261 -1.5021216
0000c0 da ba d2 bf aa 13 bc bf 4e 47 a6 be 36 fe 1e c0
       -1.6463273 -1.4693501 -0.32476276 -2.4842658
0000d0 1e ad 02 bf c7 1a a9 bf ee a5 46 bf b6 d6 bb bf
       -0.51045406 -1.3211297 -0.7759694 -1.46749
0000e0 ea 69 94 bf 70 ae 47 3e 68 1c 66 bf 84 be 65 bf
       -1.1594822 0.19500136 -0.89887094 -0.8974383
0000f0 be 77 8a 3d 48 9a af bf c7 75 5f bd 82 79 6b bf
       0.0676112 -1.3718958 -0.05455568 -0.9198228
000100 b8 04 10 bf 25 8c 44 bf 66 e2 b4 bf a1 36 2a bf
       -0.562572 -0.76776344 -1.4131591 -0.6648961
000110 3c 25 54 bf 53 d1 b1 bf 63 89 98 3f fe 19 b5 bf
       -0.82869315 -1.3892006 1.1916927 -1.4148557
000120 9f e4 d5 bf 68 39 7e bd 86 aa cb bf c5 08 9e bf
       -1.6710395 -0.062066466 -1.5911415 -1.2346426
000130 4a cf 8c bf ac 1a bf bf 17 18 d1 bf 5c a9 35 bf
       -1.100076 -1.4930015 -1.6335477 -0.70961547
000140 7d b4 c9 bf 68 6d 4b bf 8a 4b a9 bf 9d 98 26 c0
       -1.5758206 -0.79463816 -1.3226178 -2.6030648
000150 5e c0 12 bf e4 66 0e 3f fe 0c 84 bf 0d 4e 0b c0
       -0.5732478 0.5562575 -1.0316465 -2.1766388
000160 79 05 12 bf f5 a8 c7 bf 5b 3c 50 be 3e 55 93 be
       -0.570396 -1.5598437 -0.20335524 -0.28775972
000170 22 a8 d3 bf c4 f4 7d bf b0 89 1b bf 14 ff d2 bf
       -1.6535685 -0.9920161 -0.6075697 -1.6484094
000180 1e 98 4f be 81 74 26 be e3 e6 85 bf 2a 0e a8 bf
       -0.20272872 -0.1625538 -1.0461086 -1.3129323
000190 0e ab c5 be e7 f0 7d bf 67 ce 4d bf 93 26 a0 3e
       -0.38607067 -0.9919571 -0.8039307 0.3127943
0001a0 96 d2 c6 bf 6f 23 d2 3d 8c bc 38 3d d9 a8 80 bf
       -1.5533016 0.10260665 0.045101687 -1.0051528
0001b0 8a 25 30 3e e5 1a 88 bf ad f8 c1 bf 65 c9 56 bf
       0.1720182 -1.0633208 -1.5154015 -0.83901054
0001c0 46 de 28 bf 44 03 3b 3c 12 cc 52 be be 88 23 bf
       -0.6596416 0.011414353 -0.20585659 -0.63880527
0001d0 0c a7 8a bf 93 01 d1 3e 8a 56 8b 3d 78 02 55 bf
       -1.0832229 0.40821514 0.068036154 -0.8320689
0001e0 8f f1 3f c0 4f cd b6 bd c1 28 52 be 66 82 4c bf
       -2.9991186 -0.08925878 -0.20523359 -0.7988647
0001f0 bb b9 21 3f e9 c7 be bf c9 c4 32 3f 9f f1 be be
       0.6317403 -1.4904758 0.6983152 -0.37293717
000200 f1 c9 4f bf 8a 4b e4 bf 1a a5 2e 3e 57 43 e9 bf
       -0.81167513 -1.7835553 0.17055169 -1.8223675
000210 36 2c 37 bf fa 0a 12 be f7 f8 73 3f 4f 07 83 bf
       -0.71551836 -0.14262 0.95301765 -1.0236605
000220 dc fb ab 3f 5c f9 2c bf 17 96 8c bd fd 49 a0 3e
       1.3436236 -0.6756799 -0.06864565 0.3130645
000230 fa 62 72 bf 95 98 a3 bf b5 2a 34 bf 0a 2d 3c bf
       -0.94682276 -1.2780939 -0.70377666 -0.73506224
000240 3d 56 cc be 87 39 46 bf 0b 68 1c 3c 4d e2 42 bf
       -0.39909545 -0.7743153 0.00954629 -0.7612656
000250 d2 c5 fe be fb 4f c1 3d fa d3 64 3d 90 1d 0c be
       -0.497603 0.09439083 0.05586622 -0.13683152
000260 0b 4d 42 bf 16 46 10 bf 9d 4b 1e c0 43 c8 16 bd
       -0.7589881 -0.5635694 -2.473365 -0.03681208
000270 bf aa a0 3d 28 f1 cb bf a6 d2 35 bf da ca e6 3f
       0.07845067 -1.593297 -0.7102455 1.8030655
000280 d7 f6 a4 bb e0 7c bd bf 56 c9 3b 3f ee 95 fa bf
       -0.0050343084 -1.4803734 0.7335409 -1.9577005
000290 8b 08 4b bf 2d 77 ae bf 30 6e b2 bc 35 e9 e6 3e
       -0.7930991 -1.363012 -0.021781057 0.45099798
0002a0 e2 62 fa bf 24 da df bf e5 da 33 3f 91 fa 9d bf
       -1.9561427 -1.7488446 0.7025588 -1.2342092
0002b0 7e 33 b3 bf 9d 8b 15 bf aa db 28 bf 8a eb e7 3e
       -1.4000089 -0.5841616 -0.6596018 0.4529689
0002c0 5d 02 68 bf f5 ac 7c bf 31 ce 92 bf ed da 6c be
       -0.90628606 -0.9870141 -1.1469175 -0.23130389
0002d0 a4 72 bb 3c c8 80 8e 3d f4 d6 76 bf 65 9e d7 bf
       0.022881813 0.06958157 -0.9642174 -1.6845213
0002e0 86 73 e8 bd cc dd 5d 3e 04 35 79 bf f6 33 80 3f
       -0.11350159 0.2166664 -0.9734652 1.0015857
0002f0 e4 c0 10 3f e8 f9 9c be f0 8b 0b c0 f8 7a 41 bf
       0.5654433 -0.30659413 -2.180416 -0.7557826
000300 f8 9f 05 be 83 a7 99 3f c5 63 27 be 80 ca 90 bf
       -0.13049304 1.2004246 -0.16346653 -1.1311798
000310 bb 21 9b bd 59 9a ca 3f 63 99 8e bf 21 86 22 bf
       -0.07574793 1.5828353 -1.114056 -0.63485914
000320 f9 11 b4 be 97 ec 84 be ee bb e4 bf ea 01 26 be
       -0.35169962 -0.25961754 -1.7869852 -0.16211668
000330 93 f5 92 bf 69 49 51 be f7 71 f8 bf 85 c7 ad bf
       -1.1481193 -0.2043816 -1.9409779 -1.3576514
000340 c3 2e d6 be 5a a0 aa bf 3b 64 ef be 5c cf 24 c0
       -0.4183255 -1.3330185 -0.46756157 -2.5751562
000350 d8 e4 d4 bf 0e af fb be 54 9c 18 bf 01 a6 b0 3e
       -1.6632338 -0.49156994 -0.5961354 0.3450165
000360 7a 5f 64 bc a4 6b c7 bf 58 39 4e bf 9a e9 73 be
       -0.013938779 -1.5579724 -0.8055625 -0.2381958
000370 ca 0f 76 bf 49 a3 1c bc 84 a2 f3 bd a7 2e 05 bf
       -0.9611784 -0.009560415 -0.11896232 -0.5202431
000380 5c 07 ea 3e 74 22 05 be a9 55 48 bf c7 64 15 3f
       0.4570874 -0.13001424 -0.7825571 0.583569
000390 3f a9 1f 3e 5d e2 37 3e a7 9e 03 c0 ef 86 d3 be
       0.15591906 0.17957444 -2.0565584 -0.41313884
0003a0 c7 bc cf be 7a cf 03 c0 4b a7 e4 3f 93 c4 4d 3f
       -0.40573713 -2.0595384 1.7863554 0.80378073
0003b0 9e 51 01 c0 ac 79 50 3f b7 f8 2e bf b3 94 fa be
       -2.0206065 0.81435657 -0.6834826 -0.48941574
0003c0 49 fe 8e 3f 9f bd ed 3d a0 8b 44 bf 54 7e 25 3f
       1.1171352 0.11608433 -0.7677555 0.64645886
0003d0 4f fd 94 bf e8 d2 a1 bf 17 55 df bf df 3f 36 bf
       -1.1639804 -1.2642488 -1.7447842 -0.7119121
0003e0 16 7c d2 bf 98 b1 a2 bf dd d2 4f bf 8c 47 64 3f
       -1.6444118 -1.2710447 -0.81181127 0.8917167
0003f0 6c 32 8c bf e2 bc f5 be bb 21 3d 3f 29 3d 6f 3f
       -1.0952888 -0.4799567 0.73879594 0.934527

b.weight f4 [17747, 1]
000000 17 f4 83 3f 97 17 ed 3f bf 6c 8a bf bb 46 97 3f
       1.0308865 1.8522824 -1.0814437 1.181846
000010 44 c1 5e bf 75 9c ac 3f f7 06 69 bf c1 cc dc 3e
       -0.8701365 1.3485247 -0.9102625 0.43124965
000020 58 7b 95 bf 62 89 17 3d e2 ee 73 bf c4 e8 59 bf
       -1.1678267 0.036996253 -0.9528638 -0.851208
000030 3b aa 7e 3f 92 c7 08 40 74 22 62 be d6 dc 9c 3f
       0.994785 2.1371808 -0.22083455 1.2254894
000040 c9 99 cb be a3 e6 c3 3f 69 90 54 bf 04 d6 50 bf
       -0.39765766 1.530476 -0.8303285 -0.8157656
000050 17 2f c7 be 1b 3b 99 be 54 75 b3 3c 19 c6 17 40
       -0.38903114 -0.29927906 0.021906532 2.371466
000060 f4 fc 09 bf e8 77 d6 3f d5 30 4c bf 35 e3 27 3f
       -0.539016 1.6755342 -0.7976201 0.65581065
000070 e8 56 ec be 7f c6 c4 3e 29 90 c4 3e 67 39 b4 bf
       -0.46160054 0.3843269 0.38391235 -1.4080018
000080 a7 73 da 3f 11 b5 ac 3f da 9b 7d bf be 25 e8 3e
       1.7066544 1.3492757 -0.99065936 0.45341295
000090 60 e8 05 3f 0e 64 84 3e ef 48 36 3f 60 08 4d 3f
       0.523077 0.25857586 0.7120504 0.80090904
0000a0 6c 27 cb be a9 45 14 bf 41 0b 42 bf 77 63 8f bf
       -0.39678514 -0.5791879 -0.7579842 -1.1202229
0000b0 51 22 23 40 04 d5 da 3f f7 56 52 3e c8 cb 89 bf
       2.5489695 1.7096257 0.20540987 -1.0765314
0000c0 05 fc 39 3d 3e 3a c5 3e 4f 81 26 bf 83 9f e8 be
       0.04540636 0.38520998 -0.6504106 -0.45434198
0000d0 30 6f a6 3e 7e e1 06 3f d6 84 70 3f 5b 66 a3 3f
       0.32506704 0.52687824 0.9395269 1.2765611
0000e0 0a 15 40 bd c9 bc c7 3f 2c e6 87 3f 0f 05 c4 3e
       -0.046895064 1.5604488 1.0617118 0.3828511
0000f0 aa 09 46 3f b7 1c 6b bf 12 f0 57 bf 4b a6 ce bf
       0.77358496 -0.9184069 -0.84350693 -1.6144499
000100 d0 f8 3c 3f 33 e8 3f bf 00 c0 91 3e 62 9b dc bf
       0.7381716 -0.7496368 0.28466797 -1.7234919
000110 39 e6 21 3f 1d bd 05 bf 4b 6c 85 3f 6d dc 20 3e
       0.63241917 -0.5224169 1.0423673 0.15709086
000120 e2 84 70 bf 17 4c b7 bf 27 dc aa 3d ed de 12 40
       -0.93952763 -1.4320096 0.08342772 2.2948563
000130 a9 9d 46 be 0e 87 c8 3e 8f 25 d7 3e 93 dc 9f bf
       -0.1939608 0.3916554 0.42020842 -1.2489189
000140 8c aa 73 3f 7c 71 db 3e 9b 74 c9 3e 87 81 c5 be
       0.9518211 0.4286002 0.39346775 -0.38575384
000150 8a 32 7f bd 6d a4 ac 3f 2f 5f 5f 3f 29 ba 9d 3e
       -0.062304057 1.3487679 0.87254614 0.3080609
000160 df ab 54 bf ef cf 99 3f 5d 8c 61 3e 87 b4 b1 bf
       -0.83074754 1.2016581 0.220262 -1.3883218
000170 fc 33 51 bf 6a 36 4d be 64 9b ba be 70 dd ac 3e
       -0.81719947 -0.20040289 -0.3644668 0.33762693
000180 ba ed 4f bf 6d f6 82 bf 96 33 19 3e 7c be 6e 3f
       -0.81222117 -1.0231453 0.14961085 0.93259406
000190 3e 24 0d 3f 92 75 af bf 4c 07 5c bf 34 ca 0a bf
       0.55133426 -1.3707755 -0.85948634 -0.5421479
0001a0 a1 c1 f0 bd 4a c9 83 bf 83 57 0f c0 bd 11 95 3f
       -0.11755682 -1.0295804 -2.2397163 1.1646038
0001b0 5f 18 bd bf 53 7b 70 c0 d6 a8 8c be f9 71 bd bf
       -1.4773062 -3.757527 -0.27472562 -1.4800407
0001c0 b1 8e d2 3d 89 52 81 3f a7 28 02 40 d1 5b ef be
       0.102811225 1.0103313 2.0337312 -0.46749738
0001d0 88 5f c3 bf 92 d3 bb bf 7f ba 2b 40 56 87 f7 bd
       -1.5263529 -1.4673941 2.6832578 -0.1208636
0001e0 ff 18 2b bd f3 a4 8c bd 47 68 a9 bf d8 da e2 be
       -0.041771885 -0.06867399 -1.3234948 -0.4430759
0001f0 a6 ed 82 3f c1 a4 58 be 8f 26 a4 bf 7f ea 25 bf
       1.0228775 -0.21156599 -1.2824267 -0.6481094
000200 08 de 2d 3e af 1f d8 3e 88 cc 95 bf 37 7d ae 3f
       0.1697923 0.42211673 -1.1703043 1.3631963
000210 5b 67 87 bf 84 12 0b 40 c4 57 4b 40 df 26 62 3f
       -1.0578417 2.173005 3.1772318 0.8834056
000220 71 5b 00 40 ce ff d9 3f fc 2a db 3f 10 0d 4d 40
       2.0055811 1.703119 1.7122493 3.2039223
000230 36 68 9f 3f f2 4c 16 c0 43 8d 69 3e 62 eb 3b bf
       1.2453678 -2.3484464 0.22807793 -0.7340604
000240 89 9c d2 3e 5c 26 b2 be c2 44 de 3f 10 43 a5 3f
       0.41135052 -0.3479489 1.7364733 1.2911091
000250 c7 28 b0 3f 80 34 fe 3f ab 55 eb 3f 1a 2b 70 3f
       1.3762444 1.9859772 1.8385519 0.9381577
000260 47 fe 9b 3f c5 1c 95 3f e7 ed 8e be 6c 25 11 40
       1.2186974 1.1649405 -0.2791588 2.267909
000270 4e 92 1f 3f 24 5b bc 3e b1 05 5f bf 94 da 21 40
       0.6233262 0.36788285 -0.8711806 2.528966
000280 25 a9 83 bf e1 86 53 bf 8f a5 39 40 f3 9e 15 bd
       -1.0285994 -0.82627684 2.90073 -0.03652854
000290 73 34 76 bf ef f0 2b bf 02 19 ef bf e3 51 a9 3f
       -0.9617378 -0.6716451 -1.8679507 1.3228115
0002a0 78 99 df 3e ca 09 37 be 43 ef 0b 40 5f 45 05 40
       0.43671775 -0.17874828 2.1864784 2.082359
0002b0 b7 4a 37 be df b8 e7 3d b3 04 44 3f 4d 9b 98 3f
       -0.17899595 0.11314558 0.7656967 1.1922394
0002c0 02 4b 95 3f 25 d0 54 3f 09 69 2c 3f 3d 33 34 be
       1.1663516 0.83130103 0.6734777 -0.17597671
0002d0 e4 21 72 3f 97 25 dc bf 17 f7 15 bf 6f 39 ed 3c
       0.94582963 -1.7198972 -0.58580154 0.02895805
0002e0 f5 ec 04 40 28 22 f3 3f 59 c2 94 3f 8c 93 d2 bf
       2.0769627 1.8994799 1.162181 -1.6451278
0002f0 ec 64 d8 bf 72 14 3d 40 eb 4a dc 3e 10 dd b9 bf
       -1.6905799 2.954373 0.43025908 -1.4520588
000300 08 5b 24 bf ce 10 db 3f ae 98 3c 3f 31 3a 66 3f
       -0.642014 1.7114503 0.7367047 0.89932543
000310 3b 33 a5 3f 82 fd 22 40 4e 32 0c 40 41 60 92 3f
       1.2906259 2.546723 2.1905704 1.1435624
000320 d2 b8 e5 3f f2 c0 30 be 09 fe cc 3e c6 d4 1a 40
       1.7947028 -0.17261103 0.40037563 2.4192367
000330 8e 5f 82 3e 2b 50 0b 3e 5c 60 1c bf 93 fd 69 3d
       0.25463527 0.136048 -0.6108453 0.057126593
000340 1f e1 82 bf 58 dc d1 3e 81 74 28 40 ce 2a 98 3f
       -1.0224952 0.4098842 2.6321108 1.1888063
000350 10 f0 7b 3e b4 4f 51 3f e9 92 7b bf 45 99 8b be
       0.24603295 0.8176224 -0.9827104 -0.27265373
000360 22 37 c3 3f 42 f6 c0 3f c7 14 dd 3e 2b 4a 61 be
       1.52512 1.5075152 0.43179914 -0.22000949
000370 51 19 7d 3f 5e 0a ae 3f 71 c7 ca 3e 7d d7 49 3f
       0.98866755 1.3596914 0.39605287 0.78844434
000380 c8 71 8d bf 18 aa 8a bf 9c e2 07 40 da b4 c7 3f
       -1.1050348 -1.0833158 2.1232061 1.5602067
000390 58 00 db 3f 86 f3 27 c0 18 3f f1 3e 0c 5b a1 3f
       1.710948 -2.6242385 0.4711845 1.260591
0003a0 de 7f f1 3f 83 ee ab 3e 20 b9 56 40 e6 71 16 40
       1.8867147 0.33580408 3.3550491 2.3507018
0003b0 26 19 46 3f 60 00 e1 3f 7b 05 ec 3f 18 9e 71 3f
       0.77382123 1.757824 1.8439173 0.94381857
0003c0 cd 20 90 bf e1 66 a8 3f 22 61 a5 bf 6a 08 c2 3f
       -1.126001 1.3156396 -1.2920268 1.5158818
0003d0 a5 f1 70 3f e7 d9 7a 3e 32 bc 04 bf c9 84 74 bf
       0.9411872 0.24497186 -0.51849663 -0.95515114
0003e0 8e 84 89 3f 49 1c 3d 3f 1a aa 33 40 62 c8 07 40
       1.0743577 0.73871285 2.8072572 2.1216054
0003f0 95 78 7f 3f f2 ea 90 3f e1 f6 24 40 45 f9 06 40
       0.9979337 1.13217 2.5775683 2.1089642

c.weight f4 [17747, 1]
000000 bb ba fa 3e 2e c0 9b 3f 10 7c 24 3f 96 0e 55 3e
       0.4897059 1.2168024 0.64251804 0.20806345
000010 83 3d e3 bf d9 42 9f bd 68 b9 a8 be 68 7c 33 bf
       -1.7753147 -0.07776422 -0.32953954 -0.70111704
000020 44 4c 3d 3d 00 3b 84 be b9 db 6e 3f 51 f7 3f 3f
       0.04621531 -0.25826263 0.9330402 0.7498675
000030 2c 28 42 bf 67 f0 5f bf 75 88 63 3f 9a c4 08 40
       -0.7584255 -0.874762 0.8888009 2.1369996
000040 54 2b 98 3f c2 3b 39 3f 5f 41 a8 be fa 08 8f be
       1.1888223 0.7235681 -0.32862374 -0.27936536
000050 a7 1d 92 3f 63 0c 56 bf b7 f2 12 3f 1e 71 14 bf
       1.1415299 -0.8361265 0.57401603 -0.57985103
000060 a7 50 d7 3e f3 6f 2d 3f 9c cb b2 3e ed 9b bb bc
       0.4205372 0.67748946 0.34920967 -0.0229015
000070 42 a6 9b be 12 8a 2c 3f 97 29 f7 3e 9a 61 35 bf
       -0.30400282 0.6739818 0.48273918 -0.70852053
000080 23 4c 2b bf 83 92 5f 3f c0 42 22 3f 9d 4d 8b 3f
       -0.6691305 0.87332934 0.633831 1.0883061
000090 30 85 4d 3f 6d 42 73 3f 0d 4a ec 3f 4b e4 8e bf
       0.80281353 0.9502323 1.8460099 -1.116342
0000a0 ed c2 99 be 4a a8 ae be 5c 56 fd 3d 2a 9b 2b bf
       -0.3003153 -0.3411277 0.12369987 -0.67033637
0000b0 89 50 fe 3e 79 dc 68 3f 83 ba b9 3d d5 91 cc 3e
       0.49670818 0.90961415 0.090687774 0.3995501
0000c0 f3 0f 18 3f 65 e8 21 3f bd 38 44 bf 9c f9 05 be
       0.59399337 0.6324523 -0.76649076 -0.130835
0000d0 51 b7 b3 3f 80 39 03 bc e0 ae 37 3e 2c 41 59 3d
       1.4040319 -0.008009315 0.17937803 0.05304067
0000e0 e7 45 26 3e 9e 1a 7c 3f 8c aa eb 3e 3f 9b cf be
       0.16237603 0.98478115 0.46028554 -0.4054813
0000f0 2a a9 96 3f f0 43 2e bf ed d8 9e 3f f7 8e 94 bf
       1.1770375 -0.68072414 1.240995 -1.160613
000100 ea 54 4e be d7 10 f0 3f 13 93 ba bf df 7c 64 bf
       -0.2014958 1.8755139 -1.4576133 -0.8925304
000110 d6 54 35 3e 18 93 82 be b2 31 ac 3f 8a b2 7b be
       0.17708144 -0.2550285 1.3452666 -0.24579826
000120 b9 20 15 3f 9e 4a ed be c6 3c b7 3e b1 17 bf 3c
       0.58253056 -0.4634599 0.35788554 0.023326727
000130 1a d0 02 3d 1a d6 b2 3f 39 72 81 be 16 3a e4 3e
       0.031936742 1.3971589 -0.25282457 0.44575566
000140 b3 06 87 3f e4 58 b6 bf df 39 bd 3f 3a 0b 5d bf
       1.054892 -1.4245877 1.4783286 -0.86345255
000150 6a a9 8c be b2 9d da 3d 7a 4c 71 3e 1e 9d 8d 3f
       -0.27473003 0.10674609 0.2356433 1.1063573
000160 ed 47 58 3f e9 f4 16 bf b1 2e c5 3e 81 d0 14 be
       0.8448475 -0.58967453 0.38512185 -0.14532663
000170 14 e3 15 bf b0 77 62 3f 02 51 c4 3f 0d 3b 4d bf
       -0.5854962 0.8846388 1.5337222 -0.8016823
000180 a2 1c 80 3d 01 10 f8 3e 0c bc 12 40 83 13 f3 bd
       0.06255461 0.4844971 2.2927275 -0.11868956
000190 2b 3c 86 3f fa c9 bf 3e f7 70 07 be e2 79 05 3f
       1.0487112 0.37458783 -0.13226686 0.52139103
0001a0 53 c8 16 c0 e7 7a 3b 3e 3d 90 6a 3f db 5e 7c 3f
       -2.3559768 0.18308602 0.9162634 0.9858224
0001b0 b0 f5 67 be f4 04 4c 3e fa 7a ff bd 48 5e 61 bd
       -0.22652316 0.19923764 -0.12474628 -0.055021554
0001c0 92 70 eb 3e 78 30 87 3f 25 ec 94 c0 36 81 a2 be
       0.45984322 1.0561666 -4.653826 -0.31739205
0001d0 4d 09 09 bf 1b cb d7 3f 1b 65 f8 3b 08 e5 4b bd
       -0.53529817 1.6858858 0.007580412 -0.049778968
0001e0 fb 7e cc 3f ef 37 a8 be b7 85 f1 3f c3 aa aa 3f
       1.5976251 -0.32855174 1.8868932 1.3333362
0001f0 40 b8 88 3e 4a d0 0d c0 9a d0 6d 3e dc 67 bb 3f
       0.26703072 -2.215838 0.23224106 1.464107
000200 bc 14 77 3e 28 b0 6e bd 7c 93 00 3f a3 14 89 bf
       0.24129003 -0.058273464 0.50225043 -1.0709423
000210 30 aa ae 3f 0d bc 18 bf 0c a7 cd be 31 54 8e bf
       1.3645687 -0.5966194 -0.4016651 -1.1119443
000220 01 c9 7e bf 1d ec 09 c0 fe bb 74 bf 9b ac de be
       -0.9952546 -2.1550362 -0.95599353 -0.43491063
000230 30 20 35 bf b8 84 94 3d 93 93 19 3f d5 85 85 3d
       -0.7075224 0.072518766 0.59990805 0.06519667
000240 7b 2d d3 bd 96 d8 ca bd 47 0b 9c be 01 08 6c 3f
       -0.10311409 -0.09904592 -0.30477354 0.92199713
000250 3e 3d 21 c0 c1 7d 18 be 23 67 af be 5b f9 1e 3e
       -2.519363 -0.14891721 -0.34258375 0.15524809
000260 d8 fd ba bf 59 20 27 3e 0d 22 9a 3e 5b 66 84 3f
       -1.4608717 0.16320933 0.30104104 1.0343736
000270 56 e6 97 3e b9 7a 3f c0 9a 39 59 bf 10 67 20 3f
       0.2966792 -2.9918654 -0.8485352 0.6265726
000280 54 dd a5 3f 26 b2 72 bd 03 d4 88 3f d4 45 b9 3f
       1.2958169 -0.059251927 1.0689701 1.4474435
000290 a8 f9 f2 bd e0 20 cb bc 7e 45 fd bf b3 d9 3a bf
       -0.118640244 -0.02479595 -1.9786832 -0.7298843
0002a0 e4 b2 a6 bf d9 02 73 c0 3b 45 fb 3c 24 87 fb be
       -1.3023343 -3.7970488 0.03067266 -0.49126542
0002b0 46 30 6a be 12 b6 91 3f c0 36 e7 bf 2f 0c 2c 3f
       -0.22869977 1.1383688 -1.8063583 0.6720609
0002c0 87 18 45 bf 38 4e 81 bf 5b e4 0f bf 1b 6c e7 3f
       -0.7699055 -1.0101995 -0.5620782 1.8079866
0002d0 44 81 c3 3f 7f e5 cf 3f f6 ef b9 be e3 57 e4 bf
       1.5273824 1.6241912 -0.36315888 -1.7839321
0002e0 cf c3 d2 3e d8 7f 56 bf 42 ce 09 c0 e3 90 9b be
       0.41165015 -0.83788824 -2.153214 -0.30383977
0002f0 56 63 dd 3f ef 86 89 bf 65 21 a0 bf b2 7c 93 bf
       1.729594 -1.0744303 -1.2510191 -1.1522429
000300 24 30 1c be d5 9e dc be d6 87 c8 bf 2c a6 5d bf
       -0.15252739 -0.4308993 -1.5666454 -0.86581683
000310 a2 5d 6c bf 4f fb 99 be 51 59 3d c0 97 bc 06 be
       -0.9233037 -0.30074546 -2.9585764 -0.13157879
000320 af 15 97 bf bd 30 30 3f db 6f c6 bf a4 17 3d 3f
       -1.1803492 0.6882437 -1.5502886 0.738642
000330 3c 93 b8 bf d8 fe 27 bf 45 c0 34 bf 28 08 45 3f
       -1.4419932 -0.65623236 -0.7060588 0.7696557
000340 ae 63 13 3f cc d5 c8 be 45 32 8c bf 31 19 68 bf
       0.57573974 -0.39225614 -1.0952841 -0.9066344
000350 e1 55 37 3f 49 00 3c 3f c3 90 75 be e0 0b 13 be
       0.71615416 0.73437935 -0.23981003 -0.14359999
000360 86 44 32 bf 79 3d 81 3e 35 f5 2f 3f 05 03 0e be
       -0.6963581 0.25242212 0.6873353 -0.1386834
000370 ea 46 90 bf 90 fe 5b be 89 40 1e bf 97 c3 17 bf
       -1.1271641 -0.21483827 -0.6181722 -0.5928282
000380 f0 f0 e7 3f 54 88 cc 3e 8a e0 00 3f 73 3c 44 bf
       1.8120403 0.3994776 0.5034262 -0.7665474
000390 6b ff d3 3d 65 38 1d be a8 e1 8c 3e 72 52 9e bf
       0.103514515 -0.15353544 0.27515912 -1.236891
0003a0 de c5 ba bf 98 38 0b bf 71 d9 a3 bf d9 8c 0e c0
       -1.4591634 -0.5438323 -1.2800733 -2.2273467
0003b0 34 da 95 bf c7 c9 36 bf a1 47 7d be 43 18 a2 bf
       -1.1707215 -0.7140164 -0.24734356 -1.2663654
0003c0 d8 0f 72 bf 7e c9 eb bd a7 8a 65 bf 2b 2d 8e 3f
       -0.94555426 -0.11513041 -0.8966469 1.1107534
0003d0 a4 ef 63 bf 70 d5 84 3e e7 ce 94 3e 09 72 f3 bd
       -0.8903754 0.2594409 0.29064104 -0.11886985
0003e0 af b0 18 c0 5c 20 5b bf 08 02 64 3e f5 4f d3 be
       -2.385784 -0.8559625 0.222664 -0.4127194
0003f0 22 ff 13 c0 de d7 87 bf dc aa 1f bf 62 03 35 bf
       -2.312447 -1.0612752 -0.62370086 -0.70708287
