IRT_finial/irt_model.pth (torch, 394528 bytes, 4 tensors)

theta.weight f4 [44875, 1]
00000000: eda4 c43f 1ebe bcbf 779a c93e 1bec 5b3f
00000010: 579b 293f 3ca7 cebd 687b 913f e922 5f3f
00000020: 52f1 46bf 8e33 853f b8f6 8c3d ee5a 58bd
00000030: c0d5 163e 207e 103e 2bb5 5cbf a9e1 e6bf
00000040: 7ca1 ba3f 0af0 25c0 513e a4bf 4293 c83d
00000050: 1ca6 94bf aade ad3f f833 863c bab6 80bf
00000060: 8fc6 72be ec4c 90be a0ac bfbf ed84 a0bd
00000070: 3f4d ba3f 741e db3f a535 b73e e4bc 513f
00000080: 8513 0d3f 7bbe b8bf 753f 063f 57e0 8e3e
00000090: a0af ae3f 1465 a43f 7233 123f 2f4f d0bf
000000a0: 7e11 c13c 8b5e c03f b4b1 67bf 2e2e 0fc0
000000b0: 24d0 47bf 7e45 233e d7f0 e03d 79e1 c2be
000000c0: 9f87 293f a7f3 bc3e cfa6 60bf d051 c1bf
000000d0: 29b3 03bf 86cf 01bf d4fc d23f ed53 a33f
000000e0: 46c8 92bf f6ad b73f 6b2b b33f f5df 25bf
000000f0: bb55 f1be 37d8 03be 3975 83bf 3b30 783f
00000100: 7cf7 a7bf 2b7e f83f ab18 ad3f 0dbc 373f
00000110: 3f88 51bf ba81 d6bf c2ac 433f f2c7 05c0
00000120: ac1e 1b3d 98be de3f 9a97 adbe 02d1 09bf
00000130: 3d43 e13f 6160 0fbe 9e74 07c0 74b3 60bf
00000140: 7e4b b3be 1af7 d3bd 4a60 bc3f dfd5 813f
00000150: a1c8 293f df5b 54be 1c96 eabf 60ce f7bf
00000160: d300 0abc 1f0e 3fbd db64 3a3f 32e3 083f
00000170: 0c04 593f 5d3c 53bc 7e18 9c3e 1a54 1abf
00000180: 3092 3dc0 0835 36bf 8745 20c0 dc0b 81be
00000190: c0f3 ad3f 3987 c93e 22db debe d661 4a3f
000001a0: 3c17 99bf 7af2 85be 5e26 03bf d8e5 b13e
000001b0: dab9 673f 30b2 153e 0d4d 01bf d9d4 683f
000001c0: fb69 91bc b65c 4f40 cccf d5bf 0b2f a8bf
000001d0: 902b af3e a5c0 7e3f aa8e d73f 2e36 e03f
000001e0: be85 b1bb fad2 663e 4354 7a3d b02a d3be
000001f0: 610f d6bf 3de5 85bf 609d ccbe b5b7 1b3f
00000200: ecc0 da3f 38ee 2b3f 96d9 91be f57c 99be
00000210: bf57 173f 083f 28bf d7ce d2bf 3f9f 853f
00000220: 450d 9b3e 69be 643f 5186 f93e b6c6 ebbd
00000230: 702c f0be 838a 86be dee9 0c3e 004d 8fbf
00000240: 7e83 2dbf 538d 85bc b64b fdbf 46b8 c9be
00000250: e6b2 a33f 271a 5b3f 7df3 923f 38c4 dfbe
00000260: d2d7 9abe f36d 583e f9b5 d3bd 4411 9a3f
00000270: 3e12 44bf 0d20 c0be 82c8 6bc0 6243 acbf
00000280: e918 273f de0b 703f 8ea5 653f 6871 c7be
00000290: eacb f33f 4c18 ba3f 7ecd 41bf 5148 32bf
000002a0: cec8 f1bf 6688 aabe 7ad1 4dbf 086d f73f
000002b0: 99be e93f d2e2 a03f 0361 7d3f 1444 0c3f
000002c0: 0ac6 cebf 2e7b 5cbf e96b 31bf 5c38 2740
000002d0: a592 8d3f fa14 093f d4b6 953f d92a 8e3f
000002e0: e98f 53be d2de 8bbf 9889 f7bf deaa dcbf
000002f0: 3a2a 8fbf f0a9 8f3c 9ce4 1a3f c81c c03e
00000300: d343 b0bf e46f 36be 0b78 33bf 3141 0bc0
00000310: 5baf 53bf b29c 2fc0 4bab f7be b5d5 273f
00000320: 9d6b ae3f d9c2 78bf 6afb d53f b9ea 923f
00000330: 379a b1bf 07eb a4bf e551 bb3e 0ac0 553f
00000340: 08a0 0dbe 22bc e33d 3a29 b0be 1f2b 833e
00000350: d1f1 87bf 497f 61bf 0338 d8bc 4f0f e3bf
00000360: 70ab 10bf 2f85 313e 470b c03f c5f3 2d3f
00000370: dd68 36be 5df5 c8bd 80b0 c6bf 0383 3cbf
00000380: 2f77 6fbf dea4 41bf 0b60 73be 125f 77bf
00000390: 891c 6f3d a363 b9be 1d16 8cbe 2513 55be
000003a0: 054b 5bbf 9923 cdbe 091f bd3e 80d2 82bf
000003b0: 2077 e93e 040d f1be 290f 603f c26d 97bf
000003c0: f121 fa3e 7444 863f 643e a7bf d686 a0bf
000003d0: 4a74 7dbf a356 5bbf 648b edbc b7bd dbbe
000003e0: 559d 73be a89b 2fbf 283b 49bf 08db 30bf
000003f0: 00f7 773f f35b b93e c4d8 463f c118 0d3f
1.5362831 -1.4745519 0.3937566 0.85907143 0.66252655 -0.10090491 1.1365786 0.87162644
-0.77711976 1.0406358 0.06882995 -0.052821092 0.14729977 0.14110613 -0.8621394 -1.8037616
1.4580531 -2.5927758 -1.2831517 0.09793712 -1.1613193 1.3583577 0.016382203 -1.0055764
-0.23708557 -0.28183687 -1.4974556 -0.078378536 1.4554824 1.7118669 0.35783115 0.8192885
0.5510791 -1.443313 0.5244058 0.27905533 1.3647346 1.2843347 0.5710975 -1.6274165
0.023567911 1.5028852 -0.9050553 -2.2371936 -0.7805197 0.15944478 0.109834366 -0.38062647
0.66222566 0.36904642 -0.8775453 -1.5103092 -0.5144525 -0.5070728 1.6483407 1.2759987
-1.1467369 1.4349964 1.3997625 -0.64794856 -0.4713572 -0.12875448 -1.0270149 0.96948594
-1.3122401 1.9413503 1.3523153 0.7177132 -0.8184852 -1.675834 0.7643548 -2.0903287
0.037871048 1.7401915 -0.33904725 -0.53834546 1.7598644 -0.1400161 -2.1164927 -0.87773824
-0.35018533 -0.10349865 1.4716885 1.0143393 0.6632176 -0.20738171 -1.832706 -1.9359856
-0.008423048 -0.046644326 0.72810143 0.5347167 0.847718 -0.01289281 0.30487436 -0.6028458
-2.9620476 -0.7117467 -2.5042436 -0.2520436 1.3590012 0.3936098 -0.4352656 0.79055536
-1.1960216 -0.26161557 -0.5123042 0.3474567 0.9051796 0.14618754 -0.50508195 0.9094978
-0.01775073 3.2400336 -1.670404 -1.3139356 0.34212923 0.995127 1.6840413 1.7516534
-0.0054175546 0.22541419 0.061115514 -0.41243505 -1.6723443 -1.0460583 -0.39963818 0.6082719
1.7090125 0.6716037 -0.28486317 -0.29978147 0.59118265 -0.6572118 -1.6469373 1.0439223
0.3028356 0.8935304 0.48735288 -0.115125105 -0.46908903 -0.2627755 0.13761088 -1.1195374
-0.67778766 -0.01630274 -1.978873 -0.39398402 1.278897 0.8558678 1.1480557 -0.4370439
-0.30242783 0.21135692 -0.10337443 1.2036519 -0.76590335 -0.37524453 -3.684113 -1.3458064
0.65272385 0.9376811 0.8970574 -0.3895371 1.9046605 1.4538665 -0.7570418 -0.69641596
-1.8889406 -0.3330719 -0.8039776 1.9330149 1.8261291 1.256922 0.98976153 0.5479138
-1.6154187 -0.8612546 -0.6930528 2.612815 1.1060377 0.5354763 1.169642 1.1106826
-0.20660366 -1.0927374 -1.9338865 -1.7239645 -1.1184762 0.017537087 0.6050508 0.37521958
-1.3770698 -0.1781612 -0.70105046 -2.175854 -0.82689446 -2.743939 -0.48372874 0.65560466
1.3626591 -0.97172314 1.671735 1.1477882 -1.3875188 -1.2884225 0.36585918 0.83496153
-0.13830578 0.11119868 -0.34406453 0.25618836 -1.0620672 -0.88084847 -0.026393896 -1.7739047
-0.5651159 0.17335962 1.5003442 0.6795009 -0.1781344 -0.09812424 -1.5522614 -0.7363741
-0.93541235 -0.7564219 -0.23767106 -0.9662944 0.058376823 -0.3620883 -0.2736062 -0.20808084
-0.85661346 -0.4006622 0.3693774 -1.022049 0.45598698 -0.47080243 0.8752313 -1.183037
0.4885402 1.048964 -1.3065915 -1.2541149 -0.9900557 -0.8567907 -0.02899713 -0.42918178
-0.23790486 -0.6859689 -0.7860589 -0.69084215 0.9686127 0.36202964 0.7767451 0.55115896

a.weight f4 [17747, 1]
00000000: 5b87 8dbf ad88 27bf e342 08be 7d29 36bf
00000010: 4e6d 02c0 f42b 81bd 7b86 a6bf 1b71 c5bf
00000020: 7ce8 d2bf b7b5 88bf 664d 9dbd 4d9a 89bf
00000030: d0fb 7bbf 9459 32be bd91 3dbf f8dc 9f3e
00000040: a11d 95be 65a7 2c3d 95e7 b73e 0cc7 50bf
00000050: 8525 083f ce2b 803f 6987 1abf 69cc e53e
00000060: 47a1 48bf ddad 593f 67a3 bdbf 5895 edbd
00000070: 442d 96bf 4016 04bf 277c f2bf b332 983e
00000080: 98d3 abbd f57a 7abf 101a 3f3f 0f7b 81bf
00000090: d541 7abf 1d5f 29bf a9db 98be 07d7 f9bf
000000a0: 058b c2bf 2d66 67bf bc6b 41bf 00cc d6be
000000b0: 839f 51bf d610 b2bf c416 a1bf 7e46 fbbf
000000c0: e39d 83bf e092 a9be ceb7 8fbf 5cc1 5dbf
000000d0: 6ddc 5c3e 387c b53e c680 06bf 9790 b2bf
000000e0: 959f c1bf 5cf5 d7bf 8eac cabf 593c bcbe
000000f0: 8205 aabf 9102 b1bf c5cf 4fbe cbeb 81bf
00000100: bc3b 6dbf 4cc4 38bf 398b 83bf 02e2 54bf
00000110: 1a19 09bf 52c1 b5bf 3e36 bbbe ba34 39bf
00000120: a816 2a3e ff8b 873e 7321 cbbf 9b1d 49bf
00000130: c815 a2bf 70d2 9bbf 7350 a8be 715c 773e
00000140: 928d b23f f29e c8bf 4cb3 0bbe 591f aebe
00000150: e2a8 b7bf 2b3f 40bd e595 3dbf 51cc 1dc0
00000160: 0397 b0bf f24b 19c0 a934 9fbf 7b2e b4be
00000170: 7af8 37be 324c 00bf c1de 8bbf 7d03 8c3f
00000180: 3a8a acbf f38f ff3e 58a4 eabd 1f63 35be
00000190: cfd5 94be c53f d6bf aa7a 35bf a2a2 323f
000001a0: 7bda 353f 03e9 0abd 4f06 283e a096 f13e
000001b0: 9e98 1c3f 2560 d2bf 76e1 cebf 2276 20be
000001c0: 0d75 02bf 8222 9ebf c7b0 833f 26b6 943f
000001d0: 49d2 0a3f 95be 0a3d 81a5 aebf 2cfc 49bf
000001e0: c588 5bbe ffc4 abbf 2805 863c be3f a9be
000001f0: 5a94 a03f 5707 3abf 779d 59bf a00e 08bd
00000200: a03a 1e3f 3797 24bf 9444 183e 1e80 46bf
00000210: a896 4b3f c338 59bf 02dc 093f 383a 6e3e
00000220: 5c8c 5fbf 0afd 77bf af47 723f 8b24 1bbf
00000230: 277e 933f f0c4 06c0 8a8d acbf 1533 8c3e
00000240: c963 84bf b86f 19bf 84e8 c2bf 3bb6 9abe
00000250: 2d94 48be 6b41 16bf 1fe8 efbf 43a5 b0be
00000260: 359a 96be 449c 03c0 abf6 59bf 284e 16bf
00000270: 2888 97bf 23f9 88be d414 a93d ccae 6a3f
00000280: 9220 f4be cb27 34c0 ccde 2abf ee90 fabc
00000290: 393e d0bf ef5b 0e3f 9d2c 11bf 9413 903e
000002a0: 9432 b5bf 2b23 ccbe 4546 543f c7f6 513e
000002b0: b70a a43e 6ce0 88bd c037 14be 9a73 10c0
000002c0: ff3c 28bf 1643 623f ba38 b3bf c85e f23e
000002d0: 5781 083f d938 063f f7e8 16c0 354a bebf
000002e0: 8dc5 1dc0 e7fc cbbc e4fc b2bf 4e37 2cbe
000002f0: 693f e13f 0d7b de3f 6709 6bbe f1d8 4dbf
00000300: f784 66bf b3ac 02c0 c0d4 ebbf 2a42 debf
00000310: 89dc 4abf 8209 173f 7a94 d9bf bd6e dabf
00000320: 9540 5ebf a735 4ebf b909 2d3e c862 36be
00000330: 5ebf c03e 1f08 1b3f 876c 3ebf 8acc cdbf
00000340: 440d 563e 7ab1 21ba 9d0a 90bf 917c f13e
00000350: 56ff afbf 56f0 42bf d8c1 bebf b593 423f
00000360: 2939 f43e 7578 46c0 04ce 3cbf 2ac7 7d3c
00000370: 6d11 a9bf edec a43d f764 23be 9066 93be
00000380: 080f 963e d1a6 7d3e a60a 99be 9255 17bf
00000390: 91d5 98be 5c48 24bf 1bce 3f3e c0fa 87bf
000003a0: 594e 3bbf 15b3 53bf 88e3 623f 93fc 963f
000003b0: 27b7 0140 d18b fcbf ff9c 1bc0 abd0 32bf
000003c0: e3e0 03bf 28cf a7be f4c4 29bf b825 21c0
000003d0: c293 b5be 514c 18bf c75a aebf 718c 94bf
000003e0: 8293 4ec0 39c1 89bf c106 873e df0f e53c
000003f0: 6dbe 01bc f411 8dbf e831 70bf 4f0e 96be
-1.1056932 -0.65442926 -0.13306765 -0.71157056 -2.0379214 -0.063072115 -1.300979 -1.5425142
-1.6477199 -1.0680455 -0.07680778 -1.0750214 -0.9843111 -0.17416984 -0.74050504 0.31223273
-0.29124168 0.042151827 0.3591887 -0.8155372 0.5318225 1.0013368 -0.6036287 0.44882515
-0.7837109 0.8503092 -1.4815491 -0.11600751 -1.1732564 -0.5159645 -1.8944138 0.2972618
-0.08389968 -0.9784387 0.74649143 -1.011568 -0.977567 -0.66160756 -0.29855087 -1.9518746
-1.5198675 -0.9039028 -0.75555015 -0.41952515 -0.8188402 -1.3911388 -1.2585073 -1.9630888
-1.0282558 -0.3311987 -1.1227968 -0.8662317 0.21568461 0.35446334 -0.5254024 -1.3950375
-1.5126826 -1.6871753 -1.583391 -0.36764792 -1.3282931 -1.3828908 -0.20294102 -1.0150083
-0.9266927 -0.72174525 -1.0276862 -0.8315736 -0.53553927 -1.4199622 -0.3656482 -0.7234608
0.16610205 0.26473996 -1.5869583 -0.785608 -1.2662897 -1.2173595 -0.32873878 0.24156357
1.3949454 -1.5673506 -0.13642615 -0.3400829 -1.4348414 -0.04693524 -0.74056846 -2.4655955
-1.3796085 -2.3952603 -1.2437946 -0.35191712 -0.1796588 -0.50116265 -1.0927354 1.0938565
-1.3479683 0.49914512 -0.11457127 -0.17713593 -0.29069373 -1.6738211 -0.70890296 0.6977941
0.710365 -0.033913624 0.16408657 0.4718523 0.61170375 -1.6435591 -1.6162555 -0.15670064
-0.50959855 -1.2354281 1.0288323 1.1618087 0.5422712 0.03387316 -1.3644258 -0.7890041
-0.21438892 -1.3419493 0.01635988 -0.33056444 1.2545273 -0.7266745 -0.850059 -0.033217072
0.61808205 -0.64293236 0.1486991 -0.7753924 0.7952676 -0.84852237 0.5385133 0.23264396
-0.87323546 -0.9687048 0.9464063 -0.60602635 1.1522874 -2.10577 -1.3480694 0.27382722
-1.0342952 -0.59936094 -1.5227208 -0.30217156 -0.19587775 -0.5869357 -1.8742713 -0.34501085
-0.29414526 -2.0564127 -0.8514201 -0.58713007 -1.1838427 -0.26752576 0.08255926 0.9167297
-0.476811 -2.8149288 -0.6674621 -0.030586686 -1.6268989 0.5560903 -0.567087 0.28139937
-1.415606 -0.3987058 0.8291972 0.20504294 0.32039425 -0.0668343 -0.14474392 -2.2570558
-0.6571807 0.88383615 -1.4001687 0.47337937 0.53322357 0.5243049 -2.357969 -1.4866396
-2.4651825 -0.024900867 -1.3983426 -0.16817972 1.7597476 1.7381302 -0.22952805 -0.8040915
-0.9004664 -2.0417907 -1.8424301 -1.7363942 -0.7924276 0.5899888 -1.6998436 -1.7065045
-0.86817294 -0.80550617 0.1689824 -0.1781112 0.37646002 0.60559267 -0.7438435 -1.6078045
0.20903498 -0.00061681087 -1.1253239 0.4716535 -1.3749797 -0.76147974 -1.4902906 0.76006633
0.4769986 -3.101102 -0.73751855 0.015489379 -1.3208443 0.080530025 -0.15956484 -0.28789186
0.29308343 0.24770667 -0.29890937 -0.59114945 -0.29850438 -0.6417291 0.18730967 -1.0623398
-0.73166424 -0.8269513 0.88628435 1.179583 2.0268037 -1.9730169 -2.4314573 -0.6984965
-0.51515025 -0.32775235 -0.6631615 -2.5179272 -0.35464293 -0.5949145 -1.3621453 -1.1605359
-3.2277532 -1.0762092 0.2637234 0.02796167 -0.007918936 -1.1021104 -0.9382615 -0.29307792

b.weight f4 [17747, 1]
00000000: 580a 883f a892 40be 4011 42bf 6d5c 9b3f
00000010: cc8b 12bf daf7 bf3f 01bc e63f 2882 033f
00000020: 4923 9dbe 62a7 9cbf 7d5e 33bf 876d 1940
00000030: ada1 1f3f e92d ab3f 4819 253f 1a3c d9bf
00000040: 4dcc 90bf 78a7 e3bf eb79 a6be 39b0 28be
00000050: 3120 f83e 30a7 1040 8cf9 5ebf ce64 a03f
00000060: e558 2cbf 5fe7 a23f 1b16 62bf 0be8 663f
00000070: ba98 aabd 416e 6fbf 7437 323e d1ca b63f
00000080: 58bf a23e e8d2 1d3f 04e4 14bf a6e7 77bf
00000090: 633a 393e 5172 b7bd 4fb7 c5bf 45ed 6ebf
000000a0: d27c 443e 8484 2dbf 5344 48be d6dc e53d
000000b0: 503b 463f d34c fa3e bb2b a3bf ab65 263f
000000c0: 803e c2bf 264a 313f 6d10 cdbe ef91 2abe
000000d0: 3ecc febf eb5c 18bf f447 92bf 3699 633f
000000e0: c4d6 4bbf 3e72 95bf 2194 153f 0602 653d
000000f0: e3b6 463e bdaf e43d 50aa 3b3f 5633 26bf
00000100: 7586 b33e 0fef c4be d80a 8c3e 8496 04bf
00000110: 380f a13d 1480 a6bf 12e7 66bf 6718 a53f
00000120: 0279 aa3f db8a 233e ea74 b43d bc8e fabe
00000130: b20d 31bf 1577 a9bd e462 82be 9c87 12bf
00000140: d24a 38be 9d52 643e 2c63 49bf b966 0dbf
00000150: 7858 133e 87c0 81be 0fb1 8e3f c564 96bd
00000160: cb59 013f 7b36 253e 6e9d ab3e fd25 26be
00000170: 062e 113e e2e5 ee3d 2d68 583f 352e 0c40
00000180: 4bad d03e a793 99bf 8af5 80bf 9d80 25bf
00000190: bd38 c63f 9af9 823e dd57 afbf 5bb6 1f40
000001a0: d5d9 ce3f e536 81bf 4cf9 a2bf e964 22be
000001b0: b28a b0bf 7df3 6dbf bc9a a5be ac0e e6bf
000001c0: 06ef a63d 29e7 1fbf 4105 0e40 c462 a73f
000001d0: fc0e a03f a4ba b0bf d603 f2be 69ea 1dbf
000001e0: 48fe 0c3f eb17 b3be 08f7 efbf 067c b13e
000001f0: 42ac 963f 150a 9f3f eaa3 80bf a8e9 00c0
00000200: 554e 7fbe 4d3e 8d3d 5679 5cbf c7e4 303f
00000210: f07a b4be 069c b43f 49aa ff3f 8e12 eb3f
00000220: 65fc 7b3f eea8 ac3f ca0c 0f40 5eef 0c3f
00000230: 3be5 ba3f af08 fa3e 9077 93bf 2f4f cc3f
00000240: 6b7e 533f ecc1 0ebf 90ef 8f3f e805 943f
00000250: 5758 a13f d48a 4c3e 5c35 4d3f 1f9c 9a3f
00000260: 6629 5f3f 7641 a53f af62 953e 5005 18bf
00000270: b884 a43e fedc 4c3e e6b9 b2bd 305a 9d3f
00000280: 4a30 76bf 267c a63e 577e d13f 89eb 65bf
00000290: e053 0ec0 c941 c43f 904b a23f 005d ec3f
000002a0: 0d8c 6f3f 77d7 a53f 3b42 d83f 75f0 883f
000002b0: 6bfd 523e 86f6 213e 3024 913f 9cb5 303f
000002c0: 0b10 9e3f 8f34 1b40 d93a c03f 5b5c 72bf
000002d0: bf31 9fbe 4c60 95bf 3612 d73d 55c0 803e
000002e0: 95d0 20be 5cdb b73f 2ddd c13e 096d 7ebf
000002f0: 4058 d0bf e7f7 0d40 47df 9e3f 361e b13e
00000300: bf2a 2fbf f63f c63f 064f edbc 11ae fd3f
00000310: d830 7b3f 02d2 833f 3e10 953f 278a 633f
00000320: 8b24 4b3f 12e6 95be 463b b83f f829 15be
00000330: de75 f23f 85b5 8f3f afd2 f73f dd72 a8bf
00000340: ae90 99bf 5ae1 ef3f 7984 033f a3f6 5440
00000350: 2e57 903e 6039 d83f e439 9e3e 9ac0 9f3f
00000360: 6ac0 fb3f 619e 873e ddd5 9dbe 528c 583e
00000370: 0900 31bf 6cfb c53e db44 9c3f bb03 853f
00000380: c453 24bd 9bcf a5bf 926b 083f 3536 f93f
00000390: e1ab 653f 8934 f5bd 8338 923f 2d93 a83f
000003a0: c7fb 6a3f 81c8 14bf 71da 9f3f ff41 ca3f
000003b0: e846 4840 216e 4dbd 63f8 a83f 4cdc 2c3f
000003c0: 5f9b fdbf 69c5 543e b40a 453d 6010 8dbe
000003d0: 7055 473f ab36 0cbe e00d 6abf 34eb 83be
000003e0: 53fe d3be bf73 d43f f94f 413f 6101 fe3f
000003f0: 82d6 863f fdb1 ae3d 2440 873f 765e 5a3f
1.0628157 -0.18805945 -0.7580757 1.2137581 -0.57244563 1.4997513 1.8026124 0.5137048
-0.30690983 -1.2238581 -0.7006605 2.39731 0.6235607 1.3373386 0.644917 -1.6971467
-1.1312348 -1.7785482 -0.3251489 -0.16473474 0.4846206 2.2602043 -0.8709953 1.2530763
-0.6732314 1.2726859 -0.8831498 0.9019782 -0.083299115 -0.9352761 0.17403966 1.4280645
0.3178661 0.6164994 -0.58160424 -0.9683784 0.18088679 -0.08957351 -1.5446566 -0.93330795
0.1918824 -0.6778033 -0.19557314 0.11223762 0.77434254 0.48886737 -1.274772 0.64998883
-1.5175323 0.69253767 -0.40051594 -0.16657232 -1.990608 -0.5951678 -1.1428208 0.88905656
-0.7962458 -1.1675489 0.5842915 0.055910133 0.19405703 0.11166332 0.7330675 -0.6492208
0.3506352 -0.38463637 0.27352023 -0.5179217 0.07864231 -1.3007836 -0.90196335 1.2898072
1.3318179 0.15970938 0.08811362 -0.48937023 -0.6916152 -0.08274666 -0.25466073 -0.57238173
-0.17997292 0.2229714 -0.7866695 -0.5523487 0.14389217 -0.253422 1.1147784 -0.07343439
0.5052764 0.16134064 0.33518547 -0.16225429 0.14177713 0.116649404 0.8453396 2.1903203
0.40757212 -1.1998185 -1.0074933 -0.64649373 1.5486065 0.25581056 -1.3698689 2.495505
1.6160227 -1.0094877 -1.2732329 -0.15858807 -1.3792326 -0.9294966 -0.32344615 -1.7973228
0.08151059 -0.624621 2.2190707 1.3077016 1.2504573 -1.3806958 -0.47268552 -0.61685807
0.550755 -0.34979185 -1.8747263 0.34664935 1.1771319 1.2424952 -1.0050023 -2.0142612
-0.24932225 0.068966486 -0.86122644 0.69099087 -0.35250044 1.4110115 1.9973842 1.8365037
0.98432 1.3489053 2.2351556 0.55052745 1.4601206 0.4883475 -1.1520863 1.5961665
0.82614774 -0.5576465 1.1244984 1.1564302 1.2605084 0.19974834 0.80159545 1.2078894
0.87172544 1.2910602 0.29176852 -0.59383106 0.32132506 0.20006177 -0.087268636 1.2293148
-0.96167433 0.32516593 1.6366681 -0.89812523 -2.2238693 1.5332576 1.267931 1.8465881
0.93573076 1.295638 1.6895212 1.0698382 0.20604484 0.15816697 1.1339169 0.69027114
1.2348646 2.425083 1.5017959 -0.94672173 -0.3109264 -1.1670012 0.1050152 0.25146738
-0.15704568 1.4363818 0.37864056 -0.99385124 -1.6276932 2.2182558 1.2411889 0.34593362
-0.684246 1.5488269 -0.028968345 1.9818746 0.98121405 1.0298464 1.1645582 0.8888268
0.79352635 -0.29277092 1.4393089 -0.14566791 1.894222 1.122727 1.936117 -1.3160053
-1.1997278 1.8740647 0.5137401 3.3275535 0.28191513 1.689251 0.30903542 1.2480652
1.9668095 0.2648802 -0.30827227 0.21147278 -0.6914068 0.38668382 1.2208513 1.0391763
-0.040118948 -1.2953981 0.5328914 1.9469668 0.8971539 -0.11972911 1.1423496 1.3169914
0.9179043 -0.58118445 1.2488538 1.580139 3.1293278 -0.050153855 1.3200802 0.67523646
-1.981304 0.20778431 0.04810591 -0.27551556 0.7786474 -0.13692729 -0.9142742 -0.25765383
-0.4140497 1.6597823 0.75512654 1.9844171 1.0534213 0.08530042 1.0566449 0.85300386

c.weight f4 [17747, 1]
00000000: a280 e13f d6c7 9ebf 70e8 de3e ffe9 1fbf
00000010: b2a1 12bf e7e1 5dbe 1702 5d3f 252c b7bf
00000020: dc27 413f 4662 81bf e1ea ad3e f532 0f40
00000030: b41d a2bf 500f 93bf c277 663e 94b7 de3f
00000040: a83d 3bbe ee2d e4be 1324 573f 2c98 593e
00000050: 61eb 863f c38f 443f 085c 6cbe 963d 5ebf
00000060: 9d06 213f 0501 09bd 64d8 49be 8489 963e
00000070: 735c 4ebf c11e 6f3e c5b3 4e3f d44c c03d
00000080: f75c fbbc 4d21 863c 2467 a03e 999c 4dbe
00000090: e7be c43c 02bb 993f 530e 073e eeb5 c2be
000000a0: 9851 423f c118 5dbf c117 9a3f 8b38 0b3e
000000b0: 2f8d dabd b4b0 813f e217 15bf f7b4 a73f
000000c0: 2e3a 2d3f 86d5 8f3e 4b99 573f 91c1 6b3f
000000d0: 2814 643f b6d3 f1be cda1 98bf 8eea c43e
000000e0: b00b 1bbf 8a20 483f 9887 b83e 49dc 64bf
000000f0: 95dc 52bd 3b68 bb3f 5613 de3f 7583 c4be
00000100: c8da 11bf 351a 2d3f 24cb e1bf f5c2 0ebf
00000110: 546d d0bd a0c4 9f3d 1e6e c93d b644 b2bd
00000120: 9a40 ae3f eba7 ee3f ce37 32bf 6fbf 4fbf
00000130: 22ee 4dbf 15f5 ef3e 0f43 193f a80a 523f
00000140: 5451 553f 9f47 95bf 571f 64bf 755f 093f
00000150: 9020 e2bc ec72 0c3e a8e6 583c e18b 913e
00000160: aad6 b43f 0cb1 083e 8462 5e3d 3bbf 983f
00000170: 36b6 47bf 1ea6 913f 479a 983f 6df8 363f
00000180: d414 2d3f ab79 d03f a418 4640 c579 ccbf
00000190: ea4b 0440 7fc1 9d3e c26e 09bf ccdf 0140
000001a0: a285 d8be 5a0e 45be d88c 8a3f 5d9f c23e
000001b0: 112c ae3f 9406 cc3f 444f eb3e dbab 59bf
000001c0: 7805 2cbe ce9e e23e ffef fdbf 734e 733f
000001d0: 70ed 2a3f 417a 3a3f e442 6dbf ce41 c1be
000001e0: 82e1 e23f 9b5d 083f a22c 763f 5d4e 983c
000001f0: 7d44 a23d e4cc 9bbe 5948 d83f b7cb 003f
00000200: 8bea ee3b 2402 a0bf c5da 6a3f db96 fabf
00000210: 9a7b e63e 5235 dfbf 4647 70be b538 b03d
00000220: 70d3 d8bf 9c00 a9bf 872c b93e 963d 0cbf
00000230: 6fc3 97be 8e24 483f 7d59 6b3f 0537 d73e
00000240: adea 4fbf 1af7 a13f ba99 adbe 0de7 303f
00000250: dd93 c4bf 1be9 4abf 574e a6bf 2a92 11be
00000260: 7167 78bf a807 1fbf ca5f 40bf 16c5 6f3f
00000270: 098f 03bf 53d9 8ebe 9751 8b3f 3e50 dc3d
00000280: 2b5c f6bd 2d49 6abf f557 7d3f e0b8 fc3f
00000290: 5a8f 30bc af52 9f3f cd79 443f 638d 9bbe
000002a0: 6c03 bbbe 36e6 bfbf 53f5 303e 365e 9cbe
000002b0: e095 2fbf 1909 93bb 4da5 fabc cdf5 873e
000002c0: 53f1 36bf 8b6a e3bd f074 5f3f f076 66bf
000002d0: a836 25bf 0493 0140 9c17 29bf 5735 2ebf
000002e0: 841b 63bd 997c 34be 513d 9fbf b2d4 343f
000002f0: e889 2c3f 5f7c 53bf 75e7 6cbf bd8b ebbf
00000300: bdaf 1dbf feb8 d9be 62ba 47bf 7924 193f
00000310: 3eb6 84bf 5f38 17bd 01a1 c4bf d7b8 2bbf
00000320: cbf0 89bf e035 073f 9dfe a2bf ffcc 4a3f
00000330: 1b4a bcbe 4ef2 06be 4cbd a0be a147 99be
00000340: b800 dcbe 0f39 343f 9223 dfbf 68c3 043f
00000350: 896b ccbc 38d3 8d3d 4b68 38be 0746 553e
00000360: fbda cfbe 9d9c adbe d130 e33e 111b 353e
00000370: 9b25 2dc0 272d 12bf 39f2 2ebc a42f 96bf
00000380: 760b 55be 7fb0 33bf 42dd a1bf 431f b03e
00000390: 07c3 23be baa3 d33f 9255 4fbf 9b30 adbf
000003a0: 05ac d3bf a3e6 0ac0 013d 04bf c495 9dbf
000003b0: 796b ef3e f71a a3bf 700f f5be 89ae 41c0
000003c0: 3a9f 63be 60a1 9c3d e78d 9c3e 4978 293f
000003d0: 9636 38be 65db f5be 1fae 16bf 0a09 db3e
000003e0: 1ba3 a4bf 4b4e b3be 2eaf c0be 86a4 e1be
000003f0: e2a1 42bf e451 0cc0 6933 fbbf 2ba1 92bf
1.7617381 -1.2404735 0.4353671 -0.62466425 -0.5727798 -0.21668206 0.86331314 -1.4310347
0.75451446 -1.0108116 0.3396826 2.2374852 -1.2665315 -1.1489048 0.22506621 1.7399774
-0.18285239 -0.44566292 0.8403942 0.21249455 1.0540582 0.7678186 -0.23081982 -0.8681272
0.62900716 -0.033448238 -0.19711453 0.2940179 -0.80609816 0.23351575 0.80743057 0.09389654
-0.030683978 0.0163733 0.3132869 -0.20079269 0.02401681 1.2010195 0.13189058 -0.38029426
0.7590575 -0.86365896 1.2038499 0.13595788 -0.1067146 1.013205 -0.5823957 1.3102101
0.676669 0.28092593 0.8421828 0.92092234 0.89093256 -0.47231835 -1.1924378 0.384602
-0.6056471 0.7817465 0.3604095 -0.8939863 -0.051479895 1.4641184 1.7349651 -0.38381544
-0.5697446 0.67618114 -1.7640119 -0.5576623 -0.10177103 0.07801175 0.09835456 -0.08704512
1.3613465 1.8644994 -0.696164 -0.8115148 -0.80441487 0.4686667 0.5986795 0.8204751
0.8332722 -1.1662482 -0.8911032 0.5366128 -0.027603418 0.13715714 0.0132385865 0.28427032
1.412801 0.13348788 0.05429317 1.1933359 -0.78012407 1.137882 1.1922082 0.7147282
0.67609906 1.628713 3.095254 -1.5974661 2.0671334 0.30811688 -0.5368463 2.0292845
-0.42289454 -0.19243756 1.0824232 0.3801221 1.3607198 1.5939507 0.45958912 -0.85027856
-0.16798961 0.44261783 -1.9838866 0.9504158 0.6676855 0.72842795 -0.9268019 -0.37745517
1.772507 0.5326783 0.96161854 0.018592054 0.07923219 -0.30429757 1.6897079 0.50310844
0.0072911433 -1.2500653 0.91740066 -1.9577287 0.45016176 -1.7438147 -0.23464689 0.08604566
-1.6939526 -1.3203311 0.36166784 -0.5478147 -0.29641291 0.7818078 0.91933423 0.42034164
-0.8121746 1.2653534 -0.33906347 0.69102556 -1.5357624 -0.7926194 -1.2992657 -0.14215913
-0.9703284 -0.6212106 -0.7514616 0.93660104 -0.5139013 -0.2790018 1.0884274 0.107574925
-0.120292984 -0.9151791 0.98962337 1.9743919 -0.010776365 1.2447108 0.76748353 -0.30381307
-0.36526048 -1.499213 0.17281084 -0.30540627 -0.68588066 -0.0044871685 -0.0305964 0.2655472
-0.7146198 -0.11104306 0.8728781 -0.90025234 -0.64536524 2.0245981 -0.6605165 -0.6805014
-0.055446163 -0.17625655 -1.2440587 0.7063705 0.6739793 -0.8261165 -0.92540675 -1.840202
-0.6159628 -0.4252395 -0.7801877 0.5982128 -1.0368116 -0.036918994 -1.5361634 -0.6707892
-1.0776609 0.5281658 -1.2733952 0.7921905 -0.36775288 -0.1317837 -0.31394422 -0.2993746
-0.42969298 0.70399565 -1.743273 0.51860666 -0.02495362 0.069250524 -0.18008535 0.20827495
-0.40596756 -0.3390855 0.4437318 0.17686106 -2.7054203 -0.57100147 -0.010677868 -1.1733289
-0.20805153 -0.70191187 -1.2645648 0.3439885 -0.15992366 1.653434 -0.80989945 -1.3530458
-1.6536871 -2.170327 -0.51655585 -1.231133 0.46761683 -1.2742604 -0.4786334 -3.0262778
-0.22228709 0.07647967 0.30577013 0.66199166 -0.17989573 -0.48018947 -0.5885944 0.42780334
-1.2862276 -0.3502067 -0.37633651 -0.44070834 -0.76028264 -2.1924982 -1.9625064 -1.1455435
