IRT_finial/irt_model.pth (torch, 233056 bytes, 4 tensors)

theta.weight f4 [4500, 1]
00000000: 586a 88bf 054f 30bf c0d2 863d acfa debe
00000010: 661f 2d3f 3fac 183f 334a 7bbf 09b8 a43e
00000020: b29f 12bf 2b74 3d3f fcc4 11bf 7175 c4bd
00000030: a679 c03e 9e20 1e3f ce11 3c3f a863 fe3f
00000040: 71bc 49bf 284b 7fbe 5b12 22c0 3108 b7bf
00000050: ec8a c1be be7c e7bc a2ae 95bf fbf2 81be
00000060: 2b32 773e 83cf b0bf 4ca4 2fbf 5227 26c0
00000070: f9e5 1e3d 5a09 5a3e 9c67 0b40 53b2 44bf
00000080: 6764 91be 082d 50bf a1c7 313f 8b34 033f
00000090: 86e9 6cbf 1df8 ca3f 0722 05c0 16f4 51bf
000000a0: 6082 cdbf 43a1 333f 7cd9 96bf df87 47bf
000000b0: f191 0e3e 50fb 303f 0c38 263f 6a14 d2bf
000000c0: be10 d6bf daa6 41bf 28cd c0bf 8cfe 303f
000000d0: 0430 a53f bcd9 cf3e cfd5 87bd c0ae 193f
000000e0: 8773 ccbe 3896 25be cd0c 99bf c79b aebf
000000f0: cbe4 f0be f447 113d bf67 5a3f d8da 1c3f
00000100: 8644 d2bf 8436 cb3e 2db6 91be a3b0 7dbf
00000110: 31a2 a6be 232a 09bf 5d62 c0bf fa3c 7e3e
00000120: 31d3 a1bf 1364 bfbe 4ce8 0ebf 793d 73bd
00000130: 371f 78be a6e2 953e 76db a43e 7f22 6d3f
00000140: 7ac2 09c0 5198 643d 4984 333f 1525 793d
00000150: 5586 683e 0c72 32bf 68bf 7f3e 1bb4 d7bf
00000160: 200f 48be b9c1 c9bf 2129 d9bf 0288 efbd
00000170: 8b90 c53f 4834 4f3f 1c8d 3440 e038 423f
00000180: a849 56be ac3a 36bf 26f3 cfbf 395f 593f
00000190: a65f dfbf fa1d 9f3f 11dc 3bbf dce4 4d3f
000001a0: 646e 2f3f b156 3fbf 55f5 a2be e696 9f3d
000001b0: 273c 87be 2376 babf 5328 8cbf 3772 c73f
000001c0: a12e 843f 7526 673f 03fa f33e e96e aabe
000001d0: 2f78 a2bf dfef 59be 3286 373f 90da 313e
000001e0: e602 afbf c2b6 0e3f daf2 8d3f 45c2 37bf
000001f0: 24b4 30bb 59c7 f9be 376c c33d 3985 0ac0
00000200: 7b47 9cbf 5ff4 b93f 8ed5 87bf 24bb c73f
00000210: c4e5 41bf 8e3b a03e b549 3abf 12e1 7c3e
00000220: 3526 8bbf f79a d5bf 8514 09c0 4289 61bf
00000230: aefd 43bf 5ef9 8d3f 74bf c53f 489d 583f
00000240: 4565 df3f 025a 963e bb6c 26bf 185f 013f
00000250: 4453 82bf 7a6d 473b 7f88 16c0 b026 013f
00000260: bdb3 053e e5ad bf3e ccdc 153e 9340 253f
00000270: 94d4 d4be 531c 85bf 5514 adbf 49fd 183f
00000280: 5c4a c83f 6e59 29bf c0a8 8e3f 7200 db3e
00000290: 26e6 7f3f d9ee cebe 2f93 ddbe 23e3 dabf
000002a0: fd35 543f 7aea 2abf 64e3 b53e 374b a5bf
000002b0: 2795 d63e 2e4f 20bf 3de7 8b3f 55cd 2d3f
000002c0: 5b7e 153f e182 e7bd ba17 cfbd f80f c7bf
000002d0: 0eb1 673e 121a 483f 371f fabe 7cc0 61bf
000002e0: 1cac c23e 6afc 123f 2a17 6abf 1a60 553f
000002f0: 68a6 96bf ea45 5b3f 2ea4 cb3e 7792 b5bf
00000300: 2d1c dd3f bba8 5a3e a7af c13e b70f 6b3f
00000310: ebfe c9be 6729 1bbf 1166 fdbe e01a 97bf
00000320: df7e 813f 2c8e d6bd 94b4 19bf cae8 a13e
00000330: 2f61 74bf 1fec 043d cbd3 14bf 7621 ba3e
00000340: ffe6 313e 5645 90bf abc8 6dbd ea75 c63d
00000350: 3f3e dabe 49fa b53f cdec ea3e 0b4e dfbe
00000360: b38b d7bf 523a 883e 6612 5dbd 2b7e 62bf
00000370: 6375 abbe 5255 943d ec96 413f 1715 983e
00000380: 5429 363f 369b 03be 0261 a1bf deb0 a5bf
00000390: 559b febe b690 f8bf 90f2 d2be 16bb 8ebe
000003a0: b8d2 91bf 5cf4 7d3f 44b9 33be 324f 4abf
000003b0: 0217 b6be d1fa e0be 9dad f5be dff3 473d
000003c0: 5a9c 1bc0 b402 fa3e 145c 543e 6e74 d23e
000003d0: 2211 973f 5b65 aebe 18f1 2abe 8129 fdbe
000003e0: 3107 f0be d462 edbf 3766 b5bf 609a 873d
000003f0: 9044 2dbf acf2 5c3f 5597 21c0 29c9 3fbe
-1.0657454 -0.68870574 0.06583166 -0.43550622 0.67626035 0.59637827 -0.98160094 0.32171658
-0.57274926 0.74005383 -0.569412 -0.09592713 0.3759281 0.6176852 0.7346467 1.9874163
-0.78803164 -0.24931014 -2.5323703 -1.4299375 -0.378013 -0.028257724 -1.1693919 -0.25380692
0.24140231 -1.3813328 -0.6861007 -2.59615 0.038793538 0.2129263 2.1781988 -0.768346
-0.28396913 -0.8131871 0.69445235 0.5125205 -0.9254383 1.5856968 -2.0802019 -0.8201307
-1.6055412 0.7016794 -1.1785121 -0.779417 0.1392286 0.6913347 0.6492927 -1.641248
-1.6723859 -0.7564522 -1.5062609 0.6913841 1.2905278 0.40595806 -0.06632578 0.6003227
-0.3993189 -0.16170585 -1.1957031 -1.364129 -0.47049555 0.03546901 0.85314554 0.6127143
-1.6427162 0.3969003 -0.28459302 -0.9909765 -0.32545617 -0.5357992 -1.5030018 0.24827948
-1.2642576 -0.37381038 -0.55823207 -0.059384797 -0.24230658 0.29274482 0.32198685 0.9263076
-2.152495 0.055809323 0.70123726 0.06082638 0.22707494 -0.6970527 0.2497536 -1.6851839
-0.1953702 -1.5762244 -1.6965677 -0.11695863 1.5434736 0.8093915 2.8211126 0.75868034
-0.20926535 -0.71183276 -1.6246078 0.84910923 -1.7451065 1.2431023 -0.7338267 0.80427337
0.6852782 -0.74741656 -0.31827798 0.077924535 -0.2641308 -1.4567302 -1.0949806 1.5581731
1.032673 0.90293056 0.4765168 -0.33287743 -1.2692927 -0.2128291 0.7168914 0.17368531
-1.367276 0.55747616 1.1089737 -0.71780807 -0.002696284 -0.48784903 0.09542125 -2.1643813
-1.2209314 1.4527701 -1.0612047 1.5603986 -0.7574122 0.31295437 -0.7276872 0.24695233
-1.0871035 -1.6687917 -2.1418774 -0.88100064 -0.7655896 1.1091726 1.5449052 0.8461499
1.745278 0.29365546 -0.6500966 0.50535727 -1.0181661 0.0030430243 -2.352081 0.5044966
0.13056846 0.37437358 0.14635009 0.6455166 -0.41568434 -1.0399269 -1.352183 0.5976148
1.5647693 -0.66152084 1.1145248 0.42773777 0.99960554 -0.404166 -0.43276355 -1.7100567
0.8289488 -0.6676403 0.35525048 -1.2913579 0.4191067 -0.6262082 1.0929943 0.67891437
0.5839593 -0.1130426 -0.10111947 -1.5551748 0.22626135 0.7816478 -0.4885194 -0.8818433
0.38021934 0.57416403 -0.91441596 0.83349764 -1.1769533 0.85653555 0.39773697 -1.4185323
1.7274224 0.21353428 0.37829325 0.91820854 -0.394523 -0.6061005 -0.49491933 -1.1805077
1.0116843 -0.10476336 -0.60041165 0.31622916 -0.9546079 0.032451745 -0.5813567 0.36353654
0.17373274 -1.127116 -0.0580527 0.09690459 -0.42625615 1.4217006 0.4588379 -0.4361423
-1.6839508 0.26606995 -0.053972624 -0.8847377 -0.33487996 0.07242836 0.75620914 0.2970359
0.7115681 -0.12852177 -1.260773 -1.29446 -0.49727884 -1.9419162 -0.41200686 -0.2787711
-1.1392431 0.9920099 -0.17551142 -0.7902709 -0.3556443 -0.43941358 -0.4798402 0.048816558
-2.431418 0.48830187 0.2073825 0.41104454 1.1802104 -0.34061703 -0.16693532 -0.49445727
-0.46880487 -1.8545785 -1.4171818 0.066212416 -0.67682743 0.8630779 -2.5248616 -0.1872908

a.weight f4 [17747, 1]
00000000: 645a 88bf 0235 3a3e dcc7 9b3f a738 2d3f
00000010: f656 7abf 9b37 1fbf 4d0a f93f 21af 263f
00000020: 15b2 853e f96d dabf ebb8 89bf b4fe 6cbf
00000030: 13ee eebe 1b13 dfbe 5582 a4bf 8b53 de3e
00000040: c80e 9cbe 53ab 413f abc5 0ebf c118 73bd
00000050: 89e1 893f 9ea1 a3be 8e4c 993f b470 09be
00000060: d9c5 85bf f292 6fbe 8835 793f ccaa 653e
00000070: dab0 95bf 6868 73bf bf59 843e 47e1 0bbf
00000080: 9e86 7abf 432d a63d 6e49 343f fba1 ef3e
00000090: 64cf e63e ca3b 57bf 6f70 9a3e 2c8a 4dbf
000000a0: ff8e 0b3f a026 3cbe 1ea2 34bf 3b06 60be
000000b0: ab3f b03e 2e68 e3bf 50d6 0ebf 85fd b7bf
000000c0: 700b 9e3f 2d4a 52bf 6f1e b13f 8115 90be
000000d0: 92bf f8bd 317e 3bbe b071 04c0 e19e 5fbf
000000e0: c87a 97bf d7a4 be3b f52e 913f 6016 a3bf
000000f0: a7f4 e93f d890 9abf b942 8e3f bcc0 21be
00000100: fd5c 023f 2bfe 5bbf 1143 0bbf 4036 87bf
00000110: 5914 a23f 65cb 143e d935 b2bf 51fb 27ba
00000120: d74f 253f 3eb6 64be 5cf5 d0bf 14f1 25bf
00000130: f99f 973f ceab 18bc 79f1 1c3f c62f ac3f
00000140: d4bd abbe 503d 0fbe 21b2 0ebf 9056 0ac0
00000150: ac06 b43f bb8a c5be 546c 84bf 24f5 a4bf
00000160: 010d 51bf 511c 9ebe 3984 62bf 7de9 963e
00000170: 10bf e43f be2c 7cbe 2cfa 923e 743d 8d3e
00000180: fb20 08bd cd20 d5be 630e 6a3f d990 47bf
00000190: e82a c5bf 8e1d d13e 48a2 7d3e e7c7 d63e
000001a0: 61cc 713d 3f38 413f a3dc 9dbe b4ea 9fbf
000001b0: 9f69 493f 4bc7 6fbe 18d4 71bf e263 0040
000001c0: c2a9 9cbf b19a b7bf 6211 033e fa22 513f
000001d0: f167 a83f 780a a1be cd1c 693d d649 d3bf
000001e0: e901 d93e 542a 8e3e 1600 10c0 e062 a83f
000001f0: 4df3 f9bd 77e6 b03f 4d78 c13f e3e0 51bf
00000200: 083c 80bf 8866 233f e58b 57be fc47 b83f
00000210: f621 0cbe f63f 9dbf eb73 4c3f 1e09 a03e
00000220: fc70 a0bf 9920 863f e098 143f 13dc 843f
00000230: ce29 47be cbed 07bf 7206 bdbf e793 113f
00000240: c386 2c3e 514f 22bf 3ce2 b9bf a87a 3bbe
00000250: 647a 823e 6969 793e 76dd 8fbf 7050 36bf
00000260: 681d 5f3f 1f09 3d3f 2741 1ebf 2454 a7be
00000270: c306 c63f 6b7c d63e df23 9abe d653 d03f
00000280: 3602 f6be 5966 733f 1ab8 333e 7d0a 9d3d
00000290: b4ce 5b3f 8c2d 80bf cffe 9a3f ed4f bcbf
000002a0: 97a1 8b3e a43b 2fbf 81b3 ac3e 6c0e a8bd
000002b0: 12c8 50be a955 333f 934b 15c0 de0b 593f
000002c0: fe49 4fbe 2c0a 5b3e 12bd 13bf 79f1 88bf
000002d0: bd49 103e 7674 f53f 7ea6 a7bf a77a bebe
000002e0: 6f08 2abf 7f03 c4bf e6dc 0abf 23a5 983b
000002f0: ac7b cebe db80 acbe e10c 92bc 379c cb3f
00000300: 92e0 32bf e6cc 8dbf 12cd bfbf 0a83 343e
00000310: 4591 ec3e 1d42 f0bd 1ad6 f6bf ad72 18bf
00000320: 7c7e 86be 03c0 26bf 3c1a 1a3e 0ff2 633e
00000330: be38 53bf 3339 af3f f9cf 36bf 91e9 65bb
00000340: 7d40 13bf dbe7 733f 523c a43f 4382 ab3f
00000350: 614a 883f 2cea cdbf 4d20 0ebf a694 23bf
00000360: 0f06 19bf d6f6 99bf 5214 d1bf 4d2c e1bf
00000370: 863a 7e3f 7234 00bf ae57 713f 7af7 0abf
00000380: 9183 16c0 3074 58bd fd45 aa3f fe44 43bf
00000390: 289e c3be cfc5 cd3d 8bc5 fdbe 0d2d 193f
000003a0: 1e25 8bbf 3bb5 c8be 8bdf a53f 61d0 dabe
000003b0: 01d2 edbb cb12 92bf cb4f c23d 6e18 2cc0
000003c0: 27cf 7bbf b69f 3d40 00b5 0b3f b695 ac3c
000003d0: 03f4 e6bd 4f39 083f 3dea 7a3f 05b3 93bf
000003e0: a9bb 7f3d 52dc 803e 3341 833f 5ad6 84bd
000003f0: 1bd0 133c 0a3d 08be a74a 333d b3ed d63f
-1.0652585 0.18184283 1.2170367 0.6766457 -0.9778894 -0.6219422 1.9456269 0.65110976
0.26112428 -1.7064811 -1.0759557 -0.92576146 -0.4666601 -0.43569264 -1.2852274 0.43423113
-0.30480027 0.75652045 -0.5577037 -0.05934978 1.0771953 -0.31959242 1.1976488 -0.13421899
-1.0451003 -0.23395899 0.9734731 0.22428435 -1.1694596 -0.95081186 0.2584972 -0.5464062
-0.9786166 0.08114102 0.70424545 0.4680327 0.450801 -0.84075606 0.30163905 -0.8028896
0.5451507 -0.1837411 -0.7055987 -0.21877377 0.34423575 -1.7766168 -0.55795765 -1.4374243
1.234724 -0.82144433 1.3837413 -0.28141406 -0.12145914 -0.18309857 -2.069439 -0.87351805
-1.1834345 0.0058179903 1.1342455 -1.2741203 1.8277787 -1.2075453 1.1114112 -0.15796179
0.5092314 -0.85934705 -0.5439921 -1.0563431 1.266246 0.14530714 -1.3922683 -0.00064079935
0.6457495 -0.22335145 -1.6324878 -0.6482098 1.1845695 -0.009318305 0.6130596 1.3452079
-0.33543265 -0.13988233 -0.55740553 -2.1615334 1.4064536 -0.38582405 -1.0345559 -1.2887311
-0.8166047 -0.3088098 -0.88483006 0.29475012 1.7870808 -0.24626443 0.2870649 0.27585948
-0.033234578 -0.41626588 0.914282 -0.77955395 -1.5403719 0.4084286 0.24768937 0.41949388
0.0590328 0.7547645 -0.30832395 -1.2493501 0.7867679 -0.23415868 -0.94464254 2.0060964
-1.2239306 -1.4344083 0.127996 0.81693995 1.315672 -0.314533 0.056912232 -1.6506908
0.4238427 0.2776667 -2.2500052 1.3155174 -0.12204609 1.3820332 1.5114838 -0.81983775
-1.001832 0.63828325 -0.2104946 1.4396968 -0.1368483 -1.2285144 0.79864377 0.31256956
-1.253448 1.0478698 0.5804577 1.0379661 -0.19449541 -0.5309722 -1.4767592 0.56866306
0.16848283 -0.6340228 -1.4522166 -0.18308508 0.25484002 0.24356617 -1.123946 -0.7121649
0.87154245 0.7384204 -0.61818165 -0.32681382 1.5470814 0.41891798 -0.30105492 1.6275585
-0.48048562 0.95078045 0.17550698 0.07668016 0.8586228 -1.00139 1.2109011 -1.4711891
0.2727172 -0.6845038 0.337307 -0.08205876 -0.20388821 0.7005258 -2.3327377 0.8478373
-0.2024307 0.21390599 -0.57710373 -1.0698692 0.14090629 1.9176166 -1.3097684 -0.3720295
-0.6641912 -1.5313567 -0.54243314 0.0046583577 -0.4032873 -0.3369206 -0.017828407 1.5907048
-0.6987392 -1.1078155 -1.4984457 0.17628112 0.46204582 -0.1173136 -1.9284089 -0.5954998
-0.26268375 -0.65136737 0.1504907 0.22260307 -0.82508457 1.3689331 -0.7141109 -0.0035081843
-0.57520276 0.9527566 1.2830908 1.3399128 1.0647699 -1.6087089 -0.5551804 -0.63898695
-0.5977487 -1.2028453 -1.6334326 -1.7591645 0.9930805 -0.50080025 0.94274414 -0.5428387
-2.3517802 -0.05284518 1.3302609 -0.7627715 -0.382066 0.100474946 -0.49564776 0.5983437
-1.0870702 -0.39200768 1.2958845 -0.42737105 -0.0072577004 -1.1411985 0.094878756 -2.688991
-0.98362964 2.962873 0.5457306 0.021067481 -0.1127701 0.53212446 0.9801367 -1.1539007
0.062434826 0.2516809 1.0254272 -0.06486197 0.009021784 -0.13304535 0.043772366 1.679129

b.weight f4 [17747, 1]
00000000: 92b9 a23e f95c ac3e 9052 e63e 2346 c13e
00000010: 3e79 eabe a825 a6bf 1417 c03d dd72 ea3e
00000020: c4ae aebe d791 80bf 64dc 9fbf 3d7f f4be
00000030: f60c febe 5541 903f 6383 513e 8001 68bf
00000040: 1ae4 d4bf 7cd4 243e 3e71 ecbd edd5 493e
00000050: 0f10 923e be65 663f 4599 86be 922a d53f
00000060: 4d37 173f 56de 1b3f 6c83 fe3d 8098 c9be
00000070: a67c ce3e e9ac 98be 0337 8a3e ba09 813e
00000080: 685a e3be 8dd0 853f 0ae8 5bbf 0560 063f
00000090: 489a 7c3f 46d8 813e ce85 8ebf 8ce0 8cbd
000000a0: 5981 22be a6cd ce3e 0598 b73f bb90 28bf
000000b0: f93c bf3f c6fe 1d3f f220 f0be 3c4c 1d3e
000000c0: 5e34 a33f 74e8 5c3d e56e 5fbf 0a48 473f
000000d0: 2ad2 b0be 4812 893f 4de4 72bf 484a 053f
000000e0: 86b6 31bf b626 50be 1628 9cbd 25cd d43f
000000f0: 3948 8e3f 0cdf 6c3f 5832 94be b06a f03f
00000100: 18dd 1a3f a1d5 f9be ed7b 9f3f a699 5cbf
00000110: 6d97 9fbf e79f 513f d671 80bf 3f86 2e3f
00000120: 15c0 aebe 5eeb 01bf 1965 173c b9ee d73e
00000130: 8f65 8b3d f9a6 1fbf 44bf e23e 8976 f33e
00000140: a192 57be 8da5 35be e471 8c3e 74d2 ccbf
00000150: 5b1b 6f3f e7c9 c33f 2c0e 053f d1ef 133e
00000160: bc80 17bf 5582 11bd 2ebe 40be 7c33 063d
00000170: 5f44 043f bd7a 9b3f 8281 0e3f 972a 3b3f
00000180: 7615 9f3f 869e 6abd 9fef 993f ade4 03bf
00000190: 60be a5bf 34df 583f 65d9 303f c015 373e
000001a0: df35 b0be 207c 9fbf 31f5 12bd 66b3 2bbf
000001b0: 9073 aabd fcff 2fbe 5db7 873f 005e 923f
000001c0: abe7 62be 3289 f93f a94f a13d 9783 9dbd
000001d0: 44fb 9abe 9d0b 95bf 6f5d 2fbf 709e bfbf
000001e0: 2dca 28bf 09b1 a03f d823 f3bf 2bb8 90be
000001f0: 512b 65bd a0fc 3c3f e593 97be f8e4 a9bd
00000200: 5077 403f 6430 9c3f 71ff dfbe 1f9c c53d
00000210: 6fb9 55bd 08ab 193f aff0 963e 00b0 3840
00000220: d549 ee3e 1ebc 3740 d100 5b40 db94 813f
00000230: e5ca 653d fd8f 05bf 16be 01be b190 90be
00000240: f333 e03f 843c 2a3f 75fa 4dbf ef36 1b3f
00000250: 7fe9 803e 976f 993f b6f1 4abf 1409 56bf
00000260: 78ce 473f 5283 273f 7581 c93e 2e5e 16bf
00000270: 02b1 b63f 051a 99be 26c6 c7be 009e ad3e
00000280: 1c64 0bbf 1747 a9be d3ee 4c3f 547c 20bf
00000290: e40d d83e 0d31 abbd dc17 82bf ddeb 6c3f
000002a0: c484 5f3f bb73 5fbd 8d78 c03f 8c7c 44be
000002b0: c512 2b3f dea5 47bf b195 23bf 92a8 9d3f
000002c0: 0ffa 703e 4e85 b23f c13c 65bf 3cdc db3e
000002d0: bada ac3f d6c9 113e 53d1 aabf a8a5 4c40
000002e0: d3c2 053f 56ba ef3e 3d59 0cbf d9a9 fabe
000002f0: d815 96be db65 403f e63b a1be f0ac 473f
00000300: 0fa8 9438 27f9 023f 6d89 373e ac03 ae3f
00000310: 6009 6b3e 2d4d cf3e 032f ce3f 0277 173f
00000320: 5283 a6be 3f02 c0bd 2066 f83f 508d cebe
00000330: 69e6 6c3f 714c db3e 678d 613e 77aa f23e
00000340: 76f2 293f 035d cdbe 5788 563f d0ce 9c3f
00000350: 7a6d f93e 7b4c a73f c8a0 553f 6f75 583f
00000360: 5e63 d93e b359 183f c086 c93f d998 5ebe
00000370: 2864 4b3f 3ab9 543e a880 d9bd 7741 1dbf
00000380: b5ae 593f 34db febf 1479 d63f 9022 a5bf
00000390: 090e f73e 0756 9dbf 3de5 42bf 79e7 783f
000003a0: 1881 fa3d b998 0240 1a93 f13f 950d bc3e
000003b0: e409 b8bd 5b0f d53c 13cd 1fbe 6702 a0bf
000003c0: 8cae 0f40 0ff0 c33f c8b6 a43a 3db4 54bd
000003d0: ba46 04bf c7d7 0740 07b9 7e3f bdd1 ffbd
000003e0: 2f8a 233e 44fa c43e db67 e73d 4d8a bf3f
000003f0: f596 af3e fa69 db3f 33c3 c4bf e617 023f
0.31782204 0.33664683 0.44984865 0.37748823 -0.45795625 -1.2980242 0.09379402 0.4579076
-0.3411771 -1.0044507 -1.2489133 -0.47753325 -0.49619263 1.1269938 0.20460276 -0.9062729
-1.6632111 0.16096681 -0.11545037 0.19710512 0.28527877 0.89998996 -0.2628881 1.6653616
0.5906876 0.6088613 0.124274105 -0.3937416 0.40329474 -0.2981942 0.26995096 0.25202733
-0.44404912 1.045427 -0.8590094 0.52490264 0.98672915 0.25360316 -1.1134584 -0.068787664
-0.15869655 0.40391272 1.4343268 -0.6584584 1.4940482 0.6171688 -0.46900135 0.15361112
1.2750356 0.053932622 -0.87278587 0.778443 -0.34535342 1.0708704 -0.9487961 0.5206647
-0.69419134 -0.20327267 -0.07624833 1.6625105 1.1115791 0.9252784 -0.2894466 1.8782558
0.6049361 -0.48795798 1.2459694 -0.8617195 -1.2468086 0.81884617 -1.003474 0.68173593
-0.34130922 -0.50749767 0.009240412 0.42174318 0.0680648 -0.62364155 0.4428655 0.47551373
-0.21052028 -0.17738934 0.27430642 -1.6001725 0.93401116 1.5295991 0.5197475 0.14446951
-0.5918081 -0.035524685 -0.18822548 0.032763943 0.51666826 1.2146832 0.55666363 0.7311186
1.2428424 -0.057280086 1.2026252 -0.51520807 -1.2948723 0.8471558 0.6908172 0.1787939
-0.344161 -1.2459755 -0.035878364 -0.67070615 -0.08322823 -0.17187494 1.0602833 1.1434937
-0.22158687 1.9494994 0.07876522 -0.076911144 -0.30269825 -1.1644169 -0.68501943 -1.4970226
-0.65933496 1.2554027 -1.8995314 -0.2826551 -0.055949513 0.73822975 -0.29605022 -0.082956254
0.75182056 1.2202268 -0.43749574 0.09648918 -0.052178796 0.600266 0.29480502 2.8857422
0.46540704 2.8708568 3.4219248 1.0123552 0.0561017 -0.52172834 -0.12670168 -0.2823539
1.7515854 0.6649859 -0.8046029 0.60630697 0.25178143 1.198718 -0.7927507 -0.836076
0.7804942 0.65434754 0.3935658 -0.58737457 1.4272768 -0.29902664 -0.39018363 0.33909607
-0.5444963 -0.3306205 0.80051917 -0.6268971 0.42198098 -0.08358965 -1.0163531 0.925474
0.8731196 -0.05455373 1.5036789 -0.19188136 0.66825515 -0.7798747 -0.63900286 1.2317069
0.2353289 1.3946931 -0.8954583 0.42941463 1.350425 0.1423715 -1.3345131 3.1976109
0.52250403 0.4682185 -0.54823667 -0.48957708 -0.2931354 0.7515542 -0.3149101 0.77998257
7.088493e-05 0.51161426 0.17923518 1.359487 0.22952795 0.40488568 1.6108097 0.59165967
-0.32522064 -0.093754284 1.9406166 -0.40342188 0.9253908 0.42831758 0.22026597 0.4739568
0.6638559 -0.40110025 0.8380179 1.2250614 0.48716336 1.3070215 0.8344846 0.8455419
0.42458624 0.5951187 1.5744247 -0.21737994 0.794497 0.20773783 -0.10620242 -0.61428016
0.85032207 -1.9910645 1.67557 -1.2901173 0.48252895 -1.2291878 -0.7613104 0.972282
0.12231654 2.0405715 1.8873017 0.36729112 -0.089862615 0.026008299 -0.15605573 -1.2500733
2.2450285 1.5307635 0.001256668 -0.0519297 -0.5167042 2.122545 0.9950108 -0.12491176
0.15970682 0.38472188 0.11299106 1.4964081 0.3429486 1.7141716 -1.537207 0.50817716

c.weight f4 [17747, 1]
00000000: 29fa 163e 7368 9bbd c19a e23e 944d fbbe
00000010: 8988 003e 575b 7d3f c601 483f f144 e8bd
00000020: 1f3d 933f b68f d9be 7fe6 963e 358b 27bf
00000030: 2546 e2be cfad 2a3e d8ad bfbd a631 1f3f
00000040: 48dc edbf 9762 81be 1b6c 50bf e015 8bbe
00000050: b3e2 e03f bbe6 f5be b5ea 7d3e 78a8 b33c
00000060: 8132 b83e f054 333f 7645 6dbf a340 babd
00000070: cc12 47bf 47fd f2bd f847 763e 91c7 56bf
00000080: 2118 99bf 4add 25bf c515 f03e 068d 3abf
00000090: 57a9 2d3f f3f5 3a3e ccac 2dbf 9763 533e
000000a0: 39ba 60bf 5122 33bf 9838 153e 391c 4f3f
000000b0: 23e3 003f 4a6b 863f 1f39 b6be 56cb 98be
000000c0: 20bb 75be 9208 99bf a49b 343f f3f8 97bf
000000d0: 6509 a83e ad92 773f 06cf 03be a2ac 47bf
000000e0: dc41 9d3f 91ae 42bf ac98 81bf de79 1e3f
000000f0: 9641 5f3f 2a92 d1be 834b 133f 4628 263f
00000100: 2f95 7f3e e5db a0be 3d36 9a3d fac2 4cbf
00000110: 8805 fbbf 832f ea3e 8e04 b73d f2ac a23e
00000120: 6f98 bbbf 621b 923f 4331 27bf a4df a53d
00000130: 31d9 823e d437 423f d47e f2be 3033 7f3e
00000140: 1a02 1b3e 54e0 81be e596 963d 8b14 72bf
00000150: 8474 a43e 2b04 463d 493a 12bf 91d3 9bbe
00000160: 5b6f 85bf ea7b b6bf d593 49bf cd25 c03e
00000170: 9c6a a63e 49aa 31bf 34a5 94bd ebd6 97be
00000180: a2fd 133e ee5e e9bc 84ca 343f 4529 6cbf
00000190: 3918 a0bf ff0f 8b3e 965c 0d3f beb7 c03e
000001a0: 8cb0 c1bf 7006 32be e354 48bf 24be 6d3f
000001b0: ee85 573e 2249 623f 9448 06bf df36 dd3f
000001c0: 5b9b e33e b659 ee3e c3cf 3fbf 53fd 213f
000001d0: f65a 81bf 6a78 45be e956 48bf 0fd9 94bb
000001e0: f685 133d bf93 15bf 223d e73f 1302 b83e
000001f0: 49d0 01bf e0cf 153f 5a80 fe3e 5264 fcbc
00000200: 0e7e 803f e8cf c3bd d1b0 313f f38e 843e
00000210: d3c0 803e 6625 fdbf e738 ba3e 114f 093f
00000220: e4c5 fcbf 7c43 85bf d1da 83be 7964 9c3f
00000230: 1f05 b4bf 6f26 8a3f 4b7c a3bf 67c7 f43e
00000240: 91d3 c43e 3000 043f 7965 3a3f 82cc 813f
00000250: 56bb 27c0 924c d93f b5cd 10bf 129c 313f
00000260: 424b 533e cac0 72bf 1c50 93bf fa45 80bf
00000270: de51 07be 0c60 823f 00de b6bf 6bdb af3e
00000280: 91dd 123f ae30 37bf 1cfe 1b3f 7117 2040
00000290: d002 2a3f fec6 bfbf bc22 18c0 72f8 52bf
000002a0: 1528 523f 7fc7 22bf e3b2 7cbf f9fb 753f
000002b0: 7535 b4bf c3fa 303f 9e4b 11be 1209 9bbe
000002c0: 8c40 40bf e78d a4bd 781c c4be 3e3f 06bd
000002d0: 85ff 8abf b622 283e 3d77 d83e 8342 9bbe
000002e0: e9c9 2f3f 7a91 30bf ff60 9cbf 55ab 89bf
000002f0: 8292 d33f afc1 023f 88d7 3fbf bb8d b53e
00000300: 2aeb b2be 5004 233f d473 90bf 1ead 823d
00000310: 87f1 a9bf ea96 c8bf c599 21bf 664b 58bf
00000320: ce90 11c0 3614 ae3d 07b0 72bf 0490 723e
00000330: be91 51bf b6a1 e33f a8eb b3bf 653c 543f
00000340: 1e5b 0f3f 1850 543f 822a c23d 60d2 4e3f
00000350: b1d0 08be 3193 3fbf e473 7dbe ea8c 393e
00000360: bcbb a4bf fedc 0e3f 370a 583e cfec 8d3f
00000370: ece5 32be e544 163e b727 20bf 7f16 c73e
00000380: 75d6 9a3f d879 14bf 2682 813e 4737 103e
00000390: fca2 3ebe 33d1 5bbf 8de7 38bf 2ea6 cabf
000003a0: 2651 853f 0667 61bf b58e 6fbf 6b02 1fc0
000003b0: b331 04bf 54fe bbbd 17ed 1d3e e80a d03f
000003c0: e411 653f aa80 023e 886e f73e e0bb 2c3f
000003d0: 94bf 743e 0b71 d43f 081e ff3e 01c5 1abf
000003e0: 8a15 24c0 b2a3 93bf 22aa 2e3f 70c2 68bf
000003f0: df14 3dbf 5b59 d5bf 1908 41bf d432 343f
0.14743866 -0.075882815 0.44258693 -0.49082625 0.12552084 0.989675 0.78127706 -0.113412745
1.1503028 -0.42492455 0.2947273 -0.6544679 -0.4419414 0.16667865 -0.0935933 0.6218513
-1.858285 -0.2527053 -0.81414956 -0.27165127 1.7569183 -0.48027596 0.24796565 0.021930918
0.3597603 0.7005148 -0.92684114 -0.0909436 -0.77763057 -0.11864715 0.24050891 -0.83898264
-1.1960489 -0.64790785 0.4689161 -0.72871435 0.6783652 0.18257885 -0.6784179 0.2064346
-0.87784153 -0.6997424 0.1457237 0.8090244 0.50346583 1.0501492 -0.35590455 -0.29842633
-0.23997164 -1.195574 0.7054999 -1.1872848 0.32819667 0.96708184 -0.12871942 -0.7799779
1.2285724 -0.7604762 -1.0124717 0.61904705 0.8720945 -0.40931827 0.57537097 0.649052
0.24959253 -0.31417766 0.075298764 -0.7998501 -1.9611063 0.45739374 0.089364156 0.31772572
-1.4655894 1.1414607 -0.6530954 0.08099297 0.2555633 0.75866437 -0.47362387 0.2492187
0.1513752 -0.2536646 0.073529996 -0.94562596 0.32120144 0.04834382 -0.57120186 -0.3043485
-1.0424608 -1.4256566 -0.787412 0.3752884 0.32503211 -0.6940046 -0.072580725 -0.29656157
0.14452222 -0.028487649 0.70621514 -0.9225047 -1.2507392 0.27160642 0.552194 0.37640184
-1.5132003 -0.17385268 -0.78254527 0.92868257 0.21047184 0.8839284 -0.52454495 1.728237
0.44454464 0.4655282 -0.74926394 0.6327717 -1.0105884 -0.19284216 -0.78257614 -0.004542477
0.036016427 -0.5842857 1.8065531 0.35939083 -0.5070844 0.5852032 0.497073 -0.030809555
1.0038469 -0.09561139 0.69410425 0.25890312 0.25147113 -1.9777038 0.36371538 0.5363627
-1.9747891 -1.041122 -0.2575288 1.2218162 -1.4064063 1.0792979 -1.2772306 0.47808382
0.38442662 0.51562786 0.72811085 1.0140536 -2.620809 1.6976492 -0.56563884 0.6937877
0.20634177 -0.9482542 -1.1508822 -1.0021355 -0.13214824 1.0185561 -1.4286499 0.3434709
0.57369334 -0.71558654 0.60934615 2.5014307 0.6641054 -1.4982603 -2.37712 -0.8241035
0.8209241 -0.63585657 -0.9871046 0.96087605 -1.4078814 0.6913263 -0.14189002 -0.30280358
-0.7509849 -0.08034878 -0.3830297 -0.032775156 -1.0859228 0.16419491 0.42278472 -0.30324182
0.68667465 -0.6897198 -1.2217101 -1.0755411 1.6529086 0.5107679 -0.7493825 0.35459694
-0.3494504 0.63678455 -1.1285348 0.06380676 -1.3276833 -1.5671055 -0.6312526 -0.8449005
-2.2744632 0.08499949 -0.94799846 0.2368775 -0.8186301 1.7783725 -1.4056292 0.82904655
0.5599841 0.82934713 0.09480764 0.80789757 -0.1336086 -0.7483397 -0.2475124 0.1812016
-1.2869792 0.5580596 0.21097647 1.1087893 -0.1747052 0.14674719 -0.625606 0.3888435
1.2096697 -0.5799842 0.25294608 0.14083587 -0.18616861 -0.8586609 -0.7222832 -1.5831964
1.041539 -0.88047826 -0.9357713 -2.4845226 -0.51638335 -0.091793686 0.15422474 1.6253328
0.89480424 0.12744394 0.48326516 0.67474174 0.23901206 1.6596998 0.498276 -0.60456854
-2.5638146 -1.1534331 0.6822835 -0.9092169 -0.7385997 -1.6667894 -0.7540298 0.7039006
