IRT_finial/irt_model.pth (torch, 233056 bytes, 4 tensors)

theta.weight f4 [4500, 1]
00000000: b967 b6bf c18d f53f a56f cc3e 9f60 c43f
00000010: a855 c5bd 3a0a 0a3f 4e6e bebe 5151 d6be
00000020: 1aa7 0ac0 66a0 38c0 78cb f7bf 5223 913f
00000030: da8e c03f fecf ca3f 0f2b 5c3f b6ee 55be
00000040: 2c38 debf c48e 21c0 1168 60bf 598d 01c0
00000050: 8748 5ac0 0806 be3f dbeb dc3f f87f 8c3f
00000060: 86e8 cbbc 61f8 04c0 47ec 58c0 3d20 02c0
00000070: 8867 a63f c51e df3f ce80 d33f 5bc5 4f3f
00000080: 30b3 f93e 3328 7bbe 3704 73c0 51f3 1ec0
00000090: fbee 14c0 2458 34c0 f3ad ac3f 797b 613e
000000a0: f018 f9be 4bba 963f ae2c 723f 3875 b5be
000000b0: d5eb 19c0 f838 05c0 1422 00c0 7f9c 29c0
000000c0: 56c5 b8bd 7043 883f 5b0e cf3f 7dfe dc3f
000000d0: 065e df3e 3243 1c40 eceb 94bf 934f 0a3e
000000e0: 6c6a 14c0 73c8 e9bf c871 b1bd 90af b03f
000000f0: 0789 4bbf 5cdf 4abf fed7 e23e ac66 29c0
00000100: ee78 c5bf 9505 8cbf c85b 4fc0 2545 84c0
00000110: 00f2 033f da62 3f3e aa93 f13f bd79 0d40
00000120: 0888 f8bf dc3f 1ec0 ec5d 00c0 5578 9b3f
00000130: 1273 ad3f 45fc 9a3e cbf0 a53f 118b 013f
00000140: 1076 3b3f f586 04bf 46db 80bf b8a2 22c0
00000150: 5e50 2dc0 aecb a23f 5601 b43f 45fa 1440
00000160: 02c4 2d40 83ab 983f 7b78 5bbe 9d51 153f
00000170: 6803 efbf 631c fabf 6794 e2bf c98a 643f
00000180: a437 643f 57c9 033e 3811 2840 8821 49be
00000190: d210 04c0 517d 2cc0 29f1 1dc0 a203 18c0
000001a0: 484e 32c0 a6df a43f 8737 f23f 3b1a 753f
000001b0: 6647 c83f e07a 50be 1923 89bf ad3e efbf
000001c0: 65c2 e9bf 908a 21c0 d55e 6ac0 6c05 103f
000001d0: 04d3 333f 3b3d 91bf f589 c0be 0c00 a7bf
000001e0: 6307 5cc0 e027 ecbf 7396 8abf 3aef 20c0
000001f0: af24 8bc0 33dc 5b40 8b1b 7f3f b977 b13f
00000200: 5b95 4b40 8acb 4ebf 8dec 12bf 09e0 17c0
00000210: 9219 1dc0 6306 c7bd 4635 aec0 c840 1c40
00000220: 6a38 f93f 710b 7b3e 3597 bf3e c65d 173d
00000230: 74aa 35c0 3910 83c0 598b 23c0 dfb2 d63f
00000240: d870 a63f c38a a13f 2805 873f cf1b 243f
00000250: 7869 4ebf 9c4d 14c0 eed3 b1bf fa00 5bc0
00000260: 9b05 3bc0 dba9 e23f 8c15 bf3f 6b4e 7f3f
00000270: 1377 603f 63b7 0dbf 6b29 c6bf 7aca f2bf
00000280: 911c 67c0 424f 7fc0 013b 8fc0 2d09 2a3f
00000290: 51a5 a63f ac60 d63d 170a 883f c334 debe
000002a0: 3168 00bf a44f b9bf d797 12c0 498c d3bf
000002b0: 03ff 3ac0 3bc6 0cbd 73dc e33f 5eeb d73f
000002c0: 8acf 1b3f b4e0 fd3f a5ad 023f 9a36 e3be
000002d0: fa71 33c0 0572 b2bf bfef 44c0 58e2 d83f
000002e0: 15b9 1840 05fc 3a3e 1b5f ed3e c958 77bf
000002f0: 196d 0bc0 c2fe 42c0 c0d5 3bc0 fed7 7a3f
00000300: 1b31 483f 67db 953d 9d55 39be 41ca c8bf
00000310: 40a1 e0bf 4910 87c0 5f93 6ac0 2f0b a13f
00000320: 78dd c83f ebf7 1040 9ba4 953e 4a20 3dbe
00000330: 8053 efbf 0e9b adbf 3b0d 55c0 79cf e6bf
00000340: bba3 1c3e b3cd c03f 298e 983f 8531 b83f
00000350: d404 69bf 9b0e 98bf ee76 41c0 a864 0fc0
00000360: 997a bfbf f43f 2dc0 4101 513f f353 a13f
00000370: c495 8c3f fd72 20bf 90f4 71bf 806d a7be
00000380: 2a5d ebbf 53b4 5ac0 edab 57c0 238e 4dc0
00000390: 49d3 be3f 7969 a1bc 9d30 953e 0765 1c3f
000003a0: 50a4 0dc0 11a7 07c0 bd48 88c0 b168 923f
000003b0: 9076 aa3f 474b bcbe efd9 c0bf 0a3e e2bf
000003c0: f2e5 54c0 ce71 86c0 428c ae3f c97a af3f
000003d0: f109 0d3f 0294 f33e 3526 4cbf 847c cbbf
000003e0: 697e 46c0 965e 01c0 c242 89c0 6aae d03f
000003f0: 7dab 7b3f d503 db3f aee6 9fbe 2a5d 6bbe
-1.4250404 1.9183885 0.39928928 1.5341986 -0.09635478 0.53921854 -0.3719353 -0.41858914
-2.166449 -2.88479 -1.9358969 1.1338904 1.5043595 1.5844724 0.860032 -0.20891842
-1.7360892 -2.5243387 -0.8765879 -2.0242522 -3.4106767 1.484559 1.7259477 1.0976553
-0.02489115 -2.0776598 -3.3894212 -2.0332177 1.3000345 1.7431265 1.6523683 0.81160516
0.48769522 -0.24527054 -3.7971323 -2.4836009 -2.3270862 -2.8178797 1.3490585 0.22019757
-0.48651838 1.1775602 0.94599426 -0.35440993 -2.405019 -2.081602 -2.00208 -2.6501768
-0.09022014 1.064558 1.6176256 1.7265164 0.43626422 2.4416013 -1.1634498 0.13506918
-2.3189955 -1.8264297 -0.0866428 1.3803577 -0.7950596 -0.7924707 0.44305414 -2.6468916
-1.542753 -1.0939204 -3.239977 -4.1334405 0.5154114 0.18690053 1.8873188 2.2105553
-1.9416513 -2.4726477 -2.0057325 1.2146097 1.3550742 0.3027059 1.2964109 0.50602823
0.73227024 -0.5176843 -1.0066917 -2.5411816 -2.7080302 1.2718408 1.4062908 2.3277752
2.7150884 1.1927341 -0.21432678 0.58327657 -1.8672915 -1.9539913 -1.7701539 0.8927427
0.891474 0.12869774 2.626051 -0.19641697 -2.0635266 -2.6951487 -2.4678442 -2.3752217
-2.786028 1.2880752 1.8923196 0.9574315 1.5646789 -0.20359373 -1.0713836 -1.8691002
-1.826245 -2.5240822 -3.662038 0.56258273 0.7024386 -1.1346811 -0.37605253 -1.3046889
-3.4379508 -1.8449669 -1.0827163 -2.5146012 -4.348228 3.435315 0.996514 1.3864661
3.180991 -0.80779326 -0.573922 -2.373049 -2.4546857 -0.09718015 -5.444003 2.441454
1.9470341 0.24516083 0.3742005 0.036954664 -2.8385286 -4.0957303 -2.55538 1.6773337
1.3003187 1.2620472 1.0548449 0.6410493 -0.8062968 -2.317237 -1.3892801 -3.4219346
-2.9222171 1.7708086 1.492845 0.9972903 0.8768169 -0.5535795 -1.548139 -1.8968041
-3.6111186 -3.9892125 -4.4759526 0.6642025 1.30192 0.104676574 1.0628079 -0.4339963
-0.50158983 -1.4477429 -2.2905176 -1.6527187 -2.9218147 -0.034368735 1.7801651 1.6868703
0.60863554 1.9834199 0.5104621 -0.44377595 -2.8038316 -1.3941046 -3.077133 1.6944075
2.3862965 0.182602 0.46361622 -0.9661985 -2.1785338 -3.0467992 -2.9349213 0.9798583
0.7819993 0.07317238 -0.18099065 -1.5686723 -1.754921 -4.220738 -3.6652448 1.2581538
1.5692587 2.2651317 0.29227147 -0.18469349 -1.8697357 -1.3562944 -3.3289325 -1.8032066
0.15296833 1.5062774 1.1918384 1.4390112 -0.9102299 -1.1879457 -3.022884 -2.2405186
-1.4959289 -2.7070284 0.8164254 1.2603744 1.0983205 -0.6267546 -0.945138 -0.3270073
-1.8387806 -3.417256 -3.3698685 -3.2118003 1.4908229 -0.019703614 0.29138651 0.61091655
-2.2131538 -2.119572 -4.258879 1.1438199 1.3317432 -0.36776182 -1.5066508 -1.7675183
-3.3265347 -4.201392 1.3636553 1.3709346 0.55093294 0.47573858 -0.797458 -1.5897374
-3.1014655 -2.021398 -4.289399 1.6303227 0.98308545 1.7110544 -0.31230682 -0.22984758

a.weight f4 [17747, 1]
00000000: 32b4 77bf 831f 423f 6f73 fa3f f97a cabf
00000010: c1a0 d23f e5d0 3d3f af81 4540 c8d9 f0be
00000020: ae84 afbd 6a92 193e ae6b 1640 4a8a 54bf
00000030: 72a0 23c0 6ec8 a83f f5ce c3bf d649 853f
00000040: 1b2b 57bf 2821 66bf 3208 583f 66ed dfbf
00000050: 06fb 5140 5d16 febf 0a34 00bf 1eaf 0bc0
00000060: db20 65bf 1bc1 ba3f 5062 2c40 cdd4 d23e
00000070: cb34 783f 2c5c abbf 151e 03bf 8510 91bf
00000080: dcba febf a020 4ebf aa20 99bf 2457 bdbe
00000090: 7075 0440 af52 183f 8751 2bbf 013b 0ac0
000000a0: c812 e73e dbbc 81be e9aa fdbe d4fe 3440
000000b0: a773 24bf 05d5 a0bf 34fc d6be 0c46 ecbf
000000c0: dab6 3fbf acf8 c1be da7c 283e 7707 1bbf
000000d0: bc2a 0340 d850 e53e 7577 84bf a62d d53f
000000e0: 0d93 08bf 599f 7dbf 464d 2cbf 4460 45c0
000000f0: 796d 9f3f b8f5 813d a70f ddbf 3396 30c0
00000100: 2b9c d13f dea4 863f 1653 4e3f bfc2 76bf
00000110: be64 3dbe d3b4 24c0 1ab6 03c0 6b12 8d3f
00000120: f0d0 bfbe ea5a 23be 4a13 fa3d 87c2 83bf
00000130: 6c2d e6be 8aed 97bf 36f3 27bf cf9f 0540
00000140: ba74 e9be e1a4 2c3f b098 80be 2678 3dc0
00000150: cbcf a4bf dd34 f7bf adde c0bf b8dd 563e
00000160: c04e a4bf eb20 dfbf 7d3e c1bf fb6c 3fc0
00000170: 3a89 af3e 29bf d43e b960 353f 704c 623e
00000180: 9d6c cb3e 70da 9d3b 3a95 b5bf a5fb 913e
00000190: 2926 4bc0 867a 09bf 6d6d 3a40 98e9 5f3f
000001a0: f3b0 21bf a402 07c0 cf22 f5be 4bb9 d4bf
000001b0: 11ab 033f 23a3 b93f b28d 87bf ec5a 36bf
000001c0: e3a9 96bf 8a63 bebe 5ff1 0f40 d66b 61be
000001d0: dfee c43e 050e 783f 0951 8fbf 972b 703f
000001e0: 4bd6 d3bf d77c 6abf f721 0a3f b0ab 8cc0
000001f0: af15 1640 dffa 3cc0 d130 9b3f dcec d03f
00000200: 228e a53f 3caa 373f 198f 40bf 400a 82be
00000210: 2454 bfbe f29d 8dbf 1628 29bf d4ab c9be
00000220: 5d54 19bf 2d4d b63e a70f adbe e979 1440
00000230: 3b52 5abe 5aa8 fcbe 6130 66bd f5c5 65bf
00000240: 67ea 123f 857b de3f c703 92bc 1792 c7be
00000250: ab42 8b3f 65a7 b5bf 4da6 653e 1be8 1dc0
00000260: 298f 513f 41b6 ca3f a0f9 b5bf ec1d 98bf
00000270: cc23 883f 554c 263f ef78 bcbd e248 a3be
00000280: 9c7b f6be c273 a63f 8819 263f ae71 1740
00000290: d53a a6be bbe4 4f40 8f17 1bbe 8f6b 2bbf
000002a0: 6b9d 3fbf 9f72 49bf 62a6 433e d691 c93f
000002b0: 67d9 0740 9e83 51c0 c9c6 37bf eb44 0dbf
000002c0: 5e5c dabf 863d 85bf 4519 01bf 7085 49bf
000002d0: 153f a7bf 1295 1d3f 4101 ad3f 6d6d 03bd
000002e0: 7291 613f 320e 773f d2b8 863f b2a5 6d40
000002f0: b195 583e 8a8b 0340 9bf7 f83e 56ed 023f
00000300: d706 23bf a5a7 f33e 0839 0140 cfc7 1d3f
00000310: d95f 8f3e b914 9a3e 1655 95bf b44a 29bf
00000320: 8563 7a3f 08cc 91bf 0c6b 12be 8099 6fbd
00000330: dfc1 313e 8cea 98bf 89f7 af3f b676 923f
00000340: ebbf 843e fd07 0440 c7d5 26be 6e2e 99bf
00000350: b499 1ebe 4e6b 3840 528a ddbe 502d 9ebf
00000360: 6832 193f e31c 20bf 1b49 6c3f 1f58 f73e
00000370: ffcc 02bf dda6 e23f 33c5 0b40 fcf7 a13f
00000380: 381a 2bbf 994b a7bf 548f b93f bc7b 523f
00000390: 88c4 2fbf ab5b 16c0 13bd 82bf c18d 0bbf
000003a0: 26bf a73e c16b 5fbe 35d0 5240 785e d13e
000003b0: ba8c 0bbd 07e4 11bf a7d0 05b8 8eed 0e3f
000003c0: 87d0 a23f 8118 91be dd0f c3bf 3684 9c3e
000003d0: b94c 0d3e 97d7 a6bf 22d7 0fbd 902e fdbe
000003e0: c2d8 9d3e d747 86be 92d1 c23f 91eb 2b3f
000003f0: fd83 61bf dd82 d03e 25d3 323e 080a cd3f
-0.9675933 0.75829333 1.9566478 -1.5818778 1.6455308 0.7414687 3.0860403 -0.47041154
-0.085702285 0.14997259 2.3503222 -0.8302351 -2.5566678 1.3186166 -1.5297533 1.0413158
-0.8405015 -0.8989434 0.84387505 -1.7494323 3.2809463 -1.9850575 -0.50079405 -2.1825633
-0.8950326 1.4590181 2.6935005 0.4117798 0.96955556 -1.3387504 -0.51217777 -1.1333166
-1.9900775 -0.8051853 -1.1963093 -0.36980546 2.0696678 0.59501165 -0.66921276 -2.1598513
0.45131516 -0.25339398 -0.49544457 2.8280535 -0.6423897 -1.2565008 -0.4198929 -1.8458877
-0.74888384 -0.37885034 0.16453877 -0.60558265 2.0494833 0.4478824 -1.0348955 1.6654556
-0.5334938 -0.9907127 -0.6730541 -3.0840006 1.2455283 0.06345695 -1.7270402 -2.7591674
1.6375784 1.0519063 0.8059553 -0.9639091 -0.18495461 -2.5735366 -2.0579896 1.1021246
-0.37464094 -0.1595265 0.1221071 -1.029374 -0.4495653 -1.1869366 -0.65605485 2.087879
-0.45596868 0.67439085 -0.2511649 -2.9604583 -1.2875913 -1.9313008 -1.5067955 0.20983016
-1.2836533 -1.7431921 -1.5097195 -2.9910266 0.34284383 0.41552094 0.7085071 0.22099471
0.39731303 0.0048172995 -1.4186165 0.28512302 -3.174204 -0.5370258 2.9129288 0.8746581
-0.6316063 -2.1095362 -0.4787812 -1.6619047 0.514329 1.450291 -1.0590117 -0.71232486
-1.1770595 -0.37185317 2.2491071 -0.22013792 0.38463494 0.9689639 -1.1196605 0.9381651
-1.6549772 -0.9159674 0.53958076 -4.395958 2.3450735 -2.952812 1.2124273 1.6322284
1.2934 0.7174413 -0.7521835 -0.25398445 -0.37368882 -1.1063826 -0.6607679 -0.39388907
-0.59894353 0.35605755 -0.33801004 2.3199408 -0.21320431 -0.49347192 -0.05619848 -0.89755183
0.5738892 1.7381445 -0.017824067 -0.38978645 1.087972 -1.419171 0.2242672 -2.4672916
0.8185907 1.583687 -1.4216805 -1.1884131 1.0635924 0.64960223 -0.09202754 -0.31891543
-0.4814118 1.3004076 0.6488271 2.3663135 -0.3246676 3.2483356 -0.15145706 -0.66960996
-0.74849576 -0.7869052 0.19106439 1.5747631 2.1226442 -3.2736583 -0.717877 -0.55183285
-1.7059438 -1.04094 -0.50429183 -0.78719234 -1.3066126 0.6155559 1.3516008 -0.03208678
0.88112557 0.96506035 1.0525153 3.7132382 0.21150853 2.0553918 0.48626408 0.51143396
-0.6368231 0.4758884 2.019106 0.6163301 0.28002813 0.30093935 -1.1666591 -0.6612961
0.97808105 -1.139039 -0.14298648 -0.058496 0.17359112 -1.1946578 1.3747417 1.1442478
0.25927672 2.0629876 -0.16292487 -1.1967294 -0.1548832 2.8815494 -0.43269593 -1.2357578
0.5984254 -0.6254408 0.9229905 0.4830942 -0.5109405 1.7707173 2.183911 1.2653804
-0.6683688 -1.3069946 1.4496865 0.82220054 -0.6865926 -2.349345 -1.0213951 -0.54513174
0.32763022 -0.21818449 3.293958 0.40892386 -0.034069754 -0.5698857 -3.1903994e-05 0.5583123
1.2719887 -0.28339007 -1.5239216 0.3056962 0.13798799 -1.3034543 -0.035117276 -0.49449587
0.30829436 -0.26226684 1.5220206 0.6715632 -0.88092023 0.4072484 0.17463358 1.6018686

b.weight f4 [17747, 1]
00000000: 72a6 83bd dbf8 613f 72f0 f03e e277 99be
00000010: c1f6 9c3f 13fd ab3f e2cd 0440 3ab3 ea3d
00000020: c0e2 87bf 1db6 993e 6a10 a33e a5ea 73bf
00000030: 9ebd 1840 540b f33f e10e 00be 1639 773f
00000040: eaed 13bf 9d0c 493c 6eda 0d3f 3b37 313f
00000050: bd53 4ebe f76b 013f 23a8 44bf 9655 2140
00000060: 6d4e 183f 0d29 d03e f03b 8f3e 3d0d 0f3f
00000070: 55bd a53f 1916 733f fb75 07bf 70e7 3c3f
00000080: 26f3 8e3e 8522 5c3e c4c6 c0bf d7e7 3dbf
00000090: 337c 863f f917 1d40 3e53 1d3e b71a b53f
000000a0: 5bf1 803e 7479 063f 2d24 fe3e 640d ba3e
000000b0: dae2 3d40 a6e2 3fbf 2f7c 36bf cc59 a23e
000000c0: 18db 07bf 2ad0 62be a4f5 5e3e abb3 563e
000000d0: fbff bcbd 7e66 523e d363 893f 122f fb3d
000000e0: 3551 54bd 81c0 65bf 4dd4 893f 3617 71bf
000000f0: b613 263e 626d 193f ef6e 85bf d884 0f40
00000100: 8b38 1b3f 4b11 5e3f ad64 6b3f 9dde 8f3e
00000110: 11ad 843f 7e02 433f 8e35 353f 7e9b 113f
00000120: a5a8 9ebe 5a3d 0a3e 5d0e e0bd 1f42 c03e
00000130: 1cf5 173f b8d4 15c0 748b 2340 fbbe 003f
00000140: 027a 4abf ed06 bb3f 85f5 f8be 8273 9f3f
00000150: 2edd 37bf bb9b f6be 7576 c7bf 4fd2 b5be
00000160: c943 2bbe 79fe f53f b41d b43d f40f d2bd
00000170: 9f7f c93f ffef 953f b011 243f 110d 463f
00000180: ee71 7d3f 9789 2e3e c744 7b3e 4df8 023f
00000190: 616a e63f cb66 2f3f fe94 9c3f bc59 143c
000001a0: aa44 513f d85f 4e3e ae11 f73e 1cfc 9dbf
000001b0: 7903 063f 33c4 fa3e 24b0 c03f 025f 1fbe
000001c0: 0388 b1be 0048 2840 13e1 3540 8eed 263f
000001d0: 2032 1c3f 84d3 303e f88a 933f c2f7 923f
000001e0: c465 4b3f ad11 6c3f 9ba1 97bd aafd 983e
000001f0: faa7 ca3f eaa6 bb3e 7028 aa3c e4e2 df3e
00000200: 3b2a 2740 526b fa3e 3f0d 82bf 90e8 3440
00000210: 5679 0bbf b366 923f afec 253f 7c38 c83f
00000220: 99d6 fa3f ad1b 2440 0e3f 3b3f d817 df3f
00000230: 6ddb 1540 e092 88bf 5106 c53e 6547 a33f
00000240: 14a7 543f dd86 403f 837a da3f 88f0 d53f
00000250: a05e 1840 8068 6b3f 1f6e 1c3f 4046 923f
00000260: 34f0 1f40 859b 6b3f f360 98be 40ab 693e
00000270: 5698 5e3f f82d 0840 662a 453f 7160 2e40
00000280: 751e be3f 3c62 083f de3c b83e 586b f6bf
00000290: e193 e53e 7716 b23e fe45 a13f f06f 973f
000002a0: 55eb 2f3f cb26 cd3f 8e94 c23f 5c08 883f
000002b0: c279 b83e 79cc e33e 5c1c 683f 456f 033f
000002c0: d98a b83f d2be a23f baad 593f d6a1 003e
000002d0: 35f1 263e 9b3e d2be 7cf3 3e3f b254 383f
000002e0: c574 8c3f c246 6040 ee78 df3f 9cf6 c6be
000002f0: 9834 86bf 48f7 4840 0197 f33f d431 803f
00000300: d43c 573f 53da 0740 45ab 5d3f 53d7 183f
00000310: a38a 173f 414d 733f 77df 1740 16cd ac3e
00000320: f52e 9b3f 54c1 ab3e 7d8e 4e3f 62c8 ea3f
00000330: 6b08 a73f 3719 b93e e2b1 7d3f 05ae 013f
00000340: ae1b e23f 0e8d b53f 355f ab3f b0f9 703f
00000350: 116a 233e f825 113e ae81 293f 48c3 68be
00000360: 5208 1140 43bc 2a3f 5db6 1f3f 9eaa 263f
00000370: a1af 903f 29d9 0e40 4fd9 833f 9397 8d3f
00000380: cda8 2c3f 8aa6 8fbe cce2 0d40 c62d 7b3e
00000390: c99e 4c3f d5f5 54bf 59d7 413c 2314 883f
000003a0: 3187 5940 d886 aa3f 6ce7 a93f 82b5 d13f
000003b0: 9944 633f 234b 9f3f c7e6 a03f 7b23 b43f
000003c0: 871e 063f a311 a93f a263 b33d eb17 e13e
000003d0: d39d 8b3e caaa 0abf 9773 bebd 0cc5 743e
000003e0: d6a4 0c40 d24f f63f 93b5 0c3f 9948 ae3f
000003f0: 2506 b03f 0f41 9a3f 94ea 993f 828c b03f
-0.06428231 0.8827035 0.47058445 -0.29974276 1.2262803 1.3436607 2.075066 0.11459966
-1.0616074 0.30021754 0.3184846 -0.95279914 2.3865733 1.8987832 -0.12505676 0.9657148
-0.57784903 0.012271074 0.5541142 0.692249 -0.20149131 0.50555366 -0.76819056 2.5208488
0.5949467 0.4065632 0.27975416 0.55879575 1.2948405 0.94955593 -0.529144 0.73790646
0.27919883 0.21497543 -1.5060658 -0.74181885 1.0506653 2.4545882 0.15363786 1.4148778
0.2518414 0.5252907 0.49636975 0.3633834 2.966971 -0.74955213 -0.7128324 0.31709135
-0.53068686 -0.22149721 0.21773392 0.20966975 -0.09228512 0.2054691 1.0733589 0.12264837
-0.051835258 -0.8974686 1.0767914 -0.9417604 0.16218457 0.5993253 -1.0424479 2.2424831
0.6063315 0.86745137 0.91950494 0.28099528 1.0365316 0.7617568 0.7078484 0.5687789
-0.3098804 0.13499966 -0.109402396 0.37550446 0.5935838 -2.3411083 2.5553865 0.50291413
-0.7909242 1.4611489 -0.48624817 1.2457125 -0.7182187 -0.48165688 -1.5583025 -0.35512015
-0.16725077 1.9218284 0.08794728 -0.10256949 1.5742072 1.1713866 0.6408949 0.7736369
0.9900197 0.17044674 0.24537955 0.51160127 1.8001214 0.68516225 1.2232969 0.0090545975
0.817454 0.20153749 0.48255676 -1.2342563 0.5234905 0.48977813 1.5053754 -0.15563586
-0.3467408 2.6293945 2.8418624 0.6520623 0.61013985 0.17268187 1.1526785 1.148186
0.7945216 0.9221447 -0.07403871 0.2988103 1.5832512 0.36650783 0.020771235 0.4372779
2.6119525 0.48910004 -1.0160292 2.8266945 -0.5448202 1.1437591 0.64814276 1.5642238
1.959674 2.5641892 0.7314309 1.7429152 2.3415177 -1.0669823 0.38481382 1.2756163
0.8306744 0.75205785 1.7068638 1.6714029 2.3807755 0.9195633 0.6110553 1.1427689
2.4990358 0.9203418 -0.29761466 0.22819233 0.86951196 2.1278057 0.7701782 2.7246363
1.4853045 0.53274894 0.35983938 -1.9251509 0.44839385 0.34782764 1.2599485 1.1831036
0.68718463 1.6027464 1.5201585 1.0627551 0.36030394 0.44491938 0.9066827 0.5134166
1.4417373 1.2714484 0.8503071 0.12561736 0.1630295 -0.4106339 0.7459028 0.72004235
1.0973135 3.5043187 1.745878 -0.38860023 -1.04848 3.1400928 1.9030458 1.0015206
0.8407719 2.1227005 0.8658946 0.5970356 0.5919592 0.95039755 2.3730142 0.33750218
1.2123705 0.33545935 0.8068617 1.8342402 1.3049444 0.3615205 0.9909955 0.5065616
1.7664697 1.4183671 1.338843 0.9413099 0.1595843 0.1417464 0.662135 -0.22730744
2.2661328 0.66693515 0.6238764 0.6510409 1.1303598 2.2320044 1.0300692 1.1061882
0.6744507 -0.28056747 2.2169676 0.2452918 0.79929787 -0.8318761 0.011831128 1.0631145
3.3988764 1.3322401 1.3273749 1.6383517 0.88776547 1.2444805 1.2570428 1.4073328
0.5239033 1.3208507 0.08759238 0.4396356 0.27268848 -0.54166853 -0.09299391 0.23903292
2.1975608 1.9243109 0.5496456 1.3615905 1.3751875 1.2051104 1.2024713 1.379288

c.weight f4 [17747, 1]
00000000: f950 00bf 019f 9abc 0081 7e3f 55f7 94bf
00000010: 1566 c8bd a5a3 66bf 1615 8d3f 49ab 1cc0
00000020: e1fe cabf 5edf 2ec0 ca43 b03f ea01 c1be
00000030: e56f bcbf 81d8 83bf ff53 6f3b 3895 0640
00000040: 77e8 b73e 50ed 033d 5913 83bc fa18 1ebf
00000050: 8c7b b6bf 7e33 78bf 58a0 bbbf 304b e8bf
00000060: 665a e4be 4cef a3bf b407 0abf 8e2b 1fbf
00000070: 18d1 e83e 8c40 5c3f f2a5 bfbf 82cc ffbe
00000080: 07eb bdbf d3a4 09bf 7939 fe3e 03b1 25bf
00000090: 4283 373f c8a3 af3f e81d 9a3f 41c2 c2be
000000a0: 7006 01c0 0e1f a4bf 6d33 923d fdd9 5ebf
000000b0: 0b9b d23d b9b7 bebd 52ed 58be d900 27bf
000000c0: 11c7 b83e 2587 e2be 2bee 713e 4626 f1be
000000d0: d740 553e 3f0a 2f3f ef5f e0be 7bca b2bf
000000e0: a702 63bf e95d c5bf b4f7 923e 9dbf 433e
000000f0: 535a 73bf 16ad 473f eddb 9f3f ef74 693f
00000100: 58c2 96be 8816 423f 5011 13c0 26b0 bc3d
00000110: 23f2 5ebf e5e8 80bd 5143 8f3e 025e 2e3d
00000120: 38dd c2be 4fba c8bd 3061 b4bf 6c1b b5bf
00000130: 5617 6cbb 61e0 063b 8545 9bbe 68fc e8be
00000140: 1db0 20c0 fb7f bbbf ab54 4ebf b9e9 8dbf
00000150: cb4d d9be 6051 59bf 1c0a a6bf 0672 8abf
00000160: c2d7 1f3e ca56 3dbf 9f0d bcbf 26de 0ebf
00000170: 9645 fabd adaf 76be ab6f 373e 1783 a3bf
00000180: ebf2 9f3e 2f0f b0bf b04a 7a3f ca56 06c0
00000190: 3437 a63e 3721 393f 223b 1d3f 4fdc 27c0
000001a0: 5d91 11c0 830d 013f f8bb 873f 46c2 19bf
000001b0: af26 833f f9e0 45bf 4716 6d3e f282 c93f
000001c0: 3dc6 8cbf 2a9c 1c3f 9085 04c0 15b2 2abf
000001d0: 54d3 f3be 0a17 3fbd ea99 f4bf c9a5 35bf
000001e0: d2a1 ba3e ee2f c6be 5401 02bf 3ab2 1e3e
000001f0: 6b8c 743e d4e6 7fbf 2c25 0bc0 7132 9c3e
00000200: d639 523f a9fb b3bf f239 41bd 4f53 a6be
00000210: 5476 86be ab08 2ec0 3367 29c0 2a68 9abf
00000220: 5e4e 25c0 27a4 90bf 4e52 24c0 ddb0 56bf
00000230: 743b 34bf 7d39 29be d3a9 0ec0 531d 23bf
00000240: f75d 03c0 a255 b9bf 32f2 1abf 08af 11bf
00000250: 1ec9 9fbf e610 ddbf 060b 85c0 e152 87bf
00000260: 81de 75bf 8ab9 74bf 7877 90bf 69f3 3fbf
00000270: a902 11c0 8556 63bf d4a1 55bf b5d2 4abe
00000280: fcc9 ffbc bb24 3dbf 3f4c 96bf e9ba 823f
00000290: e7a0 36bf 4315 ddbd 2659 cdbd 426c 32c0
000002a0: a14d 2dc0 297a 2fc0 9dbd 05c0 51ac 2fbf
000002b0: a6fa d4bf f6f7 a2bd 21db 49c0 963e 4abf
000002c0: 7d1e c4bf ee5f 7bbf 37f7 3ebf 8d14 edbe
000002d0: 50e9 af3e 3086 40be 4daf 5bbf e18e c6bf
000002e0: f00f 0fbf 9b4b 1cbf 60a1 95bf f0ce 6cbf
000002f0: e6bc f5be 7480 7cbf 6acc 933d 5be7 2fbe
00000300: 0e9a 08bf 34dc 0dbf 7450 d1bf 41e1 34c0
00000310: f8a0 3cc0 1366 0fc0 bdb6 31c0 99cb d6bf
00000320: fed4 e5bf 812f aabe 27fb 13c0 2692 07bd
00000330: b76f 18bf 082e acbf 8313 3cbf dfb4 2ebf
00000340: 23b2 653f 7073 493d 6b03 0fc0 2bb0 bcbf
00000350: bf3a 02c0 f271 04c0 b7b9 2dbe aa02 393e
00000360: a37a 56bf 59fa 2abf f2c4 a8bf 672e 77bf
00000370: c980 2bc0 19be 9f3e 1248 9abf 1fae c9bf
00000380: d96e cd3e 0eb2 5fbf 8b60 e13d 0043 0fc0
00000390: a3bc dcbf aa97 de3f 8f66 0dc0 f657 50c0
000003a0: df63 65bf 9a74 d1bf 070b 03c0 c234 85c0
000003b0: 4eb4 ebbe 138c dcbf 2ab2 0dc0 76d5 03c0
000003c0: ffa6 3d3f f0d1 c9bf 2d49 70be b6ed 123e
000003d0: 575d 25c0 a4a5 4ebf 4e1d 81bf 28d7 bcbf
000003e0: 9728 0abf 3b14 fdbe b1f8 6abf f552 77bf
000003f0: 1bc5 f8bf 3680 bebf 3d64 7fc0 faa5 20bf
-0.50123554 -0.018874647 0.9941559 -1.163798 -0.097850956 -0.9009345 1.102206 -2.4479544
-1.5859033 -2.7323833 1.3770688 -0.37696773 -1.4721648 -1.0300447 0.0036518571 2.1028576
0.35919544 0.03220874 -0.016000437 -0.6175686 -1.4256454 -0.9695357 -1.4658308 -1.8147945
-0.4460022 -1.2807403 -0.53918004 -0.62175834 0.45472026 0.8603599 -1.4972517 -0.49960715
-1.483735 -0.53767127 0.49653223 -0.64723223 0.7168466 1.3721857 1.2040377 -0.3803883
-2.016018 -1.2821977 0.07138715 -0.87051374 0.10283478 -0.09312386 -0.2118428 -0.6523567
0.36089376 -0.44243732 0.2362601 -0.47099513 0.20825516 0.6837501 -0.43823192 -1.3968042
-0.8867592 -1.5419284 0.28704607 0.19116063 -0.950597 0.77998483 1.2488991 0.9119405
-0.29445148 0.7581563 -2.2979317 0.09213285 -0.8708822 -0.06294421 0.27981046 0.04257012
-0.38059402 -0.098011605 -1.4092159 -1.4148993 -0.0036024651 0.0020580518 -0.30326477 -0.4550507
-2.510749 -1.4648432 -0.80597943 -1.1086951 -0.42442164 -0.84889793 -1.2971835 -1.0816047
0.15609649 -0.73960555 -1.4691657 -0.5580772 -0.12220304 -0.24090452 0.17913692 -1.277438
0.3124002 -1.3754634 0.97770214 -2.0990472 0.32463992 0.72316307 0.61418355 -2.6228216
-2.2744973 0.5041124 1.0604239 -0.6006206 1.024618 -0.77296406 0.2315303 1.5743086
-1.0997998 0.6117579 -2.070652 -0.6667798 -0.47622168 -0.04665283 -1.9109471 -0.70956093
0.36451584 -0.38708442 -0.50783277 0.15497676 0.2388169 -0.9996159 -2.1741438 0.30507234
0.821195 -1.4061176 -0.0471744 -0.32485434 -0.26262152 -2.719279 -2.6469238 -1.2063038
-2.5829082 -1.1300095 -2.5675235 -0.8386362 -0.7040322 -0.16525836 -2.2291152 -0.6371662
-2.0526102 -1.4479258 -0.6052581 -0.569077 -1.2483251 -1.7270782 -4.1575956 -1.0572168
-0.9604264 -0.9559561 -1.1286459 -0.7498079 -2.2657874 -0.88803893 -0.83450055 -0.19806941
-0.031224243 -0.7388417 -1.1742018 1.021329 -0.7133927 -0.10795071 -0.10026769 -2.7878575
-2.707863 -2.741831 -2.089698 -0.6862231 -1.6638992 -0.07957451 -3.1539996 -0.7900175
-1.5321804 -0.9819325 -0.7459597 -0.46304742 0.3435769 -0.18801188 -0.8581436 -1.5512353
-0.55883694 -0.61052865 -1.1689873 -0.9250326 -0.4799568 -0.98633504 0.07216723 -0.17178099
-0.5336007 -0.5541413 -1.6352677 -2.8262484 -2.9473248 -2.240605 -2.7767785 -1.6780883
-1.7955625 -0.33239368 -2.3122041 -0.033098362 -0.59545463 -1.3451548 -0.7346727 -0.6824474
0.8972494 0.049182355 -2.2345836 -1.4741262 -2.0348356 -2.0694547 -0.16965376 0.18067423
-0.8378088 -0.6678825 -1.3185103 -0.9655518 -2.6797354 0.3119972 -1.2053244 -1.5756263
0.40123633 -0.87381065 0.11004742 -2.2384644 -1.7245067 1.7390034 -2.2093847 -3.2553687
-0.89605516 -1.6363709 -2.047548 -4.16269 -0.46036 -1.7230247 -2.2139993 -2.0599036
0.7408294 -1.5767193 -0.23465414 0.14348492 -2.583822 -0.807215 -1.0087068 -1.475316
-0.53968185 -0.49429497 -0.9178572 -0.9661096 -1.9435152 -1.4882877 -3.990493 -0.6275326
