IRT_finial/irt_model.pth (torch, 324768 bytes, 4 tensors)

theta.weight f4 [27424, 1]
000000 66 e9 5a 3e ca b4 ee 3f ea 3c 81 3f 71 3f 86 3e
       0.21378097 1.8648922 1.0096714 0.26220277
000010 b2 ab 89 3f 7e 49 5e 3c 99 c3 1b bf 28 0a 82 be
       1.0755522 0.013567327 -0.60845333 -0.25398374
000020 24 33 03 bf 28 0a 6d 3f 21 8f 29 bf fd 80 0e 3f
       -0.5124991 0.9259362 -0.6623402 0.5566557
000030 8c 3b 1b 3f a2 f2 a3 3f e5 c0 bb 3b a5 c0 8a 3f
       0.60637736 1.2808421 0.005729782 1.084004
000040 f6 0d 89 3c e5 76 02 3d 6b 23 0f c0 89 6e 19 bf
       0.01673029 0.031851668 -2.2365367 -0.5993429
000050 30 40 cf bf ee 2c f4 bf dc 9e 1d bf d9 43 0b be
       -1.6191463 -1.9076211 -0.61570525 -0.136001
000060 08 76 bc 3f 04 b7 04 3f 42 e9 2d bf 77 a2 de be
       1.472352 0.5184176 -0.6793405 -0.43483326
000070 e5 f8 80 be db a0 c5 be f6 08 83 bf 2c de 8c bf
       -0.2518989 -0.38599285 -1.023711 -1.1005301
000080 0f 4e 95 bf 3a 4a d7 3a 47 17 47 3d 23 6e 8e 3f
       -1.1664447 0.001642532 0.048606183 1.1127361
000090 68 40 6e 3e 67 de 2f 3f 92 3c 17 bf 49 91 b4 bf
       0.23266757 0.68698734 -0.590768 -1.4106838
0000a0 32 97 16 3e a0 c9 37 3f 13 3b c9 be cf 7d 23 3e
       0.14706114 0.7179203 -0.39302883 0.15965961
0000b0 b9 63 ee 3f 58 7b fc 3f 6c 00 15 c0 86 25 c3 3f
       1.8624183 1.9725142 -2.3281507 1.5245826
0000c0 1f 4c 95 3f 24 5b a3 3d 59 60 83 bf a4 80 f3 be
       1.1663855 0.07976368 -1.0263778 -0.47559083
0000d0 72 eb 21 c0 e1 9c 85 bf 79 f8 32 c0 b9 a6 81 3e
       -2.5299954 -1.0438501 -2.7964156 0.25322512
0000e0 9c 44 b0 3f 41 db 2a 3f c0 0b 1c be fb 11 15 3e
       1.3770938 0.66740805 -0.15238857 0.1455764
0000f0 22 e7 a4 3f 13 ce 81 bf 29 7a e2 be 98 f3 21 bf
       1.2883036 -1.0141014 -0.44233826 -0.6326232
000100 ce a9 63 bf 9f 26 36 bf 68 96 07 40 71 75 00 40
       -0.88930976 -0.7115268 2.118555 2.007168
000110 62 09 f4 3f cc 67 dd 3f 32 33 84 3f b5 1c f0 3d
       1.9065363 1.7297301 1.0328124 0.117242254
000120 64 85 96 bf 89 97 b3 bf 61 f8 57 bf 3f 6c 2d c0
       -1.1759458 -1.403062 -0.8436337 -2.7097318
000130 e4 a1 15 c0 5b 52 c4 3f 3d e9 a5 3f 97 c4 9c 3f
       -2.338006 1.5337633 1.2961804 1.2247494
000140 37 fd 1d 3f f8 1a 97 bd 95 14 b9 3d 90 76 cb bf
       0.617145 -0.07378191 0.09037129 -1.5895557
000150 76 32 9e bf 5c a8 51 c0 09 38 1d c0 c4 d4 10 bf
       -1.235915 -3.2759008 -2.456545 -0.56574655
000160 d5 f3 bb 3f 23 ad 2e 3f ac c5 45 bd bc 50 15 3f
       1.4683787 0.68232936 -0.048284218 0.58326316
000170 f6 f4 b1 3f 6c 64 b8 3d 2a 64 d2 be a6 f6 6c bf
       1.3902881 0.09003529 -0.41092044 -0.92563856
000180 cd 25 85 bf d5 d8 e6 bf 1e d7 c0 bf 87 ca 82 3f
       -1.0402161 -1.8034922 -1.5065649 1.0218056
000190 5d 2d b3 3f 34 3f 39 bf 0f 5c b2 3f d8 a2 b0 3f
       1.3998219 -0.72362065 1.3934344 1.3799696
0001a0 f9 4d 8b 3e 66 6f 99 bf e3 f8 64 3f d5 5f 43 3c
       0.27207926 -1.1987121 0.8944227 0.011924704
0001b0 8c 73 3e bf 95 26 0e 3f 94 c0 21 3f aa a4 5a 3f
       -0.7439506 0.5552762 0.63184476 0.8540751
0001c0 e6 ed 8d 3e 97 2e 6c 3f f2 eb 97 3e e0 ea 27 bf
       0.27720565 0.9225859 0.296722 -0.65592766
0001d0 b3 b7 29 c0 f9 69 4c c0 0f df 8f bf a2 fb 2d c0
       -2.651837 -3.193968 -1.1239947 -2.7184834
0001e0 76 de 15 c0 af 20 8f 3e d5 56 6c 3f 29 72 9b 3f
       -2.341703 0.27954623 0.92319995 1.2144214
0001f0 32 d4 7c 3e c5 fa 68 3f 9b fc 9a 3d 1a 07 94 3f
       0.24690321 0.91007644 0.07567712 1.1564667
000200 89 d8 44 bf a4 51 0b c0 a3 5d 81 3d e7 d7 2f 3f
       -0.76892906 -2.176858 0.06316688 0.68688816
000210 87 4e 93 bf cb e2 8e bf c3 18 02 40 93 4b 53 3f
       -1.150834 -1.1162962 2.0327613 0.8253719
000220 62 16 6a 3f 6c 7e a0 3f d4 d1 96 be a6 15 9d bf
       0.91440403 1.2538581 -0.2945696 -1.2272232
000230 70 84 77 be 42 1b f5 bf 85 e0 ec bf ed 7c 05 3f
       -0.24171615 -1.9148943 -1.8506018 0.52143747
000240 ac 4c ee 3f ed 0d 4d 3f e5 76 b6 3e e8 d5 e7 3e
       1.8617148 0.80099374 0.35637584 0.45280385
000250 d4 c1 ec be 4a 6d 9e 3f 87 a7 04 bf b9 92 f3 bf
       -0.4624163 1.2377102 -0.51818126 -1.9029151
000260 42 39 25 c0 73 d5 6c be ab 03 21 3f 1c 8e c5 3f
       -2.5816197 -0.231283 0.6289622 1.5433993
000270 69 11 6f 3f 2b c4 08 40 c6 c6 be 3e e8 02 a3 bd
       0.9338594 2.1369731 0.37261027 -0.07959539
000280 53 79 9a bd fe 1a d8 3c 56 e8 88 bf a7 ad 07 c0
       -0.07542672 0.026380058 -1.0695903 -2.119974
000290 09 92 fc be 6d 37 6c 3d 6f 95 0c bf 6a 6f 93 3f
       -0.49330166 0.057670046 -0.5491552 1.1518376
0002a0 b2 45 4e 3f 09 45 30 3f 46 02 ed bd cb 92 a4 bf
       0.80575097 0.6885534 -0.11572699 -1.2857298
0002b0 50 32 1f bf 6a f1 a0 3e fa 98 34 3f 08 4f 93 bd
       -0.62186146 0.31434184 0.70545924 -0.071928084
0002c0 10 9a b3 3f e9 c5 11 be 42 a0 b2 be ed 66 18 be
       1.4031391 -0.14235653 -0.34887892 -0.14883013
0002d0 6c 59 2b 3f d1 ae 39 be cc c6 ee be f4 f7 e3 be
       0.6693332 -0.18133093 -0.46636045 -0.4452511
0002e0 83 89 49 bf 72 db 64 3f bd 44 e3 be fa 92 01 3f
       -0.7872545 0.89397347 -0.4438838 0.50614893
0002f0 42 51 8f 3f 2c 49 f2 3b 25 10 39 3e 41 36 2c 3d
       1.1196673 0.0073939767 0.18072565 0.042043928
000300 b0 85 1c bf f3 c1 bc bf 27 82 dd bf 64 cc 9c be
       -0.6114149 -1.4746689 -1.7305344 -0.30624688
000310 b4 b9 78 bf 1e 5e 08 bf b4 bc a9 3f 43 56 d9 3f
       -0.9715836 -0.5326861 1.3260713 1.697945
000320 12 47 fc 3f 7f 0e e7 3f b1 86 a3 3f 24 d8 d4 3d
       1.9709189 1.8051299 1.277548 0.10392788
000330 56 6e 40 bf d8 32 f9 bf ea af 2e bf 1b 61 22 c0
       -0.7516836 -1.9468641 -0.68237174 -2.5371768
000340 5f c2 0e c0 88 bb 0e 40 19 86 da 3f 4c 1d 61 3f
       -2.2306135 2.230196 1.7072173 0.8793533
000350 bc 26 c9 3f 26 c8 9e 3e 3a bd 0e be 3a 2d fc bf
       1.5714946 0.31012076 -0.13939372 -1.9701302
000360 97 e3 3c bf 0c e7 f5 bf 92 74 8b c0 51 75 90 bf
       -0.73784775 -1.9211135 -4.35798 -1.1285802
000370 96 34 8c 3f db 9e 98 3f d5 ab df 3f b3 f9 3b bf
       1.0953548 1.1923479 1.7474314 -0.73427886
000380 27 9a cf 3d 9b 64 da be 82 30 b5 bf 96 d2 23 bf
       0.10136824 -0.4265488 -1.4155428 -0.63993204
000390 53 92 12 c0 86 6c 24 c0 02 0a 11 c0 46 47 86 3f
       -2.290181 -2.5691237 -2.2662358 1.0490501
0003a0 4d f0 fa 3f 22 41 d3 3d 13 de d2 3e c3 7f 90 3f
       1.9604584 0.103151575 0.41185054 1.128899
0003b0 5c 87 f5 3d a3 1d 2e bf 0a 0d 36 bf 4b 9b 75 bf
       0.119887084 -0.6801397 -0.71113646 -0.95940083
0003c0 20 cd 93 be 10 9a bc bf e4 7f 24 3f 4b 63 6e 3e
       -0.28867435 -1.4734516 0.64257646 0.23280065
0003d0 e2 cf db 3e 27 9c 09 40 1d ad c5 bf 0e d9 9f be
       0.4293204 2.1501558 -1.5443455 -0.31220287
0003e0 e2 8b 55 bf 3b 89 8f 3e fd a0 01 c0 33 d5 a9 be
       -0.8341657 0.28034386 -2.025451 -0.3317047
0003f0 ae 80 1f 3e 09 6a 60 3e 30 fa 92 be c6 ac 01 3f
       0.15576431 0.21915449 -0.28706503 0.50654256

a.weight f4 [17747, 1]
000000 dc f6 07 3f ae cd d8 bf d9 05 8b bf 21 a6 8e 3e
       0.5311105 -1.6937768 -1.086116 0.2786112
000010 15 19 d7 bf 4f ed a5 bf 77 da 92 bf 4f c0 1a bf
       -1.680453 -1.2963046 -1.147292 -0.6044969
000020 7a c8 30 bf 60 0e 71 bf e9 b4 b2 3e 59 42 0e be
       -0.690559 -0.9416256 0.34903648 -0.13892497
000030 5a 93 af bf 00 ba b2 bf 23 6e 42 bf b4 dc 75 3e
       -1.3716843 -1.3963013 -0.75949305 0.24009973
000040 36 7c 17 bd be 93 c4 3d 9a 71 b0 bf f6 3d 53 bf
       -0.03698369 0.09598492 -1.3784668 -0.8251642
000050 6e 8e 78 bf ce 96 b8 3d a4 41 29 bf 87 7d f2 3f
       -0.9709233 0.09013139 -0.66115785 1.8944558
000060 47 1d e6 bd 95 bf a2 bf b9 0b a8 bf d3 20 18 c0
       -0.11236053 -1.2714716 -1.3128577 -2.3770034
000070 2b 7e ef bf 71 f5 6f bf 1e d9 58 bf bb db 08 c0
       -1.8710378 -0.9373389 -0.84706295 -2.1384113
000080 ec 05 a2 bf 87 f0 4c bf 77 46 29 bf 47 53 4e bf
       -1.2658057 -0.80054516 -0.66123146 -0.8059582
000090 fd 18 08 bf 6f 95 6e bf d6 77 9f 3f 95 2f fd bf
       -0.5316313 -0.9319677 1.2458446 -1.9780146
0000a0 0d 12 ff bf 23 59 63 bf 98 df cc be d3 30 0c c0
       -1.9927384 -0.88807887 -0.40014338 -2.19048
0000b0 1f 72 fa bf 3b ae f5 be 73 ad a7 bd ec 05 45 bd
       -1.9566077 -0.4798449 -0.0818738 -0.04810135
0000c0 72 b1 01 3f 30 25 1b bf df a3 91 bf b9 8c 3e bf
       0.50661385 -0.6060362 -1.1378134 -0.74433476
0000d0 d9 41 b9 bf f4 1c 13 c0 87 c3 d9 bf 64 99 03 c0
       -1.447322 -2.2986422 -1.7012795 -2.0562372
0000e0 3b 5d 62 bf 98 75 da bf 92 f8 92 bf f5 b3 29 bf
       -0.8842351 -1.7067137 -1.1482108 -0.6629022
0000f0 b1 31 8f 3f 8e e5 b2 3e 4b 0d b7 3e e0 1e e7 3a
       1.118704 0.3494076 0.3575233 0.0017633103
000100 f6 0e 4f c0 5b 94 07 be af 89 ec bf d7 cc f9 bf
       -3.2352881 -0.13240187 -1.8479518 -1.9515637
000110 c9 7c e3 bf ee c8 1c 3e 77 c5 53 bf 67 7f 7f bf
       -1.7772456 0.15311024 -0.8272318 -0.99803776
000120 e2 8e b5 bf de 7c 15 be 38 d0 5d be f2 e6 41 3f
       -1.4184229 -0.14598414 -0.2166146 0.7574302
000130 9b c5 41 bf 0c 2a 70 bf 62 ca 54 bf 10 bf 14 bf
       -0.75692147 -0.9381416 -0.8312131 -0.5810404
000140 0f 3e 6e bf e3 17 57 3d 7d 97 1c 3e f6 ff 28 be
       -0.93063444 0.052513015 0.15292163 -0.16503891
000150 aa 8c 41 be 37 e1 9f bf 72 95 e0 be 76 c5 70 bf
       -0.18901315 -1.2490605 -0.43864018 -0.940513
000160 49 17 dd be 8e 25 35 3f a8 46 6a bf b6 ce 31 be
       -0.43181828 0.7076043 -0.9151406 -0.1736401
000170 d8 f7 95 3f ca ea bd be 5f e4 03 bf af 25 6a bf
       1.1716261 -0.37093192 -0.5152034 -0.9146375
000180 5e 8e 50 bf 36 2a cc be 99 9c 29 3e d7 66 ef be
       -0.81467235 -0.39875954 0.16563644 -0.46758148
000190 b6 22 20 c0 06 88 c2 be b7 c4 d3 be 11 ee 2f bf
       -2.5021186 -0.37994403 -0.4136102 -0.68722636
0001a0 c4 f7 1e be df 46 db be ab c2 09 3f 8e 64 c4 bf
       -0.15524203 -0.42827508 0.53812665 -1.5343187
0001b0 26 cb 3e bf a9 99 0b bc e1 c6 8e bf 38 20 c8 bf
       -0.7452873 -0.008520522 -1.1154443 -1.5634832
0001c0 d1 c0 30 bf c7 b1 70 bf 30 e2 0d 40 3c c5 2f bf
       -0.69044214 -0.94021267 2.2169304 -0.6866033
0001d0 f4 7b 28 bf b7 11 e1 be 5d 4d 97 bf 70 98 6a 3e
       -0.6581414 -0.43958828 -1.1820484 0.22909713
0001e0 a2 c2 78 be 89 4f b6 bf 93 64 8a be 07 4a 08 c0
       -0.24292997 -1.4243022 -0.27029857 -2.1295183
0001f0 1f 2d 22 bf e6 82 0a c0 9d ad a1 be ab 91 9c be
       -0.633501 -2.1642394 -0.3157777 -0.30579886
000200 5b e0 ec bf fb ee 1b 3e 24 a3 af bf a5 f5 b3 3f
       -1.8505968 0.15227883 -1.3721662 1.405934
000210 7f ba 8a 3f b8 3f c4 3f 96 f3 81 bf 3a 75 90 3d
       1.0838164 1.5331945 -1.0152462 0.07053609
000220 2e 70 98 bf 21 13 54 3f c5 1f f1 bd e7 dc 51 bf
       -1.1909235 0.8284169 -0.11773638 -0.81977695
000230 b7 f2 c3 bf d6 5c 8a be f8 26 13 bf 8f 95 fe bf
       -1.5308446 -0.27023953 -0.57481337 -1.9889392
000240 0a be df bf a5 75 a1 bf 84 f4 f5 3e d8 95 33 bf
       -1.747987 -1.2614027 0.48038113 -0.7015052
000250 cb 8f 0d 3f 23 80 e6 bf e6 d8 42 bf 62 ab 83 bf
       0.55297536 -1.8007854 -0.7611221 -1.0286677
000260 f4 a2 4f bf 23 fe c6 bf e3 01 91 bf c1 68 50 bf
       -0.8110802 -1.5546306 -1.1328701 -0.8140984
000270 24 16 2b 3d 25 09 18 40 37 6f bc bd 24 56 b9 bf
       0.04176916 2.3755581 -0.092009 -1.4479413
000280 7d 04 34 3e cb e2 f1 bf 0c ae f0 bf 83 5c b6 3e
       0.17579837 -1.8897337 -1.8803115 0.35617456
000290 74 1b 02 be 37 cb ee bf 66 0a 11 bf d6 f2 40 3f
       -0.12705785 -1.8655766 -0.5665649 0.7537054
0002a0 86 e5 b4 3f a5 10 71 3f 68 20 f0 be 6a 63 0c be
       1.4132545 0.9416602 -0.46899724 -0.13709798
0002b0 88 01 d9 bf 27 7b e0 bf 77 b8 3d 3f e7 49 e7 bf
       -1.6953592 -1.7537583 0.74109596 -1.8069428
0002c0 79 57 36 be 65 f4 8a bf eb aa 33 3b 32 a7 24 c0
       -0.17806806 -1.0855833 0.0027415107 -2.5727048
0002d0 e3 eb 26 c0 7d 22 af bf bf 6d 77 bf f1 10 96 bf
       -2.6081474 -1.36824 -0.96651834 -1.172392
0002e0 19 42 28 bf 3b 1b b4 be cd 2e a3 3e 53 f7 bc bf
       -0.65725857 -0.35177025 0.31871644 -1.4762977
0002f0 42 72 6c 3f a3 c2 7a bf 72 ff 72 be 02 ad 7b bf
       0.92361844 -0.9795324 -0.23730257 -0.98310864
000300 d6 37 f1 bf d5 f9 ca be 54 a0 16 bf b4 0c 01 c0
       -1.8845165 -0.39643732 -0.5883839 -2.0164003
000310 df 5d 80 bf 17 21 19 bf 71 0e 92 bf e9 e6 d1 bf
       -1.0028647 -0.59816116 -1.1410657 -1.6398593
000320 5a 11 81 bf d5 a6 3e c0 c4 94 25 3e 63 e4 0c c0
       -1.008342 -2.9789326 0.16170031 -2.2014396
000330 b7 ab f2 bd 41 38 ef bf fc 8e c4 3d 20 63 25 bf
       -0.11849158 -1.8689042 0.095975846 -0.6460438
000340 62 4f e6 bf da c1 a2 bf 07 ee f1 3e 8c 29 e4 bf
       -1.7992976 -1.2715409 0.47251913 -1.7825179
000350 37 5d 44 c0 35 18 d3 be 35 4b db bf b6 08 fe bf
       -3.0681894 -0.41229406 -1.7132326 -1.9846408
000360 4c de 96 bf c6 34 a7 bf 77 9f a9 bf b4 7a c9 be
       -1.178659 -1.306298 -1.325179 -0.39351428
000370 12 26 36 bf 50 68 01 3f 3a 01 0d bf 5d 62 55 3f
       -0.7115184 0.50549793 -0.55079997 0.83353215
000380 ad 3d 81 3f 9f 54 21 be 8b 12 c5 bf f8 2a 04 bf
       1.0096947 -0.15754937 -1.5396284 -0.51628065
000390 ba b4 93 bf ca 4f 02 bf 54 91 f7 bf 80 9f 8b bf
       -1.1539528 -0.50903 -1.9341226 -1.090805
0003a0 99 f5 27 3f 22 7f ef be 07 3e 86 3f e3 bc 37 be
       0.6560913 -0.46776682 1.0487679 -0.17943148
0003b0 5a 20 06 40 75 6f cc 3e 1b 67 d4 bf 7a 6d db be
       2.0957246 0.39928785 -1.6593965 -0.4285696
0003c0 18 48 69 3e bb b5 11 c0 fc b5 f8 be 90 84 9a bf
       0.22781408 -2.276717 -0.48576343 -1.2071705
0003d0 32 3b 5e be d7 85 ec bf dd 6a 8d bf fb 4e ed 3d
       -0.21702269 -1.8478345 -1.1048237 0.1158733
0003e0 e6 d0 d3 bf b4 f5 59 c0 fe da 94 bf 9e 02 04 3f
       -1.6548126 -3.4056215 -1.1629331 0.51566494
0003f0 5a b6 73 3f 91 96 5a be be ce ad 3f ae ee 77 bf
       0.9520012 -0.21346499 1.3578718 -0.9684857

b.weight f4 [17747, 1]
000000 17 d9 5c bf 13 a5 5f bf 22 91 4c bf b0 c6 00 40
       -0.8626875 -0.8736126 -0.79908955 2.012127
000010 55 c3 7e 3d 70 6e 4c 3f ae e1 61 be b7 17 9c 3f
       0.062198002 0.79856014 -0.22058746 1.2194737
000020 15 a8 79 bf bd fb 7a bf 17 ff 92 bf 60 fd 95 bf
       -0.975221 -0.9804037 -1.1484097 -1.1717949
000030 97 e0 a7 3f 3a ce cd 3f fa 06 96 bf 08 35 20 bf
       1.3115414 1.607856 -1.1720879 -0.6258092
000040 0f da 9c bf c0 7b 68 3f 2a ac cf 3f 79 06 27 40
       -1.2254046 0.9081383 1.6224415 2.60977
000050 d0 f5 f0 3d 3c 1d c7 3f 9a 0c f9 3e 12 cc 37 40
       0.11765635 1.5555797 0.48642427 2.8718305
000060 b2 fe 11 bf c4 3b f9 3e 42 04 a7 bf 25 18 9a bf
       -0.5702926 0.4867841 -1.3048174 -1.2038618
000070 75 85 0d 3d 20 ed 81 bf c3 3b 3b 3e da c1 82 be
       0.034551103 -1.015049 0.18284516 -0.25538522
000080 d9 8b 1d 3f 84 60 83 3f 0d 42 cf bf 38 2a 7a bf
       0.61541516 1.0263829 -1.6192032 -0.9772067
000090 a2 26 38 3f 90 d3 c3 bf 6b d1 04 3f d2 67 bb 3f
       0.7193395 -1.5298939 0.51882046 1.4641058
0000a0 48 8d a8 bf 90 c1 3f 3f 05 b1 86 bf ea 6e 01 be
       -1.3168116 0.7490473 -1.0522772 -0.12639967
0000b0 da 6c 95 be 09 a1 8b 3e fa d0 cf 3f 2c 54 ad bf
       -0.2918461 0.27271298 1.623565 -1.3541312
0000c0 47 cb 0c 3f c1 25 26 bf 46 29 42 bf 6b a5 70 bf
       0.54997677 -0.6490136 -0.7584423 -0.9400241
0000d0 db 64 12 bf 71 16 1e 3f 46 8b 3c bd b2 0e f1 bd
       -0.57185143 0.6175299 -0.04603126 -0.11770381
0000e0 17 78 23 be 67 4a 05 bf e2 37 c3 bf f5 cb ff 3f
       -0.1596378 -0.52066654 -1.5251429 1.9984118
0000f0 e5 d3 30 3f d9 67 37 3f 43 0c 89 be db cb 50 be
       0.69073325 0.71642834 -0.26767167 -0.20390265
000100 0f e6 b1 be f8 85 e6 bf a3 68 e0 3e 08 33 0f bc
       -0.34745833 -1.8009634 0.4382983 -0.008740194
000110 70 9b 80 bf c0 38 b4 3f 73 98 7a bf dc 7f 4b 3f
       -1.0047436 1.4079819 -0.9788887 0.7949197
000120 ac 06 fe be 91 45 90 bf 05 75 37 3e 69 85 d9 3f
       -0.49614465 -1.127123 0.17915733 1.6993839
000130 ab 12 dc 3d a3 aa f5 3e 23 6d 50 3f 8c e3 c2 bf
       0.10745748 0.47981748 0.8141653 -1.5225692
000140 99 b1 61 be 1c 1e bd 3f 09 cf 84 3d ee 12 7e bd
       -0.22040404 1.4774814 0.06484801 -0.06202977
000150 11 cd 58 3f fe 99 2b 3f 87 17 51 bf f3 ff cf 3d
       0.84687907 0.6703185 -0.81676525 0.1015624
000160 38 da 8d bf 42 1a de 3f ab 51 4a bf 34 49 8c bf
       -1.108222 1.7351763 -0.79030865 -1.095984
000170 9d 40 ae 3f ca ef 10 bf af a8 5b 3d 34 54 6e 3f
       1.3613468 -0.5661589 0.053627666 0.93097234
000180 e6 32 ff bd 18 f9 b9 bf 4c 2f fe bf 84 68 43 bd
       -0.1246088 -1.4529142 -1.9858184 -0.047707096
000190 5b cb ff 3e 67 4e 44 3e 96 6e 0e 3f 11 17 95 bf
       0.49959835 0.19170533 0.5563749 -1.1647664
0001a0 a9 fe 8c 3f 2b 02 d3 bf 78 06 70 bf 35 1d a6 be
       1.1015216 -1.6485037 -0.9375987 -0.32444158
0001b0 5e 5e e1 be 94 05 84 bf 35 b0 2f 3f 52 bb bf be
       -0.4401731 -1.0314202 0.68628246 -0.37447602
0001c0 25 6e 9b 3d 90 9c 37 3e f3 a5 2c 40 2f 1d ab be
       0.07589368 0.17930818 2.6976287 -0.33420703
0001d0 f3 4a ad 3d 13 3b e0 bf 08 37 81 3f a2 bc af bf
       0.08461561 -1.7518028 1.0094919 -1.3729441
0001e0 04 08 99 bf 37 ca b3 be 0f 14 a1 bf 16 1b 0c 3f
       -1.1955571 -0.35115215 -1.2584246 0.5472883
0001f0 03 83 2c 3f 57 90 c8 be 08 e1 cf bf 30 ca c3 bf
       0.6738741 -0.39172623 -1.6240549 -1.5296078
000200 07 87 ee be f9 15 bb be 2d 75 b5 3e 65 77 22 40
       -0.46587393 -0.365402 0.3544096 2.5385373
000210 76 11 ea be 40 ee 17 40 e6 5a 5e 3f 8d 02 c6 3f
       -0.45716447 2.3739166 0.8685745 1.5469528
000220 61 21 ae 3f 27 25 15 40 58 85 b7 3f 88 79 9a 3f
       1.3603936 2.3303926 1.4337568 1.2068338
000230 d4 61 5f 3f e0 24 24 3f d7 b0 3b bf 67 8e 24 3e
       0.8725865 0.64118767 -0.7331671 0.16069947
000240 3a 97 c0 bd dd 90 12 be 79 50 c7 3f 6e 72 a1 bf
       -0.09403844 -0.14313073 1.5571433 -1.2613046
000250 a6 51 14 40 f7 58 f5 3e 67 2e 11 40 f7 fe 4f 3e
       2.3174834 0.47919437 2.2684572 0.20312105
000260 a9 99 ad 3f 68 1c 32 bf ca e1 2a bf e5 3f ad 3f
       1.3562518 -0.69574594 -0.66750777 1.3535124
000270 41 ae 62 3f 4c db 28 40 8b 15 a4 3f 5c f6 0c 3f
       0.8854714 2.6383848 1.2819074 0.55063415
000280 d3 d9 08 c0 f9 7e 74 3e d6 19 d5 be d0 b8 4a bf
       -2.138295 0.23876561 -0.41621274 -0.7918825
000290 76 59 5e 3f 26 c1 52 3f f5 0a ad bf 0e 08 cd 3f
       0.86855257 0.8232597 -1.3518969 1.6018083
0002a0 c8 ec d9 3f 85 24 0b 40 34 d4 0f 40 30 9c 38 3f
       1.7025385 2.174104 2.2473269 0.72113323
0002b0 03 3d f5 3e 9e ba af 3e 10 7c 16 40 d7 20 3b 3f
       0.4789811 0.34322065 2.3513222 0.73096985
0002c0 d6 96 d0 3f d4 f2 7e 3f 40 73 06 40 8c 2d 4f bd
       1.6296031 0.99589276 2.1007843 -0.050580546
0002d0 ed bb 97 bd fc 67 b6 bf 64 96 bc bf 24 51 61 3f
       -0.07408891 -1.4250484 -1.4733396 0.88014436
0002e0 b3 80 48 40 e9 03 b5 3f f7 8e c4 3f da 5f e7 bf
       3.1328552 1.4141818 1.535613 -1.8076127
0002f0 6d 17 a7 bf 51 20 bc 3f 12 b9 a6 3f 0c 04 43 3f
       -1.3054024 1.4697362 1.3025229 0.7617805
000300 be 5f 6c bf 17 2f ac 3f b2 be 82 3e 94 82 e2 3e
       -0.9233359 1.3451871 0.25536114 0.44240248
000310 91 2b ca 3f 08 01 7f 3f 67 90 1b 40 c6 bb ed 3e
       1.5794545 0.9961095 2.4306886 0.46432322
000320 46 7c f4 3f b0 d8 27 be 82 2c f0 3f cf 73 1e 3e
       1.9100425 -0.16391253 1.8763583 0.15473865
000330 fb 1c 01 40 ba c5 c0 3e c4 4d b2 3f 83 90 77 bf
       2.0173938 0.37650853 1.3929982 -0.9670488
000340 de e8 16 3f 59 59 eb 3f 77 ce 0b 40 86 60 ae 3f
       0.5894908 1.8386642 2.1844766 1.3623207
000350 74 c3 cd be 6e d6 bb bf 8c ae 5e 3d 48 f5 d0 3f
       -0.4018818 -1.4674814 0.05436568 1.6324854
000360 c1 6e b0 3f bf 0f 29 3f 54 17 4d 3d fc 47 42 be
       1.37838 0.6603965 0.050071076 -0.18972772
000370 49 58 82 3f 67 37 0c 40 15 a3 4d 3f 16 47 ad 3f
       1.0183192 2.1908815 0.8032697 1.3537319
000380 a6 bb af bf 91 95 de be 2a 12 0d 3f 31 ea dc 3e
       -1.3729141 -0.43473485 0.5510584 0.43147424
000390 ae b1 c7 3e 3a 7c dd bf 4c ee 5f be c4 ee c1 3f
       0.39002746 -1.7303536 -0.21868247 1.515099
0003a0 9a c6 3a 40 3b 6b 8a 3f c3 2e 24 40 af f6 04 40
       2.9183717 1.0813974 2.565354 2.0775564
0003b0 be a4 e2 3f a1 4e 14 40 1a da 90 bf f1 7c cd 3f
       1.7706525 2.3172991 -1.1316559 1.6053754
0003c0 bf 3f 99 bf ab b0 5c bf ba 70 b1 3f aa e5 34 c0
       -1.1972579 -0.86207074 1.3862526 -2.8265176
0003d0 4e 3f f1 3f d3 c3 1a 3f 70 28 4d bf 99 09 36 40
       1.8847444 0.60455054 -0.8013983 2.8443358
0003e0 c0 63 82 3f d8 cf 6b 3e d9 d2 01 be 6b 1c 14 40
       1.0186691 0.23028505 -0.12678088 2.3142345
0003f0 6d ae 27 40 00 9f da 3f 48 7d f4 3f 35 40 af 3f
       2.620021 1.7079773 1.9100733 1.369147

c.weight f4 [17747, 1]
000000 8b 75 92 bf ff f7 7f 3e 23 b6 54 3f 9d 24 17 3f
       -1.1442121 0.24996947 0.8309042 0.5904024
000010 7d 73 5f bf 10 9c 29 bf bc cf 97 3e 2b 31 e9 bd
       -0.87285596 -0.6625376 0.29650676 -0.11386331
000020 15 dc 10 be 0e f9 8f bf 6b cd a0 3f 48 6e 8d 3e
       -0.14146455 -1.124788 1.2562689 0.276232
000030 27 75 43 bf c0 36 3c c0 66 2f 88 3e 56 0d ca 3f
       -0.76350635 -2.9408417 0.26598662 1.578532
000040 7d f3 a8 bc bb 25 e2 3e 97 70 21 3f a1 df 32 3f
       -0.020623917 0.4416941 0.63062423 0.6987248
000050 70 f0 93 3f 6e ea 1b 3f 10 f0 54 3f 95 6d c1 be
       1.1557751 0.60904586 0.83178806 -0.37778917
000060 23 40 c0 3e f0 7a 6d bd fd 37 89 3d 0c f6 37 bf
       0.37548932 -0.05797857 0.06700132 -0.7185981
000070 99 26 ec bd 4b 3a 39 bd 82 36 b5 3e cf 77 f9 3d
       -0.115307994 -0.045221608 0.3539315 0.12181055
000080 8a b9 a4 bf c1 0f c1 3e f0 5d c0 3d f3 20 f7 3d
       -1.2869122 0.37707332 0.09392917 0.120668314
000090 c6 5e 4b 3f 77 59 41 3c ac dc c8 3f aa 2a 62 bf
       0.7944149 0.011801115 1.5692344 -0.8834635
0000a0 18 a5 c1 be 96 a7 0c 3e 79 b6 a6 3d d9 3b 88 3c
       -0.3782127 0.13735804 0.08140273 0.0166301
0000b0 07 a3 82 bf af e4 d3 3e 4d ee 57 3f f0 a8 15 bf
       -1.0206002 0.4138541 0.84347993 -0.58460903
0000c0 8d e9 8e 3f 68 47 66 3e c9 68 a0 be 69 dc 9f bf
       1.1165024 0.22488177 -0.31329945 -1.2489139
0000d0 2b e1 92 3f c4 68 f6 bc c6 bd a9 be f9 66 c6 be
       1.1474966 -0.030079253 -0.33152598 -0.38750437
0000e0 40 48 7d 3d af 7d b5 3d a2 6d 87 bf 55 ee 88 3e
       0.06183648 0.08861863 -1.0580332 0.26744333
0000f0 e9 8f aa 3f 7f e6 0f 3f 19 3c c6 3f fe 58 b4 3c
       1.3325168 0.56211084 1.548709 0.022015091
000100 f3 df 50 bf 2d f8 ad 3f 24 9d 9f bf f1 a6 34 3f
       -0.8159172 1.3591362 -1.246983 0.7056723
000110 a8 17 45 bf ba 51 4b 3f 78 ae c1 bd 96 fc f6 3d
       -0.7698922 0.7942158 -0.094571054 0.12059896
000120 9d b5 31 3f af 93 df 3e a0 5f 8c 3e 25 4a bf 3e
       0.69417745 0.4366736 0.27416706 0.37361255
000130 fb a5 a2 3e 3e fa c1 3f 47 b1 4a 3d 22 46 75 be
       0.31767258 1.5154493 0.04948547 -0.23952535
000140 06 94 46 3f 60 a7 05 be 44 01 c6 3f 82 3d 2b bf
       0.77569616 -0.1305213 1.5469136 -0.6689073
000150 9f 9d cc 3e 16 3d 3e bf 86 08 aa bf 95 25 39 3f
       0.39964005 -0.7431196 -1.3283851 0.7232297
000160 ec 45 ba 3e 2b 83 06 3e 8c a6 ae bf 5d b1 65 3e
       0.3638147 0.13135974 -1.3644576 0.2243094
000170 f8 e6 6d 3f ab 74 3b 3e f1 07 c5 3f 9c d3 16 be
       0.92930555 0.18306224 1.5393049 -0.1472916
000180 5e 0c 93 3f 63 25 89 3e 2e 85 fe 3e b8 92 ed be
       1.1488149 0.26786336 0.49710983 -0.46401
000190 59 8f 70 3f 49 db 57 3f c1 04 5a 3f 25 33 cc 3e
       0.9396873 0.8431898 0.85163504 0.3988277
0001a0 69 16 92 be 43 bf ce 3e fb 27 17 40 9b 83 e7 3e
       -0.28532723 0.40380296 2.3618152 0.45217595
0001b0 51 54 88 3e fe 1a b7 3f fa 48 ac 3e be 11 6a 3f
       0.26626828 1.4305112 0.33649427 0.9143332
0001c0 66 71 98 3e 5f 65 25 3f a9 80 09 c0 11 ee 12 3e
       0.29774016 0.64607805 -2.1484778 0.14348628
0001d0 a7 94 0b 3f 5c 76 0e 40 b2 14 4e bf 74 2c 85 bf
       0.545237 2.225974 -0.8050033 -1.0404191
0001e0 4e dd 19 3f c5 82 4f be 23 f6 09 40 ce 35 ee 3f
       0.6010331 -0.20264728 2.155648 1.861017
0001f0 ca 6f cf bd ba 86 b7 bf f2 32 7c 3f 87 cf 26 3f
       -0.10128744 -1.433799 0.98515236 0.6516041
000200 08 ba 12 3e 98 cf 68 bf f6 c5 ee 3f 72 1d cf 3d
       0.14328778 -0.9094176 1.8654163 0.10113038
000210 b3 60 1d 40 a1 01 84 be dd 26 29 c0 8f 29 31 bf
       2.459027 -0.25782493 -2.642997 -0.6920404
000220 3c 1d 8d c0 64 27 75 bf 9e 85 a5 bf f3 e6 cc bf
       -4.4098186 -0.9576323 -1.2931402 -1.600798
000230 00 7a 8f bf 2e 32 b0 3f 46 96 eb bd 57 5c b8 bd
       -1.1209106 1.3765314 -0.11503272 -0.090019874
000240 c0 bf d4 be c3 69 5a 3d 39 d5 89 be 82 70 3a bd
       -0.41552544 0.05332352 -0.26920488 -0.045517452
000250 3a 2d 83 bf 56 a6 cd bf 13 9b 3c bf c7 2b 06 bf
       -1.0248177 -1.6066387 -0.73674124 -0.5241055
000260 c5 b3 b0 bf 2b 70 64 bf 0b 1c 34 3e 66 15 42 3f
       -1.3804861 -0.89233655 0.17588823 0.758139
000270 83 6e 6b 3e da 72 04 bf 24 a9 53 3f ce 15 2f bf
       0.22991376 -0.5173775 0.82679963 -0.68392646
000280 2b 59 21 bf 1d 8e f2 3e 0b dd 76 be b6 0b c5 3f
       -0.63026685 0.4737405 -0.24107759 1.5394199
000290 e6 8e 7c 3f 25 13 7b 3f 6c 55 46 3d 41 b9 16 bf
       0.98655546 0.9807609 0.04842131 -0.58876425
0002a0 be d4 12 3e ba 48 94 be 66 42 ab be 28 d3 64 bf
       0.14338967 -0.28961736 -0.33449095 -0.893847
0002b0 da e7 be be b3 dc 78 3f fd da 90 be f6 c7 1e bd
       -0.37286264 0.9721176 -0.28292075 -0.038764916
0002c0 6f ac b4 be db e6 4b bf a6 0f 36 3e 86 90 d8 3f
       -0.35287806 -0.7964913 0.17779407 1.6919105
0002d0 1b 0b 8b 3f 85 d1 0c 40 f1 78 a8 bf 5e f3 7d bf
       1.0862764 2.200288 -1.3161908 -0.99199474
0002e0 20 c6 03 3f 2f b5 ad bf 7f 41 9e bf c1 bc fc 3f
       0.5147419 -1.3570918 -1.2363738 1.9745103
0002f0 c7 8a e8 3f 08 ce 5c c0 76 f8 8f be 4b bd 3a 3f
       1.8167351 -3.4500751 -0.28119248 0.7294509
000300 6e ef 22 bc 36 83 84 bf 05 9c f0 bf f6 78 e2 be
       -0.00994478 -1.0352542 -1.8797613 -0.4423291
000310 b8 ba 9b bf 27 f0 da bf 31 a6 fa bf 8f 3f 11 bf
       -1.2166357 -1.7104539 -1.9581968 -0.5673761
000320 d3 5a ea bf 47 db d0 3e 90 0c ca be 5e 9e 3e be
       -1.8308967 0.40792295 -0.3946271 -0.186151
000330 6a e2 62 be 51 06 ce be d0 a5 26 3f d4 13 05 bf
       -0.22156683 -0.40239194 0.6509676 -0.5198338
000340 99 fc a3 3f f9 5c 0b be 6a f5 62 bf c4 e1 19 bf
       1.2811462 -0.13609685 -0.8865572 -0.60110116
000350 94 34 20 3f 34 0e 25 bf 87 e2 00 3f e8 8e 0c 3f
       0.6258023 -0.644748 0.50345653 0.5490556
000360 75 7c b3 bf 52 4e 35 3e 54 4a ca bd fb aa 7a be
       -1.4022356 0.17705658 -0.09877458 -0.24479286
000370 98 1f 78 bf 28 d7 be 3d 62 15 15 bf 29 02 16 be
       -0.9692321 0.093183815 -0.5823575 -0.14649262
000380 bf 15 9c 3f 29 5b e8 3e 75 c0 48 be b0 06 d0 bf
       1.2194136 0.4538205 -0.19604667 -1.6252041
000390 c4 67 91 bf b9 14 fc 3f 65 26 c1 3c b7 13 cb bf
       -1.1359792 1.9693824 0.023577878 -1.5865391
0003a0 2e 43 6b bf 41 c0 4e 3e f8 ef cd bf 73 8c 7d c0
       -0.91899383 0.20190527 -1.6088858 -3.9616973
0003b0 e4 97 a4 3e 22 47 17 bf b4 19 ff bf b1 e2 2f bf
       0.32147133 -0.59092915 -1.9929719 -0.6870528
0003c0 4c f0 46 3f 8e 98 06 c0 60 f8 2b 3f 53 b3 8a bf
       0.77710414 -2.1030612 0.67175865 -1.0835975
0003d0 9d 55 46 be 46 fb 55 3e 98 db e2 3c 6a 64 c3 3f
       -0.19368596 0.20896634 0.027692601 1.5265019
0003e0 ba 6b 14 c0 69 75 be bf 33 51 9b bf c1 b4 e2 be
       -2.319075 -1.4879581 -1.2134155 -0.4427853
0003f0 85 c1 9a be 53 33 45 bf 7a be 47 bf 96 25 71 bf
       -0.3022577 -0.7703144 -0.7802502 -0.94197977
