IRT/irt_model.pth (torch, 394528 bytes, 4 tensors)

theta.weight f4 [44875, 1]
00000000: 0ad2 0c3f 04c1 0dc0 074d 1f3f 8e2a 95bf
00000010: 2393 853f 8160 073f 5335 623f 89d5 09bf
00000020: 42c2 34bf db21 e8be 6651 413f 2d59 a53f
00000030: 336c d0bd 686e f0bf e19b 37bf 55d5 07bf
00000040: c132 b03f 3ee2 883f deb9 47bf de8d c1bd
00000050: d614 893e c1b9 5dbd 4534 6cbe 3c65 51bf
00000060: 728e 6ebf 92c1 6bbf 2aaa 71bf 4cdc c6be
00000070: b5ad 4cbf abfe 4c3f 9768 603f a769 223f
00000080: 524e c13e 82e1 d23e deab 573d d515 79bf
00000090: d04b 83be 9d85 213f 6d78 d03e 981a f83e
000000a0: 5854 5dbf cadc 50bf 40b9 e83e 717c 8cbe
000000b0: d249 043d 6fad 5dbd fec5 1ebe d655 8cbf
000000c0: 464e d23e dd1a 1fbe c112 b33e 9adb 04bf
000000d0: 79c0 54bf 2daa 0d3f 620a 893f 890b 743e
000000e0: f420 8a3f 8e82 573f 5f97 76bf 6b4b 403f
000000f0: d9ca 9a3e 2650 883f 7d07 c93f 3fad 673f
00000100: a1dd f33d 5224 34c0 e7d4 cf3f 6e43 76bf
00000110: 83e9 453f ba0c 793e e476 a63e cf69 423f
00000120: 1d6d 93bf 5c0e 3c3f 2383 fa3e 2024 67bc
00000130: 9e31 b23f a159 983f 7f0b 80bf 8990 9bbe
00000140: 90de 273f ef2c f93d f40a b9be 4a49 96be
00000150: c3cc 8fbd 740a 563d 755c 38bf 76dd c4bf
00000160: 5503 203f caff 1f3e 733f 163d d383 12bf
00000170: 8d95 5ebe 06c0 91bf 7e77 d83e 15b5 38bf
00000180: 76d6 923f 98d8 a3bf acc6 48bf d2ee 833d
00000190: 7789 05be 124c cc3f afdc 193c 8130 d23e
000001a0: b6e9 263e a8b2 813f 06f2 03c0 9dfa 5e3f
000001b0: ea57 27bf e676 223f 1afa b23f 8a12 5bbf
000001c0: 161d a2be 1091 d33d c037 35bf bbb3 6a3f
000001d0: 8080 09c0 21db 133f 72db eebf 46ea 403e
000001e0: a748 cf3f 9890 c0bf 85c3 31bd e8ea 4b3f
000001f0: aec1 2bbf 2f57 103e 2291 6bbf a931 fabe
00000200: 7055 7abf 4943 02bf 0527 4cbe 2cbe 45bf
00000210: 2b43 6e3f 9e86 c7bf 6a5d 21bf af3e 193f
00000220: 6a5f 05bf b5ec 80bf cbfe 1dbf e3f7 6b3e
00000230: 7b86 623f d7d2 fcbf 29cb 1dc0 a05b 9ebf
00000240: 2fde 553e 5028 1b3f f68b b6be ceed a5be
00000250: 386f d83f 8aa9 e8be 4d92 99bf 802b c3bf
00000260: 9bcb b9bf 7cda 08bf 000d c3be f610 2abf
00000270: 2744 96bf 2e55 61bf 60cd 9a3f c2cb 363f
00000280: 73e3 253e db6f 5bbf 9eb5 06c0 b3f5 ff3d
00000290: 7b8e 25bf 46e4 ee3e a029 babd 1699 adbf
000002a0: f822 c33d 8065 1a3f 8595 fc3e e896 76bf
000002b0: 941d 7ebf 5a25 ddbe 236e bfbd 06d4 e2be
000002c0: f2ad 4fbf 1a57 d9be b223 01bf 016b a3bf
000002d0: 4cbb 67bf 83bb 2bbe 83f8 ea3d d68d 09be
000002e0: 44a4 1dbf c6e9 ea3e 2a78 e4be 369b 9f3e
000002f0: 427c 88bf 14b5 7f3f 0084 2e3f 3b5f ec3d
00000300: 750b f23f 8362 753e 0d44 ea3e ea3e 3abf
00000310: d554 a43f ab22 afbe 449b 403e 66c0 0d3f
00000320: e58a 9d3e 28c7 a6be 0f6c 40bf bc5d 13bd
00000330: ea4f c8bc d95b 063e 3f6a 2bbf e6ba a03d
00000340: 992d 1c3f 02a7 653f 1b2b 04bf c4a6 af3f
00000350: 0d2c 103f e5f6 e63e 768a 12bf f570 7dbf
00000360: 7f46 e2be 79f4 a3be 6269 bd3f 6d00 97be
00000370: 0e14 743e 4d01 0f3f dde7 0fbc a680 92bf
00000380: e0ed b23f ea40 1a3f 6d59 333f 2e7f b2bf
00000390: 0cb5 1ac0 9e37 f03f 0eb9 42c0 cd41 96be
000003a0: 0721 71be 4939 e2bf 8eac d4bf 02f0 be3f
000003b0: f931 e1bd 2d36 cdbe 086b 81bf 19d0 bbbf
000003c0: 5e7d c7bf e46c f2be e2ae df3e 56c2 33bf
000003d0: 9eab 453f 5b62 efbe 6a01 e7be 08e4 ad3e
000003e0: ae77 c73f adf8 76be 357e 863f 79ce a1be
000003f0: daa9 443f 6aba e53d 52a7 a6be 7e05 123f
0.55007994 -2.2149057 0.6222691 -1.1653612 1.0435528 0.5288163 0.88362616 -0.53841454
-0.70608914 -0.4533833 0.7551483 1.2917839 -0.10176887 -1.8783693 -0.7172223 -0.53059894
1.3765489 1.0694044 -0.78017986 -0.09450887 0.2677371 -0.054132227 -0.23066814 -0.81795096
-0.93186104 -0.9209224 -0.94400275 -0.38839948 -0.79952556 0.8007609 0.8765959 0.6344246
0.37755066 0.41187674 0.05265414 -0.9729894 -0.25643778 0.630945 0.40716878 0.4845779
-0.86456823 -0.815869 0.45453835 -0.2743869 0.032296963 -0.054120477 -0.15505216 -1.0963695
0.41075343 -0.15537591 0.34975246 -0.51897585 -0.8310619 0.5533779 1.0706294 0.23832525
1.0791306 0.84183586 -0.96324724 0.7511508 0.30232885 1.0649459 1.570541 0.9049873
0.11907507 -2.8147168 1.6236848 -0.9619664 0.77309436 0.24321261 0.3251258 0.759427
-1.1517674 0.7345941 0.48928174 -0.014107734 1.3921392 1.1902353 -1.0003508 -0.3038371
0.6557398 0.121667735 -0.3614117 -0.2935279 -0.07021477 0.052256063 -0.7201608 -1.5380085
0.62505084 0.1562492 0.036681604 -0.572324 -0.21736737 -1.1386726 0.42278665 -0.7215131
1.1471698 -1.2800474 -0.7842815 0.06442036 -0.1304072 1.5960715 0.009390994 0.4105263
0.16300091 1.0132647 -2.061647 0.87101156 -0.6536852 0.63462675 1.3982575 -0.85575163
-0.31662816 0.10330403 -0.7078819 0.91680497 -2.148468 0.5775624 -1.8660719 0.18839368
1.6194047 -1.5044127 -0.043399353 0.79655313 -0.67092407 0.14095758 -0.9201833 -0.48866013
-0.9778662 -0.5088392 -0.1993676 -0.77243304 0.9307124 -1.5587957 -0.63033164 0.5986127
-0.52098715 -1.0072237 -0.6171691 0.2304378 0.8848645 -1.9751843 -2.465525 -1.2371712
0.20885538 0.60608387 -0.35653657 -0.32407993 1.6908941 -0.45441848 -1.1997772 -1.524765
-1.451526 -0.5345838 -0.38095856 -0.6643213 -1.1739548 -0.880206 1.2093925 0.7140466
0.16200046 -0.8571755 -2.104835 0.12498035 -0.6467053 0.46658534 -0.090899706 -1.3562343
0.09528154 0.60311127 0.49332824 -0.96324015 -0.9926388 -0.4319256 -0.09347179 -0.44302386
-0.81124794 -0.42449266 -0.5044509 -1.276703 -0.9052017 -0.16770749 0.11473181 -0.13433012
-0.61578774 0.4588148 -0.44622928 0.31173104 -1.066292 0.9988568 0.68170166 0.11541601
1.8909746 0.2396336 0.45755044 -0.7275225 1.2838389 -0.34206137 0.18809229 0.553717
0.3077003 -0.3257382 -0.75164884 -0.035978064 -0.024452168 0.13120975 -0.66958994 0.07848148
0.61007077 0.8970796 -0.51628274 1.3722768 0.56317216 0.4511024 -0.57242525 -0.99000484
-0.4419441 -0.32022455 1.4797785 -0.29492512 0.23835775 0.5586136 -0.008783308 -1.144551
1.3978844 0.602553 0.7005833 -1.3945062 -2.4173002 1.8766973 -3.0425448 -0.29347077
-0.23547755 -1.7673732 -1.661516 1.4916995 -0.1099586 -0.40080395 -1.0110788 -1.4672881
-1.5585134 -0.47348702 0.43688112 -0.7021841 0.7721499 -0.46754727 -0.45118266 0.33963037
1.5583398 -0.241183 1.0507265 -0.3160284 0.7682167 0.11217196 -0.3254953 0.5703963

a.weight f4 [17747, 1]
00000000: d8d8 92bc 1f21 cbbf d686 42be 46bc b0bf
00000010: 82cd 353e cdd0 c0bf 68b8 d7bf 011d f0bf
00000020: 7adc 73bf 1211 09c0 11f1 8e3e 1f05 b8be
00000030: 4ba1 6bbf c5d4 d3be 203c b3bf d77a b63e
00000040: f0e4 c9be d97e 88bf e754 b0be 0ecc ecbf
00000050: 4b76 e9bf 649b ecbf 9c82 95bf 1dee 823e
00000060: a032 81bf ab75 9fbd 65db 11bf 4e43 cbbe
00000070: a7a3 2bbf 18b5 c1bf 145c b3bf d1be 48bf
00000080: 2ff8 08c0 e5cf acbf dbeb 19c0 6f53 0bc0
00000090: 2ad5 88be 0511 d0bf b1a8 e8bc 4f02 0cbf
000000a0: 3063 0fbf 9162 1dc0 21d5 99bf bff6 f6be
000000b0: 6579 6ebf c3db 06c0 159c adbe ff3f 78bf
000000c0: 03c0 5a3f deaa 44bf 3c21 e23d 6a8e 9f3e
000000d0: 4e40 85bf 2714 d1be 3d44 953c 1199 b6bf
000000e0: 563a 3ebf d725 07c0 0127 473f 30da 5dbd
000000f0: dd16 9bbf 223d f0be 726c 8dbe 9de8 86bf
00000100: 3d57 993e ce68 36bf fe2e cdbf f811 563e
00000110: 6a52 0dbf 3902 7fbf ea4a 833f c98b aebf
00000120: 309b 083e c935 1fbf 6fb9 85bf b544 cbbf
00000130: e87c 74bf b4f1 b1be 678c eb3e f672 f9bf
00000140: 0d6b 31bf 6f79 a4bf cc3d 87bf bf71 47bf
00000150: 3db7 e0bf 3c0c b3bf a54d 26bf 551d 80bf
00000160: 341c 60be be1b 14bd 3c89 f03e dfdc 59bf
00000170: 604b 11bf 2d61 f8be 73fa ff3d d441 46bf
00000180: b4c4 32c0 6d34 d33d ea1f 86be b953 8fbf
00000190: b21f c8be bfba 34bf 0b8e 70be 6c32 4cbf
000001a0: c802 2ebf 8f79 2d3e fcb6 dbbe e6f3 083f
000001b0: f4f0 8ebd e195 28c0 5f9a a2bf 11c0 32be
000001c0: cd77 67bf 1764 dcbe f46a 37bf 4f67 39be
000001d0: 3ecf 803f 5100 713e 9304 06bf dd99 98bf
000001e0: b344 123f 11b5 cebf bf98 53bf 4df0 32be
000001f0: bc14 04bf 3f06 f2be ab22 98be 5dbd e93f
00000200: 1aba cb3f ed2f b53e b9e1 b5be ad4f 583e
00000210: 0917 9fbd bd7d f83e 21eb 0abf 1503 4ebf
00000220: 3a1b febd cc1a 3dbf 3f79 65bf 4fbb bebf
00000230: fcf0 05c0 9f44 87bf bbae 11c0 0efa 89bf
00000240: 71ad 8cbf 981b 43bf 2578 80bf c199 c5be
00000250: 17e1 90bd e272 c2bf 1a00 3dc0 ec3d b4bf
00000260: a46f 963f 6834 143f fdaa aebf 76d6 a6bf
00000270: b9c5 c7bc cf80 1fbf fccb 84bf 9d33 00bf
00000280: 364d b0bf d450 c9bf 54c4 a3bf e53d aa3e
00000290: 254b f7be 958a 00c0 8f0c 06bf 4c99 9d3f
000002a0: 53f7 e2bf ef21 d8bf 3c72 c5bf 07aa 05c0
000002b0: 8537 ccbf 7783 9ebf c527 da3f 4337 d6bf
000002c0: 96df 3ac0 65d1 65bf 46c7 2a3f 8ab7 44bf
000002d0: c73a c4bf f0b7 083e 0d1f cebf 42b1 96bf
000002e0: 1b14 08bf a303 0c3f a65c 38bf d010 c13e
000002f0: 6c08 ef3d bd20 993d e210 863f e2bf b0bf
00000300: 1b5a eabd c2cd c73f 01e4 ccbf 5afb 883e
00000310: 8742 06c0 e988 b83f 6735 873e 42e4 d2bf
00000320: 6f05 abbf cab9 753f 78af 1cc0 2c4f 06bf
00000330: 779b dabf e5e0 79bf bbc2 bb3d 8a57 a1bf
00000340: 858c 34bf 9af9 e8bc d141 eebb 8c61 23bf
00000350: 2450 c7bc 9659 873f 324f 53bf c585 66bf
00000360: 2ebc 3d40 7056 46bf daeb b1bf 037a 7bbf
00000370: a79a 64bf 4c55 bbbe 520f a9be 4bcc ffbe
00000380: a837 613f db64 4abf b0be 2bbf 3750 463d
00000390: 3658 313f 1e95 80bc a012 34c0 9bf5 4bc0
000003a0: 7cc1 31be 090f ed3e 610c c5bf 92e8 153f
000003b0: be7d 3abf fe1a 12bf 3ba3 8a3e c111 a33e
000003c0: 174b 0d3f 2e28 85bf fd06 d4bf 4a3d a2bf
000003d0: 24e6 b7bf eb05 b2bf ea8d c2bf 6460 99bf
000003e0: 8892 aebe b95b aebf 4ff8 82bf 05b0 2fbf
000003f0: 0d5c 00c0 9157 e63f dc9d a1be 833d c8bf
-0.017925665 -1.5869483 -0.18996748 -1.3807456 0.17754176 -1.5063721 -1.6853151 -1.8758851
-0.95258296 -2.141667 0.27918294 -0.35941407 -0.9204299 -0.41373268 -1.4002724 0.35640594
-0.39432478 -1.0663711 -0.34439775 -1.8499773 -1.8239225 -1.8484921 -1.1680484 0.2557229
-1.0093575 -0.07786115 -0.56975394 -0.39699787 -0.6704659 -1.513339 -1.4012475 -0.7841616
-2.140148 -1.3500944 -2.4050205 -2.1769674 -0.2672513 -1.6255194 -0.02840075 -0.5469102
-0.56010723 -2.459141 -1.2018167 -0.48235127 -0.93153983 -2.1071632 -0.33908144 -0.9697265
0.85449237 -0.7682322 0.11041495 0.3116334 -1.0410249 -0.40835688 0.018221015 -1.4265462
-0.74307764 -2.1116846 0.7779389 -0.054163158 -1.2116352 -0.4692164 -0.276218 -1.0539738
0.2994937 -0.7125367 -1.6029966 0.20905292 -0.5520388 -0.99612767 1.0257237 -1.3636409
0.1334045 -0.62191445 -1.0447215 -1.5880343 -0.9550309 -0.34754717 0.46005556 -1.9488208
-0.6930397 -1.2849559 -1.0565734 -0.7790794 -1.755592 -1.3988109 -0.64962226 -1.0008951
-0.21885759 -0.03615927 0.46979702 -0.8510265 -0.5675564 -0.4851164 0.12498941 -0.77444196
-2.7932558 0.10312734 -0.26196223 -1.1197425 -0.39086682 -0.7059745 -0.23491685 -0.7976444
-0.67972994 0.16940902 -0.42913043 0.5349716 -0.06979552 -2.634148 -1.270336 -0.1745608
-0.90417176 -0.43045112 -0.7164757 -0.18105815 1.0063245 0.23535277 -0.5235073 -1.1921955
0.57136077 -1.6149007 -0.8265495 -0.1747448 -0.5159414 -0.4727039 -0.2971395 1.8260914
1.5916169 0.35388127 -0.35523775 0.21124144 -0.077680655 0.4853343 -0.5426503 -0.8047345
-0.12407537 -0.73869014 -0.8963813 -1.4900912 -2.0928335 -1.0567816 -2.2762897 -1.0779436
-1.099043 -0.7621398 -1.0036665 -0.38593867 -0.070741825 -1.519131 -2.9531312 -1.4081397
1.175282 0.57892466 -1.3645931 -1.3034198 -0.024386274 -0.6230592 -1.0374751 -0.50078756
-1.3773563 -1.5727792 -1.279429 0.33250347 -0.48299518 -2.0084584 -0.5236291 1.2312407
-1.7731727 -1.6885356 -1.5425487 -2.0885026 -1.5954443 -1.238387 1.7043387 -1.6735615
-2.9198966 -0.89772636 0.6671032 -0.7684256 -1.5330437 0.13351417 -1.6103226 -1.1772845
-0.5315568 0.5469305 -0.7201637 0.3770814 0.11671528 0.074769475 1.0473902 -1.3808558
-0.114429675 1.5609667 -1.6007081 0.26754266 -2.0978105 1.4416782 0.2640793 -1.6475909
-1.3361033 0.95986617 -2.4482098 -0.52464557 -1.7078694 -0.97608787 0.09168001 -1.260484
-0.70526916 -0.028439332 -0.0072710295 -0.6382072 -0.024330206 1.0574214 -0.8254272 -0.90047866
2.9646106 -0.77475643 -1.3900101 -0.9823305 -0.8929848 -0.36588514 -0.330195 -0.4996055
0.8797555 -0.79060143 -0.6708784 0.048416343 0.69275224 -0.015696105 -2.8136368 -3.1868656
-0.17358965 0.46300533 -1.5394403 0.58558 -0.7284812 -0.57072437 0.2707766 0.31849483
0.55192703 -1.0402887 -1.6564633 -1.2674954 -1.4367108 -1.3908056 -1.5199559 -1.1982541
-0.3409617 -1.3621742 -1.0232028 -0.6862796 -2.0056183 1.7995473 -0.3156575 -1.5643772

b.weight f4 [17747, 1]
00000000: 4d23 8dbd 1ca7 1fbe decc b5bf da9f bebf
00000010: 41dd ad3f 2aa0 cabe 8df1 73bf 997a 1d3e
00000020: 7dcf 853f 77c9 a13e 9308 b1bf 6025 fe3d
00000030: cd1d 653f 492c c33f 4b01 70bf 620c 5f3f
00000040: 6292 a4bf 5af8 0e3f 6a6a 483f e1c9 7e3f
00000050: 2c32 04c0 70e2 69bd 8b7c 513f 6b7b 813f
00000060: 1440 82be ddb8 98bf 41be 903f c5f6 603d
00000070: 1dcc 193f 15b5 9dbe 29ea 0240 dec1 093d
00000080: 8071 d73e 0947 47bf 8252 4ebf 9d99 90bf
00000090: eb1b 313f 1767 dfbd 51ab 44bf 06ac 953f
000000a0: 1ddf 68bd 05cf a9be efbb 98bf a5ef 74bf
000000b0: 3cbf c33e 441d 0840 6ed4 dc3e 73d4 5ebf
000000c0: a368 e43f 8a49 66bf 8c04 36be 437c 0240
000000d0: 462a abbf 9675 28bf c5dc a73f 8b63 47bf
000000e0: 0bc6 90bf 02e4 d1be 2f80 563f 2c89 3d3f
000000f0: 3a53 d83e 1f6f c8be 072e 04bf c047 b7bf
00000100: a352 1640 93aa d1bd 14d8 babe cac7 febe
00000110: b7e3 be3f cd65 c2ba 3cd5 063f 2e68 e0be
00000120: 0a67 c4be f84a e93c ab7c 94bf 208b 283f
00000130: 7c21 4a3f 6c0b b3be e942 d83f c5f5 e6be
00000140: 31b9 45bf d40a f43e db50 87bd 031e a13f
00000150: aa3f 12bf 61fe ff3f f663 b83f c1ba 86bf
00000160: 2db2 9a3f 46f5 c43f 4362 f9bd da9d 30be
00000170: 3261 96bc ee6d 32bf 567f d1bf d079 0e3f
00000180: b7a9 b33f 8e06 d2bf fd5c b4bf 3bbf b93f
00000190: ec47 bcba 9453 a8be fe92 94bf edb1 963e
000001a0: 0f61 893f d1b3 a5be 73c0 0ac0 87fa b0bf
000001b0: 51f0 11bf 35d0 c03f 1adb 153f c883 283f
000001c0: 7a29 103f d152 e33f 15e9 883f 5104 b4be
000001d0: 102e 01bb bdf9 b0bf a756 4a3f 1311 0c40
000001e0: 49b2 8fbe c05b 2940 30ce 04c0 a509 c43f
000001f0: 474a 21be 144a bebe a227 ae3f e44b ad3f
00000200: 11ef 4a3f 8885 1f3f 1795 20bd 0517 e43f
00000210: 283f b13f 167d 2d40 6fb0 6a3f b7b1 b7bd
00000220: 6c21 9d3f 7f3b 4740 345f 9d3f 9165 2540
00000230: dbea c3be 4957 d2bf f0e4 853a 1f7d 863f
00000240: 4e13 e43e 461b 61bf 68f3 92bd a7c2 84be
00000250: 7e79 ad3f 4d39 2e3f 5390 a03f 11f2 813f
00000260: ca53 0a40 2793 e53f 7e53 0340 7f55 0d3f
00000270: 2b0a d63f 9554 1040 dccc c1be 0399 343f
00000280: 7aff 91bf 1488 60bf e821 e6be 3e33 babf
00000290: af51 b4be df3c 7ebf 4ecc ee3e 3b85 3e40
000002a0: f600 84be 7610 8e3d 872a 263f 0ba7 4a3f
000002b0: f282 f83e e2ab 043f 2d9c f63f c0d4 813e
000002c0: 4bb0 82be 17ab 293f 0d33 443f 8ffa 543f
000002d0: ef4c aa3e 421b ccbf 0abc b6bf 290d d13f
000002e0: 989d dd3f 56f2 4c40 7e7f b33e 044e 153e
000002f0: b5d3 57bf 94eb c93f 759b 863f e251 35bf
00000300: 3960 623f 57fe 1d40 f5f2 363f 594c 863f
00000310: 4ec7 843c 7a45 2940 b892 df3f bceb 843e
00000320: ad9d a93f fddf 43bf 2273 4a3f 2b2c febe
00000330: 23e0 313d cd9e 6b3f 4f52 613f 7a88 4a3d
00000340: d4b3 223f 2a08 c13f ee13 0740 6812 bc3f
00000350: e18c d43e e112 8abe 079f 913f d659 813d
00000360: 8b29 5440 75ec f33d c59a ef3d 3a97 80bd
00000370: 7742 143f 0c66 a13f c900 e7be 2076 953f
00000380: c5e6 b4bf 4ac5 c0bf 6f71 6c3f 8bed 85be
00000390: 9b8a 0740 41ba 22bf e90d bf3f dff6 d33d
000003a0: 5487 1e40 5f3e d23f 889d 1b3f 34c7 1c40
000003b0: 8d7f bd3f d5ca 663f e5fa c33f 66ec a83f
000003c0: fc75 51bf 8738 ef3f 0f2f e1be 8cff f43e
000003d0: c228 1bbe 587d 6ebf 2c82 6839 6fbd 26bf
000003e0: 9472 b13f ddbf 843f 4fc4 883e fcdc 9f3f
000003f0: fe2a 123f 64ef 0c40 8ef0 fb3f 35c3 a83f
-0.06891499 -0.15591091 -1.4203146 -1.4892533 1.3583146 -0.3957532 -0.9529045 0.15378799
1.0453945 0.31599018 -1.3830742 0.124094725 0.894986 1.524789 -0.9375197 0.8712827
-1.2857172 0.55847704 0.78287375 0.9952679 -2.0655622 -0.057100713 0.8183066 1.0115789
-0.25439513 -1.1931416 1.1308061 0.054922838 0.6007708 -0.30802217 2.045542 0.03363215
0.4207878 -0.77842766 -0.80594647 -1.1296879 0.69183224 -0.10908335 -0.7682391 1.1693122
-0.056853402 -0.33165756 -1.1932353 -0.9567817 0.38231838 2.1267862 0.4313082 -0.8704292
1.7844433 -0.8995596 -0.17775172 2.0388343 -1.3372276 -0.6580442 1.3114249 -0.77886266
-1.1310438 -0.4099427 0.8378934 0.7403743 0.42250997 -0.3914728 -0.5163273 -1.4318771
2.3487937 -0.102376126 -0.3649298 -0.49761802 1.4913243 -0.0014831364 0.5266912 -0.43829483
-0.38359863 0.02847813 -1.1600546 0.6583729 0.78957343 -0.34969652 1.6895419 -0.45109382
-0.77235705 0.4766451 -0.06607219 1.2587284 -0.57128394 1.9999505 1.4405506 -1.0525743
1.2085625 1.5387352 -0.12176945 -0.17247716 -0.018356893 -0.6969899 -1.6366985 0.5565462
1.4036168 -1.640825 -1.4090878 1.4511484 -0.0014364696 -0.32876265 -1.1607358 0.29432622
1.0732745 -0.32363752 -2.1679962 -1.3826455 -0.5700732 1.506354 0.5853745 0.6582608
0.5631329 1.7759649 1.0696131 -0.35159543 -0.0019711293 -1.3826214 0.7903847 2.1885421
-0.28065708 2.646225 -2.0750847 1.5315443 -0.15750991 -0.37165892 1.3605845 1.3538785
0.79271036 0.6231313 -0.039204683 1.7819525 1.3847399 2.7107596 0.91675466 -0.08969443
1.2275825 3.1130064 1.2294679 2.5843241 -0.38265118 -1.6432887 0.0010215323 1.0506934
0.44545978 -0.8793224 -0.07175332 -0.25929758 1.3552701 0.68056184 1.2544044 1.0151998
2.161364 1.7935532 2.051971 0.5520858 1.6721853 2.2551625 -0.37851608 0.7054598
-1.140609 -0.8770764 -0.44947743 -1.4546888 -0.3521857 -0.9931163 0.46640247 2.9768817
-0.25781983 0.069367334 0.6490864 0.7916114 0.48537403 0.5182477 1.9266411 0.25357628
-0.25525126 0.6627669 0.766404 0.8319482 0.3326182 -1.5945818 -1.4276135 1.6332141
1.7313719 3.202291 0.35058206 0.14580542 -0.84307414 1.5775018 1.0516192 -0.7082807
0.88428074 2.4686487 0.71464473 1.049205 0.016208317 2.6448655 1.746665 0.259611
1.3251244 -0.76513654 0.7908193 -0.49643072 0.043426644 0.92039186 0.8801622 0.04944656
0.63555646 1.5080616 2.1105914 1.4693117 0.41513732 -0.26967528 1.1376656 0.06315963
3.3150356 0.11910335 0.11699442 -0.06278844 0.5791392 1.2609267 -0.45117787 1.1676674
-1.4132925 -1.5060208 0.92360586 -0.26157793 2.1178348 -0.6356545 1.492612 0.10349821
2.4770098 1.6425284 0.6078725 2.4496584 1.480455 0.9015325 1.5310942 1.3197143
-0.81820655 1.8689126 -0.43981215 0.47851217 -0.15152267 -0.9316001 0.00022173737 -0.651328
1.3863091 1.0371052 0.26712272 1.2489314 0.5709685 2.2021112 1.9682786 1.3184572

c.weight f4 [17747, 1]
00000000: e244 9ebe 71f7 383e f95f 15bf ca5f a2bf
00000010: 32e2 fb3d face dcbf fc56 4fbe 331e 47bf
00000020: ff20 473f 6f3b 483e d2cc 70be 2d01 ee3e
00000030: cb39 80bf 24f8 7cbf 092b b63e 51ea 8b3f
00000040: c22e 0fbe 655c ad3e d4ef 243e 613b 9fbe
00000050: 36e4 30bd c166 04bf 6a05 973e 12f7 89bf
00000060: 9966 3a3e 96cb a2bf d273 7c3e b55b 33be
00000070: 2359 2dbc 9da9 ab3e e251 883d 344e a23d
00000080: 3774 c4bf 3052 4bbf a29a 563f d90c 203f
00000090: 1172 45be 934b 623d 4375 73bd dff8 fabe
000000a0: 467d 9bbe 60fb 033d 111e 3abf f72a 2dbf
000000b0: 7801 2dbf 971a 303c e5af 373e 66cb 1bbf
000000c0: aa70 9b3f 197c 47bf 6cf2 8bbe eb41 943e
000000d0: 0f95 9e3e 6c17 90bf 71a1 753e 487f c4bf
000000e0: 9736 a5bf aeb2 83be 723c 2d3e 31b1 c4be
000000f0: 9b38 c43f 95fb 3abf 95ad 0c3f f56c 7a3e
00000100: 442b 423e 34b2 2f3f 2065 29c0 10bf 01be
00000110: 6b87 ed3d a8a7 4abd 22ed f53e 4da8 cabe
00000120: e8eb 143e e817 143f ff9c 85bf c691 acbf
00000130: 0036 b3bd ba8a 473f ba54 533e 4762 013f
00000140: 2c80 8abe 552b 8bbf 9121 113e 4cd0 5f3d
00000150: d3d6 6ebf 9dce 46bd 1d68 2c3f b8d6 53bb
00000160: 2494 9c3f 959a fcbe 20a0 163d 8288 19bf
00000170: 9c79 e8be fbc3 e2bd 4c4d 68bd 593a 0cbf
00000180: b32a 79bd 7a11 fc3e 7c5a bf3f c3a0 883d
00000190: aca9 283d 865d 5dbe 8f32 72be d38f 723f
000001a0: 58f6 72bf 4666 943e 4104 9c3f b634 1b3f
000001b0: f923 b13e 8429 8c3f d64b e3be ee81 863f
000001c0: 8616 833d 855a 623f 2e4d 82c0 e1cd 10bf
000001d0: 189e ea3e 61a4 843f 54ee bdbe 08e2 cebe
000001e0: 05b3 bc3e f929 363f 1f53 fe3e a097 0a3f
000001f0: 3928 b1be 391f 2a3e f7f0 013f 422f a73f
00000200: 6a13 f03e 86d2 f3bd 4097 943f 0f9d 223e
00000210: 23a9 063e 68bc cfbe f916 acbf 06d6 2ebf
00000220: 41a5 bcbf d575 78bf 5567 d0bf c044 8dbf
00000230: 33ab 76bf 5ed5 3f3d 9897 75be 85b1 013e
00000240: 8f3b 83be 3684 8bbe 9bfc 60bf 484b 85bf
00000250: 5409 abbf 53fa bdbf a779 aebf 3b1a 16bf
00000260: d9e6 18bf 2a3b 453e 4b84 163f 429a e4be
00000270: b569 b3be 1ede fbbf 6105 eabe 87c9 17bf
00000280: 3a7a d1be 5d59 dbbe c9d6 61be 973c 1540
00000290: bc81 86be 52e3 a6bf 915b 5bbe 4f01 15be
000002a0: a908 bcbf ee5c 2cc0 7dcd d1bf bb23 6fbf
000002b0: 4081 bdbf 5b3e 973d 74f9 ff3e ef90 91be
000002c0: 4cdc e1bf 75ba a7bf a381 123f ed75 103f
000002d0: 4227 223f 403d 793e 9f61 eebe 0257 71bf
000002e0: 409f 02bd a50b 43be 1f87 4ebf 6dcb 373e
000002f0: 3670 2fbb e82f bebf 97fc 593e 26c3 09c0
00000300: 9175 f33e 35cf f53e 83f5 06c0 a1c5 36be
00000310: 21b7 f7bf 9686 dc3e 093e 64bf b3a8 b3bf
00000320: 8540 10c0 bc0e f0be a362 07c0 7d1e ccbf
00000330: 187a 5ebf 369f 013f be14 863d e67b 62bd
00000340: 5e2a 693f ff40 a03e 893c cdbe f25f 5abe
00000350: 80ff 7c3e 3a19 4b3f bc1c 293f 98d7 1dbd
00000360: fbc8 ebbd ee56 b03e 8d46 4a3e 5658 5abf
00000370: 0127 74bf 87b4 62bf 483a 7fbf 24c9 6b3f
00000380: 25a1 92be b774 30be 55bb 54bd e109 85be
00000390: b1d9 2f3e b572 683f 8517 c53e bac6 10c0
000003a0: 97a4 aebf 257c ddbe 00c0 04c0 c516 07c0
000003b0: 7982 bfbe 9be0 1cbf e6cc 523e 0baa 04bf
000003c0: b22d 823f 0424 5ebf ba3b df3d e3ce 3e3f
000003d0: 06e3 b8bf 2723 11be 4087 50be c378 a4be
000003e0: c20d 74bf dc1b 9cbf f3fc 24bf 3cef 50bf
000003f0: f00c e4bf 1689 55bd b2b2 7bbf 0c4d ab3e
-0.30911928 0.18063141 -0.5834957 -1.2685483 0.12299003 -1.7250664 -0.20248026 -0.77780455
0.77784723 0.19553922 -0.23515633 0.46485272 -1.0017637 -0.9881613 0.35579708 1.0930883
-0.1398268 0.33859554 0.16107112 -0.3109999 -0.04318639 -0.5171929 0.29496318 -1.0778525
0.182032 -1.271838 0.24653557 -0.17515452 -0.010580334 0.33527842 0.06656243 0.07925072
-1.5347966 -0.79422283 0.838297 0.62519604 -0.19281794 0.055247854 -0.059438 -0.49018
-0.30369014 0.03222215 -0.7270213 -0.67643684 -0.67580366 0.010748527 0.17938192 -0.60857236
1.2143757 -0.77923733 -0.2733339 0.2895654 0.30973098 -1.1257148 0.23987366 -1.5351343
-1.2907284 -0.2572226 0.1691759 -0.38416436 1.5329775 -0.73040134 0.54952365 0.24455626
0.18961817 0.6863129 -2.6467972 -0.12670541 0.115980946 -0.049476296 0.4803248 -0.39581528
0.14543116 0.5784898 -1.0438536 -1.3481987 -0.08750534 0.77946055 0.2063779 0.50540584
-0.27050912 -1.0872599 0.14172961 0.054642007 -0.93296546 -0.048536886 0.67346364 -0.0032324027
1.2232709 -0.49336687 0.0367738 -0.5997392 -0.4540528 -0.110725366 -0.05671434 -0.5477653
-0.060831737 0.49232084 1.4949489 0.06671288 0.041177437 -0.21617708 -0.23652099 0.9475071
-0.9490714 0.28984278 1.2188798 0.60627306 0.34597757 1.095017 -0.44393796 1.0508401
0.064007804 0.8841937 -4.0719213 -0.56564146 0.4582374 1.0362664 -0.37095892 -0.40406823
0.3685533 0.71157795 0.4967279 0.5413761 -0.34601 0.16613473 0.5075831 1.3061297
0.46889812 -0.119053885 1.1608658 0.15880226 0.13150458 -0.4057343 -1.3444511 -0.68295324
-1.4737931 -0.970548 -1.6281534 -1.1036606 -0.9635498 0.046834342 -0.2398361 0.12665375
-0.25631377 -0.27249306 -0.87885445 -1.0413599 -1.3362222 -1.4842018 -1.3630875 -0.58633775
-0.59727246 0.1926085 0.58795613 -0.4464894 -0.35041586 -1.967716 -0.4570723 -0.5929188
-0.40913564 -0.42841616 -0.2205459 2.331823 -0.26270854 -1.3038123 -0.21421649 -0.1455128
-1.4690143 -2.693172 -1.6390835 -0.93413895 -1.4805069 0.0738494 0.49995005 -0.28430888
-1.7645354 -1.3103777 0.5722906 0.5642994 0.6334115 0.24339771 -0.46558854 -0.9427339
-0.031890154 -0.19047411 -0.8067493 0.17948695 -0.0026769764 -1.485837 0.21287762 -2.152536
0.47550634 0.4800965 -2.1087348 -0.17848827 -1.9352762 0.4307143 -0.8915716 -1.4035858
-2.253938 -0.4688624 -2.1153953 -1.5946804 -0.8690505 0.5063356 0.06546925 -0.05529394
0.9108027 0.31299588 -0.40085247 -0.21325663 0.2470684 0.7933537 0.6605947 -0.038535684
-0.11512943 0.34441322 0.19753475 -0.8529104 -0.95372015 -0.8855671 -0.99698305 0.9210379
-0.2863857 -0.17232023 -0.051936466 -0.259841 0.17172886 0.9080003 0.38494506 -2.2621293
-1.3643979 -0.43258777 -2.0742188 -2.1107647 -0.3740423 -0.6128022 0.20585975 -0.51821965
1.0170195 -0.86773705 0.10900064 0.74534434 -1.4444282 -0.14173566 -0.20364094 -0.32123384
-0.9533349 -1.2196002 -0.6444847 -0.8161504 -1.7816448 -0.05213269 -0.9831954 0.3345722
