IRT/irt_model.pth (torch, 324768 bytes, 4 tensors)

theta.weight f4 [27424, 1]
0	0xbf304ee7	-0.68870395
1	0x3f9af99b	1.2107424
2	0xbe2bfbc8	-0.16795266
3	0x3f3612d8	0.71122503
4	0x3f5d0315	0.8633283
5	0x3c3c9bd6	0.011511764
6	0x3f117b93	0.56829184
7	0x3ec66915	0.38752046
8	0xbfe1ddbe	-1.7645795
9	0x3fb2476a	1.3928044
10	0xbf342e4a	-0.7038313
11	0x3e46d85e	0.19418475
12	0xbeb49a88	-0.35274148
13	0x3fb6d70b	1.4284376
14	0xbfcd0773	-1.6017898
15	0xbfbc2bc0	-1.4700851
16	0xbeee4e93	-0.46544322
17	0xbf808a39	-1.0042182
18	0xbfc4c4d1	-1.5372564
19	0x3f81cf97	1.0141476
20	0xbfd8f6b3	-1.6950287
21	0xbfe416ad	-1.781942
22	0x3ff1483f	1.8850173
23	0xbf31e9db	-0.6949746
24	0x3e2ad7e6	0.16683921
25	0x3f1f3d2e	0.6220273
26	0xbfd74218	-1.6817045
27	0xbfb49a42	-1.4109576
28	0xbf82734c	-1.0191436
29	0xbf116465	-0.56793815
30	0xbef65734	-0.48113406
31	0x3f6e2c1c	0.93036056
32	0xbe98389f	-0.29730698
33	0xbd41517d	-0.047196854
34	0xbeec5a7f	-0.46162793
35	0xbeb1a969	-0.34699562
36	0xbf8558d1	-1.041773
37	0xbf331fa9	-0.69970185
38	0xbf9b3985	-1.2126929
39	0x3f38f2be	0.72245395
40	0xbf29d9ab	-0.6634776
41	0xbe8bced3	-0.27306232
42	0xbf1714ef	-0.5901632
43	0x3e5178ec	0.20456284
44	0xbe64a022	-0.22326711
45	0xbe890343	-0.267603
46	0x3e77d08a	0.24200645
47	0x3f64c3d4	0.8936131
48	0xbf0ce4b8	-0.550365
49	0xbf7f3991	-0.99697214
50	0xbf3ddf68	-0.74169016
51	0x3fd2141e	1.6412389
52	0x3f06b068	0.52612925
53	0xbfde21a5	-1.7354017
54	0x3eb6b8b1	0.35687783
55	0x3fa2e966	1.2727478
56	0xbffa5f43	-1.9560322
57	0xbe8e738b	-0.27822527
58	0x3f106873	0.56409377
59	0xbeeb69c4	-0.4597913
60	0xbf6985a1	-0.91219527
61	0x40158d2d	2.3367417
62	0xbec087cc	-0.37603605
63	0x3dba7e1c	0.09106085
64	0xbf6c876a	-0.92394125
65	0xbfad7f4f	-1.3554476
66	0x3f17b1d6	0.5925573
67	0x3b7f7e11	0.0038985054
68	0x3f2eefd6	0.6833471
69	0x3e49a43e	0.1969156
70	0xbecf54a7	-0.40494272
71	0x3f38dd5f	0.72212785
72	0x3fe98e8a	1.8246624
73	0x3f7e5d15	0.9936078
74	0x3fb48160	1.4101982
75	0x3e9e81d0	0.30958414
76	0x3f94e26f	1.1631602
77	0x3d386a4e	0.045023255
78	0x3dfee32f	0.124456756
79	0xbfa852a8	-1.3150225
80	0x3ea0e93f	0.31427953
81	0xbed45108	-0.41468072
82	0xbf6cc145	-0.92482406
83	0x3e23d430	0.15998912
84	0xbe99282a	-0.29913455
85	0x3f90943d	1.1295239
86	0xbeb9a76b	-0.36260542
87	0x3fe7110b	1.8052076
88	0xbfa21f1c	-1.2665744
89	0x3d5e5581	0.05428076
90	0x3f79c4a5	0.9756568
91	0x3f8ad10d	1.0845047
92	0xbca72bfd	-0.020406717
93	0x3f8d2e1d	1.1029698
94	0xbf4d78e5	-0.80262595
95	0x3f2511ff	0.64480585
96	0x3ec3ce90	0.38243532
97	0xbf9a87b4	-1.2072663
98	0x3f57b9f1	0.842681
99	0x3f36a2fc	0.71342444
100	0xbf8eef3c	-1.1166759
101	0xbeae3ab1	-0.34029153
102	0x3facef0d	1.3510453
103	0x3f4b668e	0.7945336
104	0xbfee873c	-1.863502
105	0x3f140798	0.5782409
106	0x3f01bc4a	0.5067793
107	0xbfbcceb0	-1.4750576
108	0xbe49411c	-0.19653744
109	0xbf6cfa46	-0.92569387
110	0xbfcb8139	-1.5898811
111	0x3c40742e	0.011746449
112	0xbfb49f63	-1.4111141
113	0xbf7e2c4c	-0.9928634
114	0xbe33530e	-0.17512152
115	0xbf612d67	-0.87959903
116	0xbdca060d	-0.09864435
117	0xbff2cd58	-1.8968916
118	0xbf895ece	-1.0732057
119	0xbf921f55	-1.1415812
120	0xbf1f83ba	-0.62310374
121	0x3ca3703b	0.019950977
122	0x3d94387b	0.07237335
123	0xc01b5003	-2.4267585
124	0x3ec378b4	0.38178027
125	0x3fb4a722	1.4113505
126	0xbfea0974	-1.8284135
127	0xbf938954	-1.1526284
128	0x3f7bf43f	0.98419565
129	0xbfbffec1	-1.499962
130	0x3e110baf	0.14164613
131	0x402adbdc	2.6696692
132	0x3e951d9c	0.29124153
133	0x3eeacdce	0.45860142
134	0xbeb74a61	-0.35798934
135	0x3f174572	0.5909034
136	0x3eff40ad	0.4985403
137	0x3ee52e08	0.44761682
138	0x3ebffb7c	0.37496555
139	0x3fbb3b36	1.4627445
140	0xbf572889	-0.84046227
141	0xbf0096d6	-0.5023016
142	0xbf430e62	-0.7619382
143	0xbf1c4019	-0.61035305
144	0xbd48d6f5	-0.049033124
145	0xbf1394f7	-0.5764918
146	0xbde2f09c	-0.11081049
147	0x3f20fed9	0.62888867
148	0x3e7a16ab	0.2442271
149	0xbebd2b7a	-0.36947232
150	0xbfbc3745	-1.4704367
151	0xbfa505ce	-1.2892396
152	0xbf497102	-0.7868806
153	0xbf534e07	-0.82540935
154	0xbe5019d1	-0.20322348
155	0xbffcbdfb	-1.9745477
156	0xbdad4194	-0.08459774
157	0xbe58ba03	-0.21164708
158	0xbcd91c46	-0.02650274
159	0x3e3543b0	0.17701602
160	0xbf295152	-0.6613971
161	0xbf8b0d00	-1.0863342
162	0x3be191b5	0.0068838247
163	0x3f13c108	0.5771642
164	0x3f765255	0.9621938
165	0xbe355598	-0.17708433
166	0x3f8aac46	1.0833824
167	0x3f3155e3	0.6927168
168	0x3ffaeaa4	1.9602857
169	0x3fa3463a	1.2755806
170	0xbfc58f32	-1.5434325
171	0xbefb2b16	-0.4905631
172	0xbfc579d8	-1.5427809
173	0xbef06790	-0.46954012
174	0xbd5edad5	-0.054407913
175	0xbf358f27	-0.7092156
176	0xbeb71bc0	-0.3576336
177	0x3fb5f710	1.4216022
178	0x3f33903e	0.7014197
179	0xbf9452a9	-1.1587726
180	0x3f699987	0.9124989
181	0xbea1ce1b	-0.31602558
182	0xbf87dfa9	-1.0615131
183	0x3f40cd8b	0.75313634
184	0x3f9dfc12	1.2342551
185	0xbdcd9805	-0.10038761
186	0xbf6d37c7	-0.92663234
187	0xbe863cf5	-0.26218382
188	0xbf03c56a	-0.51473105
189	0x3e31ccfb	0.1736335
190	0xbf1657f8	-0.5872798
191	0xbf6f7465	-0.9353698
192	0xbd98dfd3	-0.07464566
193	0xbf5c3cd5	-0.8603032
194	0x3fb445be	1.4083784
195	0xbf6aa887	-0.916634
196	0xbf71ab38	-0.94401884
197	0xbfac9b0f	-1.348482
198	0x3eef8959	0.46784475
199	0x3d6cb694	0.057791308
200	0xc0192cd5	-2.3933613
201	0x3f82ca3d	1.0217968
202	0x3f3c649d	0.73591024
203	0x3d9d3ad9	0.0767724
204	0x3f145632	0.57944024
205	0x40011fee	2.0175738
206	0x3e6beebe	0.23040292
207	0xbea87086	-0.3289835
208	0xbe129dd3	-0.14318018
209	0xbf9fb9d6	-1.2478588
210	0xbcbac38b	-0.02279832
211	0x3f654a3e	0.8956641
212	0xbfad0739	-1.3517829
213	0x3d8bd5fd	0.068279244
214	0x3f628e18	0.8849807
215	0xbf9fed69	-1.2494327
216	0x3e7add21	0.24498416
217	0x3f01665e	0.50546825
218	0x3fd26201	1.6436158
219	0x3f9e9959	1.2390548
220	0xbf4a15f6	-0.7893976
221	0x3f3ab3f7	0.72930855
222	0xbeab22df	-0.33425042
223	0x3fddeace	1.7337282
224	0x3f2648ff	0.64955133
225	0xbeaec502	-0.3413468
226	0xbf1d637c	-0.61479926
227	0xbf13f279	-0.5779186
228	0xbea141da	-0.31495553
229	0xbf1df21a	-0.6169754
230	0x3e06f926	0.1318098
231	0xbd1ab483	-0.037769806
232	0x3fa27b0a	1.2693799
233	0x3ed3c120	0.4135828
234	0x3e847add	0.25874987
235	0xbf8dfcb9	-1.109275
236	0xbe8ac367	-0.27102205
237	0xbfad05b4	-1.3517365
238	0x3e79e803	0.24404912
239	0xbdd61180	-0.104525566
240	0xbf0dfc16	-0.5546278
241	0xbf2a1dbd	-0.66451627
242	0xbe174d5f	-0.14775608
243	0x3f4bd245	0.7961772
244	0xbf06d503	-0.5266878
245	0xbdc3127e	-0.095250115
246	0x3d1461c3	0.036226045
247	0x3ee5cdda	0.44883615
248	0x3e9222ac	0.28542078
249	0x3e0b61ef	0.13611577
250	0xbf9cae8b	-1.2240766
251	0xbebd03f1	-0.3691707
252	0xbfe93a59	-1.8220931
253	0x3eaa6e14	0.33287108
254	0x405b4df3	3.4266326
255	0x3fb938f5	1.4470507

a.weight f4 [17747, 1]
0	0xbf3207e7	-0.6954331
1	0xbfda7d72	-1.7069533
2	0xc003cbf1	-2.0593226
3	0xbfef835d	-1.8711964
4	0xbf675671	-0.90366274
5	0xbeff0e1b	-0.4981545
6	0x3f96bd27	1.1776475
7	0xbfa3047d	-1.2735745
8	0xbfa3b303	-1.2789005
9	0xbf2809e2	-0.6564008
10	0xbe136000	-0.1439209
11	0xbfc66c68	-1.5501833
12	0xbf3e2629	-0.7427698
13	0xbf1d8049	-0.6152387
14	0xbf898423	-1.074345
15	0x3f8d937f	1.1060637
16	0x3e7e0138	0.24805152
17	0xbf9b80d7	-1.2148694
18	0xbfd9f1b1	-1.7026883
19	0xbf11e569	-0.5699068
20	0x3e230dc8	0.15923226
21	0xbf64fbce	-0.89446723
22	0xbeb5aa6c	-0.35481584
23	0xbf95a4a6	-1.1690872
24	0xbebbfb4f	-0.3671517
25	0xbdf89ea2	-0.12139632
26	0xbf02f9b3	-0.5116226
27	0xbf90bb4e	-1.1307161
28	0xbfa86f07	-1.3158883
29	0xbf90a868	-1.1301394
30	0xbe9d79fd	-0.30757132
31	0xbfdeb3a7	-1.7398576
32	0x3ea30cf5	0.31845823
33	0xbf2b7af8	-0.6698451
34	0xbf47911f	-0.7795581
35	0xbf335734	-0.70054936
36	0xbf2d462d	-0.67685205
37	0x3d195f19	0.037444208
38	0xbefedea2	-0.4977923
39	0xc0281210	-2.6261024
40	0xbfc55a06	-1.5418098
41	0xbe7a3a3c	-0.24436277
42	0x3f065392	0.5247127
43	0xbfca1fbd	-1.5790936
44	0xbf3f09be	-0.7462424
45	0xc024b353	-2.573445
46	0xbfce918b	-1.6138166
47	0x3f43bcb4	0.76459813
48	0x3da29068	0.079376996
49	0xbf1d8fc2	-0.6154748
50	0xbf8176b2	-1.0114348
51	0xbf44d10f	-0.768815
52	0xbfb98ccb	-1.4496092
53	0xc03953f6	-2.8957496
54	0xbfc368eb	-1.5266393
55	0xbf26a79c	-0.650995
56	0xbf45e155	-0.77296954
57	0xbdec3990	-0.11534417
58	0x3d8060a4	0.06268433
59	0xbefdec0f	-0.4959416
60	0xbf8ada7f	-1.084793
61	0xbdf8044e	-0.12110196
62	0xbed8d3ec	-0.42349184
63	0xbf9f2a12	-1.2434714
64	0xbf2fe95b	-0.6871545
65	0x3f820592	1.015795
66	0xbf475ee0	-0.7787914
67	0xbf2e639c	-0.6812074
68	0xc016e7c5	-2.357896
69	0xbeae00a1	-0.33984855
70	0xbf77181c	-0.96521163
71	0xbf0efee7	-0.558577
72	0xbffd919d	-1.9810063
73	0x3f0d34d6	0.55158746
74	0x3fac2277	1.3448018
75	0xc039b1db	-2.9014804
76	0xbfc35c8e	-1.526262
77	0x3e57bae5	0.21067388
78	0xbf5093a5	-0.8147529
79	0xbef36b6c	-0.47542894
80	0xc013d72e	-2.3100085
81	0xbfe93fe1	-1.8222619
82	0x3e87c853	0.26520023
83	0xbe040f57	-0.12896477
84	0xbda00bc5	-0.07814745
85	0xbe15b59f	-0.14620064
86	0xbf24ea06	-0.6441959
87	0xbfa87d2a	-1.3163197
88	0xbe472e8b	-0.19451348
89	0x3fea6f41	1.8315202
90	0xbfab5f82	-1.3388522
91	0x3e8a3e51	0.2700067
92	0xbfd46fa4	-1.659657
93	0xbf4d6a2c	-0.8024013
94	0xbf56fb87	-0.8397755
95	0xc01326d1	-2.2992442
96	0xbe99999f	-0.30000016
97	0xbe6f3c18	-0.23362768
98	0xbfb791d3	-1.4341377
99	0xbf68dd9f	-0.90963167
100	0xbff1a39a	-1.8878052
101	0xbf05da18	-0.5228591
102	0xbe94dce4	-0.29074776
103	0xc01e5a99	-2.4742796
104	0xbe839676	-0.2570073
105	0xbd2b6729	-0.041846428
106	0x3e660ddd	0.22466226
107	0xbfa5658b	-1.2921613
108	0x3e300226	0.1718832
109	0xc0027902	-2.0386357
110	0xbf64c55f	-0.89363664
111	0xbfc70dec	-1.5551124
112	0xbfa66dd6	-1.3002269
113	0xbf6771d5	-0.9040807
114	0x3f71b3a4	0.94414735
115	0xbeeca7b0	-0.46221685
116	0xbf6a8ec3	-0.9162409
117	0xbfea846e	-1.8321664
118	0xbfd5fb1e	-1.671726
119	0xbffb4ed4	-1.9633431
120	0xbfeb95c9	-1.8405086
121	0xbf1b7b97	-0.6073546
122	0x3e06822a	0.13135591
123	0xbfb16ca5	-1.3861281
124	0xbf65b019	-0.8972183
125	0x3e5739ef	0.21018194
126	0xbd9156a8	-0.070966065
127	0xbf140072	-0.5781318
128	0xbf5ac792	-0.8546077
129	0xbebd5ae6	-0.36983413
130	0xbf036450	-0.5132494
131	0xbfff7164	-1.9956479
132	0x3f06ec3b	0.5270421
133	0x40112dfd	2.268432
134	0xbeb4bb82	-0.35299307
135	0xbff0d58f	-1.8815173
136	0x3edcd206	0.43128985
137	0x3f8f7b64	1.1209531
138	0x3e9eba9d	0.3100175
139	0xbeada945	-0.33918205
140	0xbff34b9c	-1.9007449
141	0xbf6b9c63	-0.920355
142	0xbf6d8141	-0.9277535
143	0xbf51d166	-0.8196014
144	0x3ebfbafa	0.3744734
145	0xbf849727	-1.0358628
146	0x3dfd875d	0.12379334
147	0xc03c47f7	-2.9418924
148	0x3f4579d1	0.77139
149	0x3f79c287	0.9756245
150	0x3ed0c189	0.40772656
151	0xbf95cfeb	-1.1704077
152	0x3fbd7b3a	1.4803231
153	0x3f2b9324	0.67021394
154	0xbfe48ea6	-1.7856033
155	0xbdf9de87	-0.12200647
156	0xbca40132	-0.020020101
157	0xbf008ed0	-0.50217915
158	0xc0039518	-2.055975
159	0x3e7e67c6	0.24844274
160	0xbf5c6405	-0.8609012
161	0x3ea6afe8	0.3255608
162	0xbf33a874	-0.70178914
163	0x402d59e5	2.7086117
164	0xbf46b211	-0.7761546
165	0xbf57402b	-0.8408229
166	0x3d4a9f04	0.049468055
167	0xbf088cc5	-0.533398
168	0xbfa52512	-1.2901938
169	0x3f6030da	0.8757454
170	0x3faf5e7f	1.3700713
171	0xbf895f9a	-1.07323
172	0xbf66b92c	-0.901263
173	0xbe406305	-0.18787773
174	0x3f9fd4da	1.2486832
175	0xbf43ddfa	-0.76510584
176	0xbe81993b	-0.25312218
177	0xbf5415b8	-0.8284564
178	0xbfbee84c	-1.4914641
179	0xbee9785e	-0.45599645
180	0xbf844e1c	-1.0336337
181	0x3dc4befc	0.0960674
182	0xbf9d680a	-1.2297375
183	0xbef68ad6	-0.48152798
184	0xbfc68081	-1.5507966
185	0x3f75bbe7	0.9598984
186	0xbf24c3fa	-0.64361537
187	0xc04abb78	-3.1676922
188	0x3eb4496e	0.35212272
189	0x3d193aa0	0.037409425
190	0xc00e5d68	-2.224451
191	0xbfea1615	-1.8287989
192	0xbf1037ac	-0.5633495
193	0xbf357750	-0.7088518
194	0x3d901cb0	0.07036722
195	0xbe8cc7e3	-0.2749625
196	0xbf83ef61	-1.0307428
197	0xc00362e7	-2.0529115
198	0x3f84b3c9	1.0367366
199	0xbde527a8	-0.111892045
200	0x3f546a63	0.82974833
201	0x3ea1f8af	0.31635043
202	0xbefb8c40	-0.4913044
203	0xbf7c4a76	-0.9855112
204	0x3fb65868	1.424573
205	0xbe8b5c41	-0.27218822
206	0xbff9ec0d	-1.9525162
207	0xbe1abdbb	-0.15111439
208	0xbe4c2c0d	-0.19938679
209	0xbf91753b	-1.1363901
210	0x3f14b52e	0.5808896
211	0x3de97c2b	0.11400636
212	0xbf395202	-0.7239076
213	0xbf3a5e87	-0.7280049
214	0xbf0c6f5e	-0.5485743
215	0xbf70bab1	-0.9403487
216	0xbf5f4c5e	-0.872259
217	0xbe949550	-0.29020166
218	0xbf635b06	-0.88810766
219	0xbf1ad290	-0.6047754
220	0xbf9b8665	-1.2150389
221	0xbe5d66fe	-0.2162132
222	0xbe83a1e3	-0.25709447
223	0xbdb068f9	-0.08613772
224	0xbf74d28e	-0.9563378
225	0x3f0b55fa	0.54428065
226	0xbeff7ffc	-0.49902332
227	0xbf5f451a	-0.87214816
228	0x3deeb376	0.11655323
229	0x3d44463b	0.04791854
230	0xbf83bfd8	-1.0292921
231	0xbf111d96	-0.5668577
232	0x3db3ca31	0.08778799
233	0x3f5b8305	0.85746795
234	0xbe905bf4	-0.28195155
235	0x3f0b9da3	0.5453741
236	0xbced48cd	-0.028965378
237	0x3ff1b3a9	1.8882953
238	0xbf95c62b	-1.1701101
239	0xbe3cce34	-0.18438035
240	0xbf01d3dc	-0.50713897
241	0xbf6aba0c	-0.91690135
242	0xbdf74c6d	-0.12075124
243	0xbfb46922	-1.4094584
244	0xbfb30e18	-1.3988676
245	0x3efc3585	0.49259582
246	0xbea22532	-0.31669003
247	0xbf485d4b	-0.78267354
248	0xbf9aa0d1	-1.2080327
249	0xc011d92d	-2.2788804
250	0xbf671a20	-0.9027424
251	0xbecdf94a	-0.40229255
252	0xbfca7abc	-1.5818706
253	0xbf451cd1	-0.76997095
254	0x3eb4fb0a	0.35347778
255	0x3f13df37	0.57762474

b.weight f4 [17747, 1]
0	0xbd57e805	-0.052711505
1	0xbfc09f2b	-1.5048574
2	0x3f6f807e	0.9355544
3	0x3f34853a	0.7051579
4	0xbf101f42	-0.56297696
5	0x3ee4f084	0.4471475
6	0x3fc4d2b3	1.53768
7	0xbf03835e	-0.51372325
8	0xbf0ee3fc	-0.55816627
9	0xbf22e3af	-0.6362867
10	0xbfcf715a	-1.6206467
11	0x3f47fd82	0.781212
12	0x3f29aa47	0.6627545
13	0x3f9a75fd	1.2067257
14	0xbfc29865	-1.5202757
15	0xbe9d7768	-0.30755162
16	0xbfa9d53e	-1.3268201
17	0xbf1c4bbb	-0.61053056
18	0x3fad06cc	1.3517699
19	0xbf013d9b	-0.5048463
20	0x3eca5a37	0.39521953
21	0x3fb8c912	1.4436362
22	0xbf8ddae6	-1.1082428
23	0x3f0fc780	0.5616379
24	0xbe410624	-0.18849999
25	0x3f7328df	0.9498424
26	0x3fbc81cf	1.4727114
27	0x3f61d13f	0.8820991
28	0x3d63b94d	0.05559664
29	0xbf16207a	-0.58643305
30	0xbda40e3a	-0.08010526
31	0x3fd5426a	1.6660893
32	0x3ffde9eb	1.9837011
33	0x3e8429dc	0.25813186
34	0xbed5cfc7	-0.41760084
35	0x3ed0d352	0.40786225
36	0x3e6ef747	0.23336516
37	0xbf9e46af	-1.2365321
38	0x3dc7408f	0.097291104
39	0x3f975d88	1.1825418
40	0xbf5c6681	-0.8609391
41	0x3d2ae679	0.041723702
42	0x3d87d162	0.066317335
43	0x3f818ec8	1.0121698
44	0x3e61e9f2	0.220619
45	0xbe8673cd	-0.26260224
46	0xbef43136	-0.47693795
47	0x3f605b39	0.87639195
48	0x3e6c042c	0.23048466
49	0x3dfc0d0c	0.12307176
50	0xbf59005d	-0.8476618
51	0x3f1dc2a2	0.6162511
52	0xbea9d459	-0.3316982
53	0xbf817a1d	-1.0115391
54	0x3ec97245	0.39344993
55	0x3f10c414	0.5654919
56	0xbf68255d	-0.9068201
57	0xbf66a92a	-0.90101874
58	0x3f1fe95a	0.6246544
59	0x3d23e6a2	0.04001487
60	0xbf27888a	-0.6544272
61	0xbe67425a	-0.22583905
62	0xbd00bf6e	-0.03143256
63	0xbf893e08	-1.0722055
64	0x3fa7597f	1.3074187
65	0x3efab540	0.48966408
66	0x3f9d73db	1.2300981
67	0xbf29910e	-0.6623696
68	0xbe76db53	-0.24107103
69	0xbeb6df01	-0.35717013
70	0xbf23ac06	-0.6393436
71	0xbe8c0d87	-0.2735407
72	0x3f490f09	0.78538567
73	0xbef87326	-0.4852535
74	0x40076247	2.1153734
75	0xbf02ddb5	-0.5111955
76	0xbe239fe1	-0.15978958
77	0xbec48e02	-0.38389593
78	0x3fc8c70a	1.5685742
79	0xbf19d93e	-0.6009711
80	0x3e8f8bc8	0.28036332
81	0x3f5348c0	0.8253288
82	0xbf857f88	-1.0429544
83	0x3f9d2f80	1.2280121
84	0x3f1d7476	0.6150583
85	0x3f3e0f30	0.74241924
86	0xbeaff228	-0.34364438
87	0xbe2677d1	-0.16256644
88	0xbe14574a	-0.14486423
89	0x3eee6a7c	0.46565616
90	0x3fdf9013	1.7465843
91	0xbec5098b	-0.38483843
92	0x3ee06102	0.4382401
93	0xbf08526a	-0.53250754
94	0x3dd650a4	0.104646
95	0x3bb099c1	0.0053894226
96	0xbf6330a9	-0.88746125
97	0xbf6f0ecb	-0.9338195
98	0x3f0673c8	0.5252042
99	0xbeb9c770	-0.3628497
100	0xbf951ace	-1.1648805
101	0x3f3128e5	0.69203025
102	0xbf6ddefd	-0.9291838
103	0xbf7a0aa5	-0.9767249
104	0x3f6ecf96	0.932855
105	0x3f0d0b4d	0.5509537
106	0xbfd28ffe	-1.6450193
107	0x3ead9c74	0.33908427
108	0xbf831ce3	-1.024319
109	0x3eeb04de	0.4590215
110	0x3e15c373	0.14625339
111	0x3f261570	0.6487646
112	0xbd47d999	-0.0487915
113	0xbe8ed20f	-0.27894637
114	0x3fdd74e9	1.7301303
115	0x3ea35893	0.31903514
116	0x3f65f493	0.89826316
117	0xbf1950fe	-0.5988921
118	0x4025e8fe	2.5923457
119	0xbe585f81	-0.21130182
120	0xbe3bccb5	-0.18339808
121	0x3dc1157b	0.09427925
122	0xbf8fe07a	-1.124038
123	0x3cbe5a1d	0.023236329
124	0x3def5245	0.116856135
125	0x3f22832c	0.634814
126	0xbf92c734	-1.1467042
127	0xbeadc93f	-0.339426
128	0xbf1a6701	-0.6031342
129	0x3f77e557	0.9683432
130	0xbef28f1a	-0.47374803
131	0x3f164b22	0.58708394
132	0xbf8fdb76	-1.1238849
133	0x40340bc8	2.813219
134	0x3f8e7a01	1.1130983
135	0xbed6c725	-0.4194881
136	0x3faaa17f	1.3330535
137	0x400acea6	2.1688628
138	0x3f33a05e	0.70166576
139	0x3fe453e0	1.7838097
140	0x3f503424	0.8132956
141	0x3e6bc0f2	0.23022822
142	0x3ec229fd	0.3792266
143	0x3e3dfb5d	0.18552919
144	0x3f9ab185	1.2085425
145	0xbf80f262	-1.0073969
146	0x3ffc26cb	1.9699339
147	0xbf311925	-0.6917899
148	0x3fb4dda3	1.4130138
149	0x3f8f2cd1	1.1185552
150	0x3f9d0e85	1.2270056
151	0xbf49700e	-0.78686607
152	0x40175821	2.364754
153	0x3fa3fe35	1.2811953
154	0x3bf3bafa	0.007438061
155	0x3fcf1454	1.6178079
156	0x3f115224	0.5676596
157	0x3f6ef192	0.9333736
158	0x3efd4e9a	0.4947403
159	0x3f7a5e7b	0.97800416
160	0xbe5c1fd7	-0.21496521
161	0x3fbd7746	1.4802024
162	0x3edc89f3	0.43073997
163	0xc01ef9d2	-2.4839978
164	0xbee8c5a5	-0.4546329
165	0xbef478fc	-0.47748554
166	0xbfa23fc0	-1.2675705
167	0x3eef9797	0.4679534
168	0x3e8d59e7	0.27607653
169	0x3fe0b798	1.7556028
170	0x3f9e50d1	1.2368413
171	0x402caa3b	2.69789
172	0x3f89be21	1.0761148
173	0xbf8877c9	-1.0661556
174	0x3f9fb3f4	1.2476792
175	0x3f2b7a2d	0.669833
176	0x3feacf7a	1.8344567
177	0x3fa01d12	1.2508872
178	0x3fcf2ae4	1.6184964
179	0xc0216d7a	-2.522307
180	0x401feadc	2.4987097
181	0xbe9c6f22	-0.30553538
182	0x3fabfe95	1.3437067
183	0x3f93d0dc	1.1548114
184	0x3e601071	0.21881272
185	0x3fa205af	1.2657984
186	0x3f9ebfa9	1.240224
187	0xbf7561eb	-0.95852536
188	0xbfeaccfb	-1.8343805
189	0x4082bd81	4.085633
190	0x3d965fe5	0.07342509
191	0x3f1bc18f	0.6084222
192	0x3eb4b8b7	0.35297176
193	0x3fd71ebb	1.6806253
194	0x3f9c2734	1.2199464
195	0x3f9afd90	1.2108631
196	0x3fba0c72	1.4535048
197	0x3e59523f	0.2122278
198	0x401789df	2.36779
199	0x3f991d72	1.1962111
200	0x3fe7383b	1.8064035
201	0x3e61ac29	0.2203833
202	0x3f9571a2	1.1675303
203	0xbe06de76	-0.131708
204	0x40127426	2.2883391
205	0x3bd5bf63	0.006523059
206	0x3f8a1c49	1.0789882
207	0x3e827f53	0.25487766
208	0xbfd315fc	-1.6491084
209	0xbe2135b3	-0.15743141
210	0x3fba5e6a	1.4560063
211	0x3fe04b3b	1.7522959
212	0xbd94f9bb	-0.07274195
213	0xbf4d9580	-0.80306244
214	0xbf83aa1b	-1.0286287
215	0x3fc1d9cf	1.5144595
216	0x3fcb8516	1.589999
217	0xbee6040d	-0.44924966
218	0x3e765393	0.24055319
219	0x3f242f61	0.64134794
220	0xbeae1ee3	-0.3400794
221	0xbf12de2d	-0.57370263
222	0x3ed0849e	0.4072618
223	0x3f6a00d6	0.91407526
224	0xbf8438c1	-1.032982
225	0xbdba2738	-0.09089512
226	0x3b8a3717	0.004217993
227	0x3f4fdadf	0.81193346
228	0x3f816bd5	1.0111033
229	0xbfb5e36b	-1.4210027
230	0x3f01a831	0.50647265
231	0x3f679ba3	0.9047186
232	0x3f9567d7	1.1672314
233	0x401a8492	2.4143414
234	0x3fd3323e	1.6499708
235	0x40011730	2.0170403
236	0x4017057e	2.3597102
237	0x3fe46638	1.7843695
238	0x3f53b735	0.82701427
239	0x3f9a84af	1.2071742
240	0xbf52ebbf	-0.8239097
241	0x3e64dbfe	0.22349545
242	0x3fbe4018	1.486331
243	0xbeb9c05e	-0.36279577
244	0x3f0e7be8	0.55657816
245	0x3f5f4cca	0.87226546
246	0x3ebc8376	0.36819047
247	0xbfaa591b	-1.3308443
248	0x3fc3e300	1.530365
249	0x3f122941	0.570942
250	0x3e808ab2	0.25105816
251	0x3f3a0883	0.7266924
252	0x3faec4f3	1.3653854
253	0x3fac1549	1.3443996
254	0x3f863373	1.0484451
255	0x3fa3b23e	1.278877

c.weight f4 [17747, 1]
0	0x3f1b4411	0.60650736
1	0xbf58e201	-0.84719855
2	0x3f92e24d	1.1475312
3	0xbf06938f	-0.52568907
4	0xbfaa81f9	-1.3320915
5	0xbf496e84	-0.7868426
6	0x3f8813de	1.0631063
7	0xbfa2bed7	-1.271449
8	0x3f35aa7c	0.70963264
9	0xbe4ba687	-0.19887744
10	0xbd0af8f4	-0.033928826
11	0x3f73c7d9	0.9522682
12	0xbf82902c	-1.0200248
13	0xbfced7b1	-1.6159574
14	0xbdc072b9	-0.093968816
15	0x3fb37026	1.40186
16	0xbf5de26f	-0.86673635
17	0xbdff8055	-0.12475649
18	0xbdac1e8b	-0.08404263
19	0xbfc08688	-1.5041056
20	0x3fb1f1c1	1.3901902
21	0x3e8be9b8	0.2732675
22	0xbe5caa0c	-0.21549243
23	0xbfdc72de	-1.7222555
24	0x3db71769	0.08940012
25	0x3e36266f	0.17788099
26	0x3f1cba68	0.61221933
27	0xbe5d90dc	-0.2163729
28	0xbf23b946	-0.6395458
29	0x3ec22932	0.37922055
30	0xbea87047	-0.3289816
31	0x3ea15924	0.3151332
32	0x3d25086a	0.040291227
33	0xbca14608	-0.019686714
34	0x3f446027	0.76709217
35	0x3f2dbf7c	0.67870307
36	0x3e77b616	0.24190554
37	0xbfc4ae4a	-1.5365689
38	0x3fbe510b	1.4868482
39	0xbf328df1	-0.69747835
40	0xbedd3e1b	-0.43211445
41	0xbe0fc89f	-0.14041375
42	0x3f710b88	0.9415822
43	0x3f0e5831	0.5560332
44	0xbfa5257a	-1.2902062
45	0x3e9e968b	0.3097423
46	0x3ee6e4c3	0.45096406
47	0x3f8f8afc	1.121429
48	0x3f2e9508	0.68196154
49	0x3f2fbd65	0.6864837
50	0xbdc562b3	-0.09637966
51	0x3ebcce8c	0.36876333
52	0x3fd0d38b	1.6314558
53	0xbd994eea	-0.07485755
54	0xbee7146a	-0.45132762
55	0x3d861945	0.065477885
56	0xbf18b434	-0.5964997
57	0xbf2ec3d8	-0.68267584
58	0x3f16e5a9	0.58944184
59	0xbf178eca	-0.59202254
60	0x3e134678	0.1438235
61	0xbd4bab15	-0.049723703
62	0x3fd6fc86	1.6795814
63	0xbf0948b7	-0.5362658
64	0x3d03b202	0.032152183
65	0x3fc1cac1	1.514
66	0xbf60f0a2	-0.87867177
67	0x3d8f6748	0.07002121
68	0xbf82da14	-1.0222802
69	0xbf115e78	-0.5678477
70	0xbcf16474	-0.029466845
71	0xbf20ea89	-0.6285787
72	0x3f1579a1	0.58388716
73	0xbc5f1948	-0.013616867
74	0x3f58b272	0.84647286
75	0xbf819754	-1.0124307
76	0xbe2cdb4e	-0.16880533
77	0x3f8e7f9e	1.1132696
78	0x3e8edd25	0.27903095
79	0xbcb90bef	-0.022588698
80	0x3f8593f2	1.0435774
81	0xbfb80ae1	-1.437832
82	0xbc1c0ea2	-0.009524973
83	0xbe4ade14	-0.19811279
84	0x3e83aec3	0.2571927
85	0xbe79ce53	-0.24395113
86	0xbf2b0c48	-0.66815615
87	0x3e623c58	0.22093332
88	0x3f41a2c8	0.7563901
89	0xbe369a08	-0.17832196
90	0x3f396636	0.72421587
91	0x3eaedf02	0.34154516
92	0x3de82145	0.11334471
93	0xbe996ea3	-0.29967222
94	0x3f48cc9e	0.7843722
95	0xc0012a72	-2.0182157
96	0xbf4fb8f5	-0.811416
97	0x3ef82b23	0.4847041
98	0x3fe1658d	1.7609116
99	0xbf532bbb	-0.824886
100	0x3d921c95	0.07134358
101	0x3f3f4907	0.74720806
102	0xbd17506f	-0.03694194
103	0x3f2c818e	0.67385185
104	0xbeea2e53	-0.45738468
105	0x3f5b91f2	0.8576957
106	0x3e4f4b4e	0.2024357
107	0x3f8144d5	1.0099131
108	0xbdf2f72f	-0.11863553
109	0x3fe2e69e	1.7726629
110	0xbe06bb81	-0.13157465
111	0x3f7d042e	0.988345
112	0xbe3859c1	-0.18002988
113	0xbe8c44ec	-0.27396333
114	0xc05fe144	-3.4981241
115	0xbe8a259c	-0.2698182
116	0x3e24e722	0.16103795
117	0x3fec03c3	1.8438648
118	0xbf32a0e9	-0.6977678
119	0x3e823c4a	0.25436622
120	0x3f8e2ea7	1.1107987
121	0x3d132254	0.03592141
122	0x3ef23a7c	0.47310245
123	0x3f4562df	0.7710399
124	0xbeb3f9ca	-0.3515151
125	0xbf1fe200	-0.62454224
126	0x3f162466	0.5864929
127	0x3ef912aa	0.48647052
128	0xbec49944	-0.38398182
129	0xbd5ee7e1	-0.054420356
130	0xbf94ff61	-1.1640435
131	0xc00705e5	-2.1097348
132	0x3fa86aad	1.3157555
133	0xbe830bd9	-0.25594977
134	0xbf9a4632	-1.2052672
135	0xbfedb1b1	-1.8569852
136	0xbfb4e678	-1.4132833
137	0xbf887f11	-1.0663778
138	0xbfa70c75	-1.3050677
139	0xbf369416	-0.7131971
140	0xbfc9bf97	-1.5761594
141	0x3fc82b05	1.5638129
142	0x3e193578	0.14961803
143	0xbeff8480	-0.49905777
144	0x3e9dd30b	0.30825076
145	0x3d780aa0	0.060557008
146	0xbe09fb0f	-0.13474678
147	0x3e1393db	0.14411871
148	0xbf721154	-0.9455769
149	0xbe62a421	-0.22132923
150	0xbec54c66	-0.3853485
151	0xbf382f4c	-0.7194717
152	0xbef92060	-0.48657513
153	0x3edc52bd	0.43031874
154	0x3d320eb4	0.043471053
155	0x3f42a840	0.7603798
156	0xbf5f2f5c	-0.8718164
157	0xbf6d92a1	-0.9280186
158	0x3cf8c800	0.030368805
159	0x3d335123	0.04377855
160	0x3f22aef8	0.6354823
161	0x3f4032bb	0.7507741
162	0x3e17d968	0.14829028
163	0x3fdefec8	1.7421503
164	0x3e4bd881	0.19906808
165	0xbd7c2bcf	-0.061565217
166	0x3e601293	0.21882086
167	0xbfa24c96	-1.2679622
168	0xbf8cd696	-1.1002986
169	0xbee3d4bd	-0.44498244
170	0xbe670f6d	-0.22564478
171	0xbf2b7295	-0.66971713
172	0x3f16fa09	0.58975273
173	0xbf78944c	-0.97101283
174	0xbf8120a5	-1.0088087
175	0x3e0a53ee	0.13508579
176	0xbf239aee	-0.6390828
177	0xbf2914cb	-0.6604735
178	0xbf3e0ae8	-0.7423539
179	0xbfc86b70	-1.5657787
180	0x3f39e9a3	0.72622126
181	0x3fc08b0e	1.5042436
182	0x3f3b44a1	0.73151594
183	0xbe4931b6	-0.1964787
184	0xbf5d1a82	-0.8636857
185	0xbf69a428	-0.9126611
186	0xbfbeb9ba	-1.4900429
187	0x3f12d363	0.573538
188	0x3f94fa52	1.1638892
189	0xbfac661a	-1.3468659
190	0xbf64f763	-0.8943998
191	0x3db0ba2b	0.08629259
192	0x3e4736ec	0.19454545
193	0xbe8accf7	-0.271095
194	0xbe0a4df0	-0.13506293
195	0xbe9ab319	-0.30214766
196	0xbf92aa70	-1.1458263
197	0xbff04f74	-1.8774247
198	0xbf5e8a9d	-0.8693026
199	0xbf3fb68e	-0.7488793
200	0xbf3a0ca4	-0.7267554
201	0x3f11004e	0.5664109
202	0xbf7411f5	-0.953399
203	0xbe13a823	-0.14419608
204	0x3ee4613c	0.44605434
205	0xbf23fc4a	-0.6405684
206	0xbef83365	-0.4847671
207	0x3ef6920d	0.48158303
208	0x3edf2610	0.43583727
209	0xbec10d72	-0.3770557
210	0xbf0fee17	-0.5622267
211	0xbe631675	-0.22176535
212	0xbe67026b	-0.22559516
213	0xbaf2b8ba	-0.0018518188
214	0xbf061e30	-0.5238981
215	0xbdcc2d00	-0.099695206
216	0xbfb882bd	-1.4414898
217	0xbea1baa8	-0.3158772
218	0xbe4c9fa0	-0.19982767
219	0xbddbc672	-0.1073121
220	0xc0004c05	-2.0046399
221	0xbfcf7003	-1.6206058
222	0xbe9aabdd	-0.30209246
223	0xbef7bd3a	-0.48386556
224	0x3fc28dcd	1.5199524
225	0x3fa29955	1.2703043
226	0xbf9cb54a	-1.2242825
227	0xbf60b2cf	-0.8777284
228	0xbc8a5722	-0.016887251
229	0x3f814149	1.0098048
230	0xbebd8854	-0.37018073
231	0xbfcda26f	-1.6065196
232	0xbfdc2f3c	-1.7201915
233	0x3dbb4903	0.09144785
234	0xbfea9f2c	-1.8329825
235	0xbfd9a264	-1.7002683
236	0x3ee575d3	0.44816455
237	0xbc9ce535	-0.019152263
238	0xbfacd9fd	-1.3504025
239	0xbf960d64	-1.1722836
240	0x3ff2092c	1.8909049
241	0xbfa4b54a	-1.2867825
242	0x3f7b741f	0.9822406
243	0x3e515445	0.20442303
244	0xbf9ba497	-1.2159604
245	0x3ea6f623	0.32609662
246	0xbd9713f3	-0.07376852
247	0xbf31d445	-0.6946452
248	0xbf5f6122	-0.8725759
249	0xbf54dc3d	-0.83148557
250	0xbf69e37c	-0.9136274
251	0xbff36539	-1.9015266
252	0xbfdf6d45	-1.7455221
253	0xbfb8fd1f	-1.4452246
254	0xbf899644	-1.0748982
255	0xbe3cf753	-0.18453722
