IRT/irt_model.pth (torch, 243040 bytes, 4 tensors)

theta.weight f4 [7000, 1]
-0.1587015 0.7655531 -1.5259914 -0.45934498 -0.4402779 -0.5599554 -0.6601712 0.30575907
-1.332915 0.0041988427 0.008692549 0.4084529 -0.4033359 -0.25666946 -0.38323817 -0.5735888
-0.40977934 1.0398067 0.15630966 -0.6255206 -0.3760499 -0.5248281 1.1291381 0.65766007
-0.22840336 0.006094874 -0.65900826 0.9346586 0.5133117 0.6280862 -0.0016227146 -1.7884511
-1.0799172 -0.8229293 1.1529788 0.21732576 -0.09886969 -0.49300328 0.22160065 -0.4814822
0.2758896 -0.13196965 -0.59570235 1.1518524 1.0406362 0.6618436 0.033113394 0.27738085
-0.18008086 0.15631111 0.26534766 0.35178438 0.037864666 -0.4069714 0.85947484 0.54959494
-0.10245126 0.018905574 0.75354135 -0.56454355 0.42662442 0.8188739 0.8861757 1.0998179
-0.05388001 0.116457134 0.04536865 0.47265357 0.28541794 -0.6032414 -0.6081985 1.0452557
1.4320112 0.933521 0.6687308 0.69405425 -0.4693207 -0.26221317 -0.26860264 0.057355568
-0.1371983 -0.7275866 -0.40093175 -0.8598799 -0.09630808 -0.0004628703 0.25200057 0.09804327
-0.34066898 0.07571291 -0.6286281 -0.88966185 0.4143539 -0.625849 -0.3115143 -0.16060966
0.40846702 -0.2084207 -0.18962361 -0.5004226 -0.86247367 -0.61628497 -1.7618456 -0.5596746
-1.142766 -0.53297025 -0.8948591 0.07535403 -0.5560034 -0.8147815 0.44333214 -0.34868863
-0.5021787 -0.43263933 -1.4040936 -0.41172218 -0.33196598 0.44856495 -0.16473943 -0.073840916
0.85153484 0.15303232 0.2430548 -0.026975676 0.44181696 0.7842617 -0.117658414 0.24832654
0.46064135 0.4182829 0.067799665 0.05111406 -0.22304986 1.9769267 -0.34058192 0.52053857
0.62982094 0.8240175 -0.81215894 0.43767196 -0.6546085 0.34418103 -0.29591644 -1.4333371
-0.67684495 -1.0895995 0.41039124 -0.44083515 -0.27259794 -0.39370903 -1.2534602 -0.60352623
-0.8961578 0.76061606 -0.36421984 1.8216015 1.1316813 0.27618313 0.060165133 0.11293134
-0.6264767 0.602804 -0.08416867 -0.21568167 0.08267536 0.02152116 -0.14047435 0.7970132
0.0900876 0.6322928 0.60934436 0.4077429 1.7286179 0.13905504 0.12895937 0.44622368
-0.9136012 -0.3780976 0.753911 0.6718377 -0.5443104 -0.45709565 0.71764404 0.06505092
0.16968574 -0.24534518 -0.8844039 -2.3127668 1.1876756 -1.0690038 0.038027734 -1.0898772
-0.074405946 -0.28275695 0.09809604 0.06069684 -0.9713688 0.21651869 0.13267902 -0.35332358
-1.1877149 1.5046798 0.054567657 -0.36808518 -0.58395094 0.7255631 -0.49511245 -1.2407403
-0.019982172 0.28138125 -0.18915132 1.1007693 0.7640258 1.1831982 -0.012207253 0.50097454
-1.9471471 -0.16236076 -0.23024382 0.6381949 0.86754555 -0.46535665 -0.370324 -1.4185017
-0.6414477 1.0221882 -0.16465437 -0.6429499 -0.63795 -0.85882056 0.17871624 0.46315357
0.5323566 0.36308736 -1.3435352 0.4675674 -1.0821792 -1.2126565 0.3711985 0.39623272
-0.8269883 0.9432159 -0.07522494 0.2590953 0.025036514 -0.8529757 0.23048994 0.5341385
-0.86228925 2.1903954 0.36504698 0.7370659 -0.4450125 1.2148193 -1.1385353 0.49807775
00000000: a582 22be 4afb 433f b053 c3bf 442f ebbe
00000010: 1b6c e1be 3d59 0fbf fb00 29bf 748c 9c3e
00000020: f59c aabf 7296 893b 316b 0e3c bd20 d13e
00000030: 0b82 cebe 2e6a 83be cb37 c4be b7d6 12bf
00000040: 99ce d1be 6318 853f a40f 203e 1e22 20bf
00000050: 9d89 c0be 225b 06bf 9987 903f 695c 283f
00000060: 92e2 69be 82b7 c73b c4b4 28bf c945 6f3f
00000070: 6568 033f 42ca 203f 44b1 d4ba f7eb e4bf
00000080: ba3a 8abf 7fab 52bf cf94 933f a58a 5e3e
00000090: 317c cabd ed6a fcbe 48eb 623e d684 f6be
000000a0: 6741 8d3e 0d23 07be f37f 18bf e66f 933f
000000b0: 9133 853f 956e 293f e9a1 073d dd04 8e3e
000000c0: 1e67 38be 0510 203e a6db 873e 151d b43e
000000d0: fb17 1b3d 8e5e d0be 8b06 5c3f 41b2 0c3f
000000e0: f7d1 d1bd dddf 9a3c 16e8 403f ed85 10bf
000000f0: 846e da3e b8a1 513f 69dc 623f d5c6 8c3f
00000100: 49b1 5cbd 1481 ee3d 7ad4 393d a6ff f13e
00000110: 4d22 923e 076e 1abf e6b2 1bbf f0ca 853f
00000120: 254c b73f 3bfb 6e3f f131 2b3f 8aad 313f
00000130: ce4a f0be ce40 86be 4986 89be aced 6a3d
00000140: b67d 0cbe 1e43 3abf ed46 cdbe 1721 5cbf
00000150: 2c3d c5bd 66ad f2b9 3806 813e e9ca c83d
00000160: 2a6c aebe 5f0f 9b3d c5ed 20bf e1c0 63bf
00000170: 3226 d43e a437 20bf cd7e 9fbe dc76 24be
00000180: 9722 d13e 3c6c 55be b12c 42be b21b 00bf
00000190: 13cb 5cbf dac4 1dbf 2884 e1bf d646 0fbf
000001a0: 2846 92bf bd70 08bf 7c15 65bf 3753 9a3d
000001b0: 3d56 0ebf 8595 50bf 6efc e23e 5187 b2be
000001c0: c98e 00bf e782 ddbe 57b9 b3bf 40cd d2be
000001d0: 72f7 a9be 4eaa e53e 74b1 28be e839 97bd
000001e0: 30fe 593f 81b4 1c3e 5ce3 783e 18fc dcbc
000001f0: d535 e23e 60c5 483f e5f6 f0bd 5049 7e3e
00000200: 2fd9 eb3e 2d29 d63e 8dda 8a3d fa5c 513d
00000210: 2f67 64be ef0b fd3f c160 aebe 0442 053f
00000220: f23b 213f d0f2 523f a6e9 4fbf 8a16 e03e
00000230: 6c94 27bf 7f38 b03e 5c82 97be 9777 b7bf
00000240: b645 2dbf ff77 8bbf cd1e d23e 25b5 e1be
00000250: f591 8bbe 3b94 c9be 6271 a0bf b280 1abf
00000260: 996a 65bf bcb7 423f 067b babe 3d2a e93f
00000270: efda 903f e067 8d3e b76f 763d 8c48 e73d
00000280: c760 20bf 5d51 1a3f a060 acbd a8db 5cbe
00000290: b351 a93d 254d b03c 82d8 0fbe 0f09 4c3f
000002a0: d97f b83d f1dd 213f fefd 1b3f adc3 d03e
000002b0: 5a43 dd3f 7264 0e3e ed0d 043e 6e77 e43e
000002c0: c5e1 69bf 0296 c1be 5000 413f 8efd 2b3f
000002d0: ed57 0bbf 7108 eabe 85b7 373f 6b39 853d
000002e0: 19c2 2d3e c43b 7bbe 4b68 62bf 5f04 14c0
000002f0: c105 983f 1ed5 88bf f8c2 1b3d 1981 8bbf
00000300: 2562 98bd 85c5 90be 94e6 c83d 409d 783d
00000310: a0ab 78bf 13b7 5d3e 02dd 073e d4e6 b4be
00000320: 0b07 98bf 5999 c03f 5682 5f3d a975 bcbe
00000330: cf7d 15bf 81be 393f 617f fdbe 94d0 9ebf
00000340: a7b1 a3bc 3411 903e e2b0 41be 02e6 8c3f
00000350: 3297 433f 0a73 973f ee00 48bc de3f 003f
00000360: 1e3c f9bf e641 26be 09c5 6bbe be60 233f
00000370: 7717 5e3f 3a43 eebe 1b9b bdbe 7791 b5bf
00000380: eb35 24bf 10d7 823f 289b 28be 5d98 24bf
00000390: b150 23bf aadb 5bbf 6401 373e 7722 ed3e
000003a0: 8648 083f 96e6 b93e f6f8 abbf ff64 ef3e
000003b0: d984 8abf 5438 9bbf bb0d be3e 04df ca3e
000003c0: 81b5 53bf 9976 713f 890f 9abd 24a8 843e
000003d0: 6019 cd3c 9e5c 5abf 8e05 6c3e 4dbd 083f
000003e0: fdbe 5cbf 702f 0c40 70e7 ba3e 5ab0 3c3f
000003f0: aed8 e3be 337f 9b3f 86bb 91bf 0c04 ff3e

a.weight f4 [17747, 1]
0.8966312 -0.050247837 0.2611634 -0.1450359 -1.23144 -1.5419664 -0.55306023 1.0984292
0.92433363 0.8527234 -1.9417874 -0.830038 -1.1608231 -0.70765585 0.08615541 -1.7386276
0.30728722 -0.6073827 -0.28991094 -0.6762935 1.1046423 0.89415276 -0.24432686 -1.1713932
0.98043877 -0.37462062 0.9364979 -0.28687763 0.28398645 -0.6458482 -1.6852834 -1.4048382
-1.1566321 0.9287237 0.67757434 0.81118345 0.33970788 -0.54325694 -1.7283022 1.3521559
-0.1723606 0.6848527 1.4795364 -0.34407732 -2.6124318 -0.32685298 -1.5425891 -0.80984646
-1.1184735 1.1072973 -1.2928897 -0.6182482 -0.54288167 0.02603633 1.5404906 -0.060804956
-0.03998323 -0.25217083 0.23143971 0.881063 -0.7480957 -0.5265459 -0.5713026 0.19655026
0.4620937 1.5705204 0.6921191 -1.4652671 -0.06080895 0.0248841 -0.41378745 -0.65765494
1.537925 -1.8890362 0.6293065 0.71917033 -0.6499818 -0.98378074 0.38131636 -0.6323423
-0.38444334 1.1769623 -0.010733423 1.398905 -0.50258064 -0.4154575 -1.2576905 -1.0092056
-1.3997475 -1.2182368 -0.8454164 0.8706809 0.5445 0.36345264 0.022579331 -0.50512874
1.2923878 -0.30764407 0.110919625 -1.2635492 -1.7578213 -1.6240796 -1.2536463 1.3983198
1.3242764 1.5545402 1.0418485 0.9486435 -0.71026486 -0.3863074 0.32760093 0.0250375
-0.5954797 1.8027623 1.0267084 0.043954585 -0.0043989187 -0.027552841 0.10323916 0.48534772
-1.3454925 0.030721672 -1.8447856 1.0570377 -0.34072825 -0.80448246 -1.4853224 0.4132368
-0.5816805 -2.5116098 -0.7007717 -1.8916507 1.2206835 -0.2353942 0.15740888 -0.43180507
1.3294561 -0.8790507 0.20616108 -0.28907704 -1.273823 -0.08533335 0.16047339 1.3826022
-0.4355808 1.4616537 -0.38359773 -1.7238859 -1.40229 -1.5788397 -0.07431704 -0.70775354
-0.10135513 0.65806484 -0.36348388 0.39041564 -1.1498595 -1.7014729 -0.21139385 -0.29263657
0.8553492 0.46455988 0.06960053 -0.56364655 0.5556587 -1.6512511 0.87745607 -1.2757366
-0.3815388 -0.62987566 0.34936884 1.7191367 -0.51580966 0.18333867 -0.26356384 1.0729259
-2.4856834 2.4609334 0.58066094 0.3424409 -0.8674307 0.54908663 0.68009293 -1.1423062
-0.044294957 -0.18188213 2.0782623 -0.36796576 0.18208003 -0.5139762 -1.3930782 -0.8777145
1.0009117 0.6310128 -1.9164954 -0.84172064 0.3612214 1.2770799 -0.12368496 -1.7918688
-0.24695376 0.048636362 -0.95114034 -0.114223495 0.054671288 -1.5775887 0.60097235 -1.5356363
0.8111129 0.40906203 1.8786877 1.6181394 0.43116367 0.12291767 -0.12993163 -0.60453886
-0.57931155 -3.0838766 1.8120717 0.649979 1.2291336 1.4593863 -0.48769146 0.9180825
-1.3050236 0.29349333 1.181514 -0.72223896 0.988787 0.11834508 -2.6717412 -0.081963144
-1.8794557 0.5112614 -0.24924348 1.0271326 1.2298331 0.61783314 -1.0854478 -0.93954605
-0.65869546 0.46917826 -1.6908978 0.69431156 0.6629435 -0.9439347 -1.0511129 -0.39135796
0.59413594 -0.28503904 1.182938 0.24130547 2.2990704 0.74005896 -0.48117897 -1.586638
00000000: 9f89 653f add0 4dbd 36b7 853e 4a84 14be
00000010: d39f 9dbf 285f c5bf 5b95 0dbf 5499 8c3f
00000020: 21a1 6c3f 154c 5a3f 7d8c f8bf 5f7d 54bf
00000030: da95 94bf ef28 35bf 3f72 b03d 598b debf
00000040: c054 9d3e 6f7d 1bbf 356f 94be 9221 2dbf
00000050: eb64 8d3f 32e7 643f d230 7abe 36f0 95bf
00000060: 09fe 7a3f 46ce bfbe 54be 6f3f a0e1 92be
00000070: ac66 913e 4f56 25bf 5eb7 d7bf bdd1 b3bf
00000080: 850c 94bf d6c0 6d3f 8375 2d3f b8a9 4f3f
00000090: 31ee ad3e e312 0bbf 0239 ddbf 7213 ad3f
000000a0: 4c7f 30be 8252 2f3f 7361 bd3f e72a b0be
000000b0: 1532 27c0 4659 a7be 8f73 c5bf 1952 4fbf
000000c0: 242a 8fbf ebbb 8d3f 697d a5bf 8445 1ebf
000000d0: 4bfa 0abf 244a d53c cc2e c53f 9e0e 79bd
000000e0: 75c5 23bd 891c 81be 88fe 6c3e 588d 613f
000000f0: 3383 3fbf b6cb 06bf e340 12bf 7944 493e
00000100: 8c97 ec3e d006 c93f b82e 313f df8d bbbf
00000110: ce12 79bd bdd9 cb3c f3db d3be 135c 28bf
00000120: bada c43f f0cb f1bf 3b1a 213f 8c1b 383f
00000130: 3565 26bf 0ed9 7bbf e63b c33e 2fe1 21bf
00000140: c2d5 c4be b3a6 963f 3ddb 2fbc 520f b33f
00000150: 20a9 00bf d8b6 d4be 01fc a0bf a62d 81bf
00000160: ed2a b3bf 2fef 9bbf 366d 58bf f2e4 5e3f
00000170: 5a64 0b3f 7716 ba3e 4af8 b83c 1e50 01bf
00000180: f76c a53f 8683 9dbe d429 e33d fbbb a1bf
00000190: 4a00 e1bf d7e1 cfbf 7b77 a0bf 25fc b23f
000001a0: e481 a93f 2cfb c63f 4b5b 853f 4dda 723f
000001b0: ebd3 35bf 15ca c5be 4fbb a73e 711b cd3c
000001c0: 5c71 18bf eac0 e63f 2e6b 833f b909 343d
000001d0: ce24 90bb 7fb6 e1bc 0d6f d33d 7f7f f83e
000001e0: 1939 acbf 04ac fb3c ef21 ecbf 034d 873f
000001f0: ef73 aebe 90f2 4dbf 0b1f bebf c693 d33e
00000200: 03e9 14bf 37be 20c0 c665 33bf 9c21 f2bf
00000210: 5b3f 9c3f 2d0b 71be cb2f 213e 8e15 ddbe
00000220: 9e2b aa3f 7709 61bf e41b 533e e801 94be
00000230: a20c a3bf 40c3 aebd 2353 243e 1cf9 b03f
00000240: 7204 dfbe 7817 bb3f ec66 c4be 4ba8 dcbf
00000250: 3d7e b3bf 6b17 cabf 8833 98bd 562f 35bf
00000260: 4793 cfbd f076 283f 8f1a babe 8fe4 c73e
00000270: 992e 93bf ddc9 d9bf a177 58be 76d4 95be
00000280: 2af8 5a3f cbda ed3e b98a 8e3d 244b 10bf
00000290: a63f 0e3f 325c d3bf f6a0 603f 564b a3bf
000002a0: 0e59 c3be 883f 21bf 79e0 b23e ac0c dc3f
000002b0: 1a0c 04bf 22bd 3b3e d7f1 86be a355 893f
000002c0: 7015 1fc0 ef7f 1d40 32a6 143f 6a54 af3e
000002d0: f00f 5ebf f190 0c3f 921a 2e3f 1737 92bf
000002e0: a16e 35bd 4f3f 3abe 4002 0540 0266 bcbe
000002f0: 3073 3a3e f293 03bf 6350 b2bf e6b1 60bf
00000300: e01d 803f 0e8a 213f b94f f5bf 017b 57bf
00000310: 03f2 b83e 5b77 a33f 8a4e fdbd f55b e5bf
00000320: 72e1 7cbe ec36 473d ef7d 73bf 02ee e9bd
00000330: 00ef 5f3d 6dee c9bf 53d9 193f bb8f c4bf
00000340: 18a5 4f3f 9470 d13e d778 f03f 311f cf3f
00000350: 7cc1 dc3e 42bc fb3d cc0c 05be 0fc3 1abf
00000360: c34d 14bf 3c5e 45c0 f7f1 e73f 0665 263f
00000370: 4054 9d3f 2ccd ba3f b2b2 f9be 7407 6b3f
00000380: 030b a7bf c244 963e da3b 973f a7e4 38bf
00000390: 2521 7d3f e85e f23d cffd 2ac0 4bdc a7bd
000003a0: 0192 f0bf 07e2 023f af39 7fbe 1579 833f
000003b0: 2c6b 9d3f 502a 1e3f f4ef 8abf 1786 70bf
000003c0: 44a0 28bf 2238 f03e 576f d8bf 67be 313f
000003d0: aab6 293f b4a5 71bf de8a 86bf 1260 c8be
000003e0: 4b19 183f a3f0 91be 836a 973f c818 773e
000003f0: f823 1340 8174 3d3f 175d f6be f416 cbbf

b.weight f4 [17747, 1]
-0.8529184 0.45009732 0.59497386 -0.92678916 -0.16598144 -0.25480545 -0.57032746 1.2921624
-0.17680143 0.3755199 -0.765226 0.7168804 -1.1548871 1.2614783 0.5048162 -0.4479948
-0.45165807 -0.7203334 -0.5682571 1.4879478 -2.1409662 0.12391451 -0.8071216 0.76161706
1.4302955 -0.36782655 0.53933233 -0.39248866 0.28533888 0.301838 0.82763803 -0.7907429
-0.76114035 0.51508754 0.10692436 0.47197494 1.0180454 0.74844015 1.0950117 -0.13292547
-0.16579889 0.51738495 1.2438415 -0.003976485 -0.421079 -0.41350678 -0.22036529 -0.7007051
0.6273649 0.7722324 1.4684782 -0.0693579 -0.19126229 -0.7518652 0.5259726 -0.23257324
-1.5836147 -1.4189266 -0.6490505 0.7989532 -0.6584129 -1.120632 -1.3013645 0.42676127
0.922233 0.84602195 -0.3827832 -0.67253506 -0.53637797 2.3879793 0.43273953 -0.10471011
1.1573055 1.668785 1.4503666 0.13847066 0.85910314 0.7797395 0.49011627 0.72497183
0.4822863 0.3147878 -0.27756548 1.3519528 0.6577363 0.72756886 -1.4162457 2.0845594
-0.18294683 1.1115974 0.46035293 0.5514762 -0.007169893 0.19872332 0.27377787 -1.422595
0.27549762 -0.35293087 1.9258258 -0.26648384 -0.23445229 -1.6296285 1.1203775 -0.46570423
0.34220806 -0.65793353 -1.247997 -0.054088864 -1.1995258 -2.5035315 1.0190448 0.2812058
-0.2345446 -0.93017834 0.17609693 -0.6925407 -0.2945855 -0.43122593 0.9913623 0.09853451
-0.48989004 0.3320008 -0.21046887 -1.2856712 0.4876976 2.417906 -0.010282877 -1.5881617
-1.1679128 -1.1430049 0.6570675 -0.23203124 -0.6912485 0.04535842 -0.24874967 0.3777859
0.8472494 1.1644237 -0.2581838 0.5844105 0.8924215 -0.5867531 -0.14891152 1.640141
0.13977568 0.62844694 1.6092608 0.66924053 -0.25223884 0.6918366 0.90885264 -0.46577147
0.4548495 0.71862656 0.9870427 -0.58138645 0.24861303 2.2804084 -0.24821045 1.5924896
-1.512629 -0.05230888 0.76371634 -0.82058764 -0.15119092 -0.57285047 -0.44546953 -0.15940323
-0.093596295 0.5422913 1.1133289 -0.26558554 0.096673444 -1.4207795 -0.06328216 -0.00883228
-1.2674419 -0.099612355 0.58195496 0.5445437 0.7518774 -0.4484789 -0.2893289 -1.0990082
0.44330442 -0.61586064 0.7902015 1.2010714 0.34603572 0.83378315 1.4918656 -0.70317805
-0.12236962 0.15979576 1.6065906 -0.46523094 0.9774894 -0.10021753 1.2824224 -0.21353324
1.516135 -2.4691849 1.0098372 -0.19827484 0.9353306 2.323487 0.19109921 1.8672074
-0.37038288 0.016911192 0.8246284 -0.07352531 -0.033032093 -0.6404356 0.9493701 0.7867068
0.9371983 -0.7977913 0.6716084 -0.05369823 0.66365546 -0.4592297 1.2798156 0.9754353
-0.2404442 -0.39539456 0.92587894 0.827769 0.3856652 -0.5391491 -0.45544353 1.2498043
0.16424237 1.6013091 1.4153221 1.1480987 1.9184631 0.72371924 0.33255786 0.4478233
0.54983974 -0.9001899 0.8929238 -0.25823203 -0.15307273 -0.18666148 -0.6532455 1.9058233
0.629435 0.7481752 1.1897018 -0.19530904 0.17684282 0.6645379 1.2661116 1.3769088
00000000: dc58 5abf 2873 e63e 3550 183f 0e42 6dbf
00000010: 0af7 29be dc75 82be fb00 12bf 9465 a53f
00000020: 6f0b 35be 2544 c03e dae5 43bf 7985 373f
00000030: 57d3 93bf 1f78 a13f a23b 013f 935f e5be
00000040: ba3f e7be c567 38bf 4c79 11bf 1375 be3f
00000050: 9705 09c0 e4c6 fd3d 859f 4ebf 56f9 423f
00000060: ec13 b73f c353 bcbe af11 0a3f 46f4 c8be
00000070: f017 923e 838a 9a3e 16e0 533f 206e 4abf
00000080: 18da 42bf c7dc 033f 29fb da3d b3a6 f13e
00000090: 504f 823f c699 3f3f 5829 8c3f 9d1d 08be
000000a0: 2fc7 29be 5773 043f 3336 9f3f 2d4d 82bb
000000b0: ab97 d7be 29b7 d3be 70a7 61be 6961 33bf
000000c0: fc9a 203f 06b1 453f 18f7 bb3f 840b 8ebd
000000d0: 43da 43be 3d7a 40bf 24a6 063f ae27 6ebe
000000e0: e3b3 cabf 639f b5bf 2c28 26bf 3288 4c3f
000000f0: bf8d 28bf df70 8fbf 1d93 a6bf 7480 da3e
00000100: 7617 6c3f e594 583f 29fc c3be 422b 2cbf
00000110: 1150 09bf a7d4 1840 0990 dd3e 4172 d6bd
00000120: 9622 943f bf9a d53f 9da5 b93f 41cb 0d3e
00000130: 2fee 5b3f 029d 473f 85f0 fa3e c197 393f
00000140: 3bee f63e de2b a13e 101d 8ebe ca0c ad3f
00000150: 6861 283f f441 3a3f 8a47 b5bf 6c69 0540
00000160: 6a56 3bbe d348 8e3f 61b3 eb3e 8b2d 0d3f
00000170: 6cf1 eabb 207e 4b3e 9d2c 8c3e 9817 b6bf
00000180: 060e 8d3e 5bb3 b4be 7681 f63f 9270 88be
00000190: 4314 70be ab97 d0bf 8868 8f3f c970 eebe
000001a0: e535 af3e 556e 28bf 5ebe 9fbf 498c 5dbd
000001b0: 108a 99bf dc39 20c0 0f70 823f 35fa 8f3e
000001c0: 762c 70be 2b20 6ebf c152 343e 594a 31bf
000001d0: e9d3 96be a5c9 dcbe ebc9 7d3f 76cc c93d
000001e0: ded2 fabe 02fc a93e 2785 57be e090 a4bf
000001f0: 80b3 f93e f9be 1a40 8379 28bc e248 cbbf
00000200: 2b7e 95bf fc4d 92bf 9335 283f 9999 6dbe
00000210: a9f5 30bf c0c9 393d 3cb8 7ebe 276d c13e
00000220: 56e5 583f d60b 953f ab30 84be ed9b 153f
00000230: bc75 643f 7335 16bf 437c 18be 24f0 d13f
00000240: 5b21 0f3e e6e1 203f 42fc cd3f 5953 2b3f
00000250: 7325 81be 341c 313f 91aa 683f 9979 eebe
00000260: 09e2 e83e e9f7 373f d5ae 7c3f bed5 14bf
00000270: 6a94 7e3e 36f2 1140 e12a 7ebe b3d6 cb3f
00000280: d49d c1bf d641 56bd ea82 433f 0812 52bf
00000290: cbd1 1abe 54a6 12bf 9514 e4be 9a3a 23be
000002a0: 6aaf bfbd 9ad3 0a3f 9081 8e3f d4fa 87be
000002b0: bafc c53d 1adc b5bf 149a 81bd 44b5 10bc
000002c0: 893b a2bf 9001 ccbd 00fb 143f 3767 0b3f
000002d0: 0a7b 403f 079f e5be eb22 94be 4dac 8cbf
000002e0: ccf8 e23e 0ba9 1dbf a54a 4a3f b5bc 993f
000002f0: 982b b13e d072 553f 74f5 be3f 7a03 34bf
00000300: ec9c fabd 80a1 233e c3a4 cd3f c032 eebe
00000310: bf3c 7a3f d93e cdbd 6b26 a43f 75a8 5abe
00000320: b610 c23f 2007 1ec0 5842 813f 8f08 4bbe
00000330: d471 6f3f 03b4 1440 83af 433e a700 ef3f
00000340: d3a2 bdbe 5789 8a3c d91a 533f 7094 96bd
00000350: a94c 07bd 96f3 23bf eb09 733f 9e65 493f
00000360: 3aec 6f3f 0d3c 4cbf 87ee 2b3f adf2 5bbd
00000370: 53e5 293f 2820 ebbe ffd0 a33f 21b6 793f
00000380: 0137 76be 2871 cabe 6706 6d3f abe8 533f
00000390: e975 c53e ad05 0abf e52f e9be 96f9 9f3f
000003a0: 272f 283e b2f7 cc3f 4629 b53f e6f4 923f
000003b0: 3390 f53f aa45 393f 0645 aa3e 1849 e53e
000003c0: 4cc2 0c3f d872 66bf a796 643f fd36 84be
000003d0: 19bf 1cbe 3024 3fbe 193b 27bf 05f2 f33f
000003e0: a722 213f 6988 3f3f 2648 983f 18ff 47be
000003f0: 4916 353e 281f 2a3f f20f a23f 8c3e b03f

c.weight f4 [17747, 1]
1.4330789 -0.6092872 1.1942861 0.05039298 -0.73114276 -1.2564144 1.3690196 0.93426746
-0.11724212 0.061229352 0.2754715 -0.063428216 -0.57593304 0.0010279481 0.60387933 -0.28568825
-0.47715917 0.17177844 0.74229693 2.3233104 -0.5431803 0.5503827 -0.79479355 -0.43639266
0.3622862 -1.1887223 1.1337559 -0.5396347 -0.91764003 -0.48602608 -0.2637188 -0.52768826
0.23116653 0.5800933 0.020443095 0.26806808 0.24536985 -0.22897413 1.4469609 -0.6889686
0.23204747 -0.29133263 0.812369 0.42576012 -0.46390313 0.94548076 1.89324 -2.1402953
-1.5863864 0.8721352 0.27909377 -1.6240679 -0.1317076 1.2359345 0.16475561 -2.1905751
-0.6487935 -1.1460757 -1.9678698 -1.0490743 -0.33074403 -0.9475325 1.369909 1.308221
2.5265687 0.55161047 -2.1036193 -0.13413009 -2.5645714 1.6138384 -0.086900115 0.030693252
0.49856862 0.35674188 0.79355484 -0.25832176 0.24028677 0.75709015 -0.9589179 1.5812654
0.23579243 -1.2622596 0.4101042 1.4594693 -0.7803046 -0.87009215 -0.26815963 0.81555825
-0.22237751 0.027289156 -1.0733644 -0.6904783 -0.20282061 0.8610129 2.054573 -0.7525564
0.8772365 -0.91195154 0.7368319 -0.42000195 -0.83319104 1.6892639 0.13773856 0.22771366
-0.120446056 -0.40724382 0.3511551 0.36509168 -0.7249734 0.06851357 -0.21069975 -0.19425789
-0.3959661 -0.13919951 0.3286856 0.8042626 0.39948338 -0.7684299 -0.021297872 -0.08169158
0.89190304 -1.7127671 -0.34289205 -0.91324496 -0.030563733 -0.7756637 -0.47526136 -0.9005948
-2.0123053 -0.20366693 -0.07715731 -1.4554116 -0.24687366 -0.4273557 0.29798144 -1.2835555
0.87913674 -0.9552592 0.02123515 -0.66377187 -0.21563545 -0.022855485 -1.9723303 -0.49497294
-0.9684917 1.5540808 0.2526442 -0.17334394 -0.67261046 -0.6464026 0.12667093 -0.2744056
2.1230514 -0.018050687 0.31748188 -1.1572894 -0.12842283 -0.26332948 -0.44958043 0.20807618
-1.5454053 0.46316147 0.6793894 2.3931694 -0.66925484 -0.17509887 -1.0417117 -0.19840029
-1.5666262 -1.8670859 -0.41225034 0.32559952 -1.2841127 -1.2289009 -0.3212315 -1.020494
-0.9480973 0.13895315 0.7866546 -0.10958107 0.6625926 -0.65612686 0.41214535 -1.0058888
-1.0470531 -0.1950312 0.23640876 0.12275773 1.8222996 -1.3677188 -0.82321435 0.26302683
-0.51823866 0.6115011 0.041316878 -0.17676233 -0.30475822 -0.77437943 -0.9707085 0.022945346
-0.38194358 1.3217671 1.0972879 0.09913551 -0.17436163 -0.45582706 -2.1442542 0.017308148
-0.44815502 -0.057242453 -0.6810633 -0.08506858 -0.8935067 -2.1018944 0.06940476 -1.2405792
-0.86024576 0.49470815 -0.46543083 -1.030528 -1.0848986 -0.30961645 -0.2753145 0.824637
0.41304275 -0.62547535 -0.3956076 0.6617243 -0.05930842 0.4705019 -0.42131153 -0.5144647
-0.434491 -0.20609769 -0.7102018 -1.5199245 0.08791803 -1.419443 -0.48693776 -0.65888107
0.76044846 -0.80749667 0.41238606 0.99320614 -1.626762 2.2795556 0.42940542 0.6930904
-0.88523096 -0.2947913 0.5174042 0.24800938 -1.50609 0.022285914 0.5532843 -0.37224552
00000000: 216f b73f 3ffa 1bbf 5ede 983f df68 4e3d
00000010: 2c2c 3bbf 30d2 a0bf 093c af3f 272c 6f3f
00000020: a31c f0bd a1cb 7a3d 9a0a 8d3e a7e6 81bd
00000030: 5970 13bf 37bc 863a d697 1a3f bb45 92be
00000040: 354e f4be b0e6 2f3e 2c07 3e3f 1eb1 1440
00000050: dd0d 0bbf e1e5 0c3f 9777 4bbf dc6e dfbe
00000060: 947d b93e 0d28 98bf ea1e 913f 8025 0abf
00000070: 75ea 6abf 69d8 f8be 2706 87be 9416 07bf
00000080: ebb6 6c3e ff80 143f 4778 a73c 3840 893e
00000090: 3c42 7b3e 3278 6abe 0436 b93f 3f60 30bf
000000a0: da9d 6d3e 8d29 95be 6af7 4f3f 3bfd d93e
000000b0: b684 edbe 070b 723f b055 f23f 99fa 08c0
000000c0: b60e cbbf 4144 5f3f 61e5 8e3e 75e1 cfbf
000000d0: 5bde 06be 1a33 9e3f b2b5 283e 6232 0cc0
000000e0: 5517 26bf 9cb2 92bf 28e3 fbbf 1148 86bf
000000f0: 4857 a9be 7d91 72bf 2e59 af3f c973 a73f
00000100: 4db3 2140 5836 0d3f b3a1 06c0 6659 09be
00000110: f021 24c0 4292 ce3f b0f8 b1bd 6a70 fb3c
00000120: 6344 ff3e dfa6 b63e 6926 4b3f c042 84be
00000130: bc0d 763e a9d0 413f a57b 75bf e866 ca3f
00000140: 9273 713e b991 a1bf 2df9 d13e e4cf ba3f
00000150: 0bc2 47bf 5cbe 5ebf 384c 89be 6dc8 503f
00000160: eeb6 63be 828d df3c 0164 89bf 30c3 30bf
00000170: 35b0 4fbe 576b 5c3f 207e 0340 89a7 40bf
00000180: 9292 603f a875 69bf 04a1 3c3f 7f0a d7be
00000190: 024c 55bf cd39 d83f 560b 0d3e c52d 693e
000001a0: 6cac f6bd 4382 d0be 9aca b33e 4ced ba3e
000001b0: db97 39bf d850 8c3d adc1 57be 8aeb 46be
000001c0: 12bc cabe 518a 0ebe 7b49 a83e 27e4 4d3f
000001d0: 1689 cc3e d2b7 44bf e078 aebc ea4d a7bd
000001e0: c253 643f f43b dbbf 8c8f afbe 6cca 69bf
000001f0: cb60 fabc e591 46bf 7555 f3be 618d 66bf
00000200: 9cc9 00c0 108e 50be a704 9ebd ed4a babf
00000210: 73cc 7cbe 5ece dabe 0691 983e 8c4b a4bf
00000220: 1b0f 613f de8b 74bf 56f5 ad3c f4ec 29bf
00000230: 8acf 5cbe 6d3b bbbc 5275 fcbf 186d fdbe
00000240: 12ef 77bf 1fec c63f 955a 813e 1381 31be
00000250: 3330 2cbf a47a 25bf 06b6 013e e47e 8cbe
00000260: 13e0 0740 09df 93bc fc8c a23e 0f22 94bf
00000270: 4681 03be 1fd3 86be 682f e6be ec11 553e
00000280: d7cf c5bf 8023 ed3e 77ec 2d3f b029 1940
00000290: 4954 2bbf 1e4d 33be cf56 85bf 7229 4bbe
000002a0: 3587 c8bf acfc eebf 7a12 d3be fbb4 a63e
000002b0: ce5d a4bf a04c 9dbf 7578 a4be 8c9f 82bf
000002c0: 81b6 72bf bc49 0e3e 3262 493f 0a6c e0bd
000002d0: ab9f 293f eef7 27bf b704 d33e f7c0 80bf
000002e0: d605 86bf 42b6 47be 2315 723e 6868 fb3d
000002f0: 1d41 e93f 6911 afbf 2dbe 52bf 74ab 863e
00000300: 4aab 04bf 568b 1c3f e33b 293d 2f01 35be
00000310: 4509 9cbe bb3d 46bf 5a80 78bf e1f7 bb3c
00000320: 1c8e c3be aa2f a93f ee73 8c3f 8f07 cb3d
00000330: db8b 32be 2a62 e9be 763b 09c0 d1c9 8d3c
00000340: 9374 e5be 1077 6abd 2a5a 2ebf 7038 aebd
00000350: dbbc 64bf 7085 06c0 1524 8e3d 4dcb 9ebf
00000360: 1139 5cbf 634a fd3e f34c eebe 57e8 83bf
00000370: f5dd 8abf 0c86 9ebe 06f6 8cbe 691b 533f
00000380: 577a d33e 271f 20bf 148d cabe c466 293f
00000390: 63ed 72bd a0e5 f03e 25b6 d7be f5b3 03bf
000003a0: 9b75 debe 460b 53be c9cf 35bf e38c c2bf
000003b0: 5e0e b43d 4fb0 b5bf e84f f9be 6eac 28bf
000003c0: c0ac 423f 1ab8 4ebf 4424 d33e c242 7e3f
000003d0: bd39 d0bf 3de4 1140 07db db3e 5f6e 313f
000003e0: 7f9e 62bf e3ee 96be 9a74 043f 2cf6 7d3e
000003f0: 8fc7 c0bf f390 b63c 0aa4 0d3f f796 bebe
