IRT/irt_model.pth (torch, 324768 bytes, 4 tensors)

theta.weight f4 [27424, 1]
00000000: e12a 263f 7308 5e3c 7de7 a3bd a2a1 da3e
00000010: 3a80 503e 042b 033f 20ca ab3f 55e2 ce3f
00000020: b27c 023f 6cef 353f 5bb1 84bf a0dd f43f
00000030: fe9c f6bf 31ef 2a3f 0dd8 48bf 70b7 b93b
00000040: 5304 f13d 69fe 573f 1a66 0fc0 3cd1 efbe
00000050: 9e09 00bf 92bc 2b3f 9871 cebd c80d ecbf
00000060: 307f 553f b34d e53e d664 59be 006b 45bf
00000070: 9331 46bf 8aaa 87bf 4a15 113f 62a8 76bf
00000080: f770 ff3e f8ad 89bf 1097 243f ed71 c83f
00000090: 46ee 8d3f 3f9f 393f 5cd0 72be 9210 22bd
000000a0: 201c 8abf 994e 393f e888 473e 3d9f 743f
000000b0: abf5 e33e d82a 2ebe 9828 a03f 3e35 b33e
000000c0: dd11 053e 5305 2ebf cd1e 6fbd b19c 853f
000000d0: bbc2 c73e 8ab5 343e bb92 bc3e 42e2 11bf
000000e0: 58b7 d23e 01b8 73be 35a9 c5be 07d0 6abf
000000f0: 2c0d 723d eb13 4fbf 73ad d13e 7657 de3d
00000100: ee15 fcbe 42fb 25bf dd1f 7b3e ff8b 323f
00000110: 845c 873d 66eb d7bf 617b f33f 4135 3f3f
00000120: a2ba 0a3f 6cab 0d3f 7e95 ca3e 67e9 06bf
00000130: 02f4 243f b29a 5fbf 550c 123f 7e4f f83e
00000140: 996b 79bf cbfc 3dbf 6a58 023e 7c5d 8bbe
00000150: 32c0 96bf 04e7 e13e ccb7 413e 334b f2be
00000160: 833e 3f3f 321f 343f 85a4 2a3f ed99 353f
00000170: bc81 6ebf 5838 5b3e 7fde 92be cf6b 5ebc
00000180: bab2 943f 9af7 d6be 57f3 e03e 8d7d a03e
00000190: 9f71 40bf 4de7 3d3f 5cc8 da3e ae45 7abe
000001a0: 275d 1abf c925 923c 0a91 edbf be6f 36bf
000001b0: e9cc 703f e32b ca3f a133 983d 9cfd 8fbe
000001c0: 4297 eabf 0713 823e 6a8d 9fbe 84a3 ddbf
000001d0: 2d77 2440 02a6 1abf ebce 01bf 3f22 91be
000001e0: 3a33 093d ce69 08bf 5ea0 5fbf 881b a53e
000001f0: cdd4 a53f 6951 de3f 5607 c83d 6d91 c0bb
00000200: d6da 26be bb15 92bd 6e6f 003e 2ac0 e73d
00000210: 9d8c 0ec0 2242 49c0 f852 983f ee1e b43f
00000220: dab3 59bf b62e a33f da34 4e3f a12d ac3f
00000230: 5ade d63e fc71 d13f 2aee 37bf cf26 ca3e
00000240: ba31 ee3f 7727 db3c 1d0f 1fbe 4586 8ebe
00000250: f5b5 bebe dbe1 54be 20a3 93be 5807 3f3e
00000260: 9067 a73e b36f 603f f3ce 9fbe 8fc3 443f
00000270: 4583 f0be 3a7f 16bf af89 10bf 4d4e 62bf
00000280: 2abe aa3e b70a 373f 9874 bcbf 3f7b a9bf
00000290: 7c6b e03e b2b5 9fbf 11de 59bf 658b 42bf
000002a0: a44e 43be 7bf6 20bf 07a3 0fc0 7133 79bf
000002b0: 075a 0cbf 37bc a8bf 6d01 a8bf 76d9 c9bf
000002c0: 374f 2c40 ec9a 453f da49 89be 69aa ffbe
000002d0: 0ad6 fbbe ba01 28bf 18d3 00bf b5de 803e
000002e0: 6fee 863f cd6d 8fbe 5bdd 873f 7023 94bf
000002f0: e934 233f cedd c7bf 7ec4 4cbf de0d b8be
00000300: 7031 b3be fea9 91be 4920 193f 6135 d4bf
00000310: 9c78 debf cba8 d9bf 9dd3 dbbe 5f1a aa3e
00000320: 4c97 813e 4940 003f fd11 d0be 8aff 91bf
00000330: b541 ad3e 2d1c a03e 2b59 d73e 8ce5 8a3f
00000340: 3d3e 993e c5ab 743e ad79 023f 300c 84be
00000350: b1ab 14bf eee4 83bf 8c99 13bf cd02 11bf
00000360: 44e8 bcbf 5d31 c3bf f9e4 afbf 9fa2 683f
00000370: 18cc 2bbf ed0f 1cbe f417 1dbf e6b2 1bbf
00000380: f3cd 1cbf f210 1ebf 4641 1340 837d 93bf
00000390: 0730 cdbe 08a5 38be 689d 0f40 8b40 dd3e
000003a0: 2d09 2abf 2afa 27be 3af0 ff3e 6e68 923e
000003b0: 164d 0f3f ecf5 e0be 5215 aa3e 22ae 4ebf
000003c0: f7b2 09bf cf8d 8ebf 39e2 b6be 6c2f f1bf
000003d0: 7fe0 8d3f 497a f3be d004 123f 2639 5ebf
000003e0: fe7e 023f 1c90 19bf 3319 303a 9a4c 7ebd
000003f0: 0730 873f 95b8 cdbe 3927 943f 2055 793f
0.6490918 0.013551819 -0.08003137 0.4270144 0.20361415 0.5123751 1.3421059 1.6162821
0.5097152 0.71068454 -1.0366625 1.9130135 -1.926666 0.6677123 -0.7845467 0.0056676194
0.11768403 0.84372574 -2.2406068 -0.4683932 -0.50014675 0.6708461 -0.1008026 -1.8441706
0.833972 0.44785842 -0.21229872 -0.77116394 -0.77419394 -1.0598919 0.5667311 -0.9635068
0.49890873 -1.0756216 0.64293003 1.5659767 1.108834 0.72508615 -0.23712295 -0.039566584
-1.0789833 0.72385556 0.1948582 0.9555548 0.44523367 -0.17008531 1.2512388 0.35001558
0.12995096 -0.67976874 -0.058378983 1.0438443 0.39015755 0.17647377 0.36830696 -0.5698587
0.41155505 -0.2380066 -0.38605657 -0.91723675 0.059094593 -0.8088977 0.40952644 0.108565256
-0.4923548 -0.64836514 0.24523874 0.6974487 0.06609443 -1.6868713 1.9022027 0.74690634
0.5419103 0.55339694 0.39567178 -0.52699894 0.64434826 -0.8734542 0.5705007 0.48498148
-0.97429806 -0.74213856 0.1272904 -0.2721976 -1.1777403 0.44121563 0.18917769 -0.47322997
0.7470476 0.703601 0.66657287 0.70938 -0.9316671 0.21408212 -0.28685376 -0.013575508
1.1617043 -0.4198578 0.43935654 0.31345788 -0.7517337 0.7418106 0.42730987 -0.24440643
-0.6029839 0.017840283 -1.8559887 -0.71264255 0.9406267 1.5794643 0.074317224 -0.28123176
-1.832741 0.25405142 -0.31162578 -1.7315526 2.569774 -0.6040956 -0.50706357 -0.2834644
0.03349612 -0.53286445 -0.87354076 0.32247567 1.2955567 1.7368594 0.09767024 -0.005876711
-0.16294417 -0.07133051 0.12542507 0.11315949 -2.2273324 -3.1446614 1.190032 1.4071939
-0.85040057 1.274863 0.80549395 1.3451425 0.41966516 1.636291 -0.71847785 0.39482734
1.8608925 0.026752217 -0.15533109 -0.27836815 -0.37248197 -0.20789282 -0.28835392 0.18655145
0.326962 0.8767044 -0.31212577 0.768609 -0.4697515 -0.5878788 -0.5646009 -0.8840073
0.3334821 0.71500725 -1.4723082 -1.3240737 0.43832004 -1.2477324 -0.8510447 -0.7599395
-0.19072968 -0.628761 -2.2443254 -0.9734412 -0.5482487 -1.3182439 -1.3125435 -1.5769489
2.692335 0.7718952 -0.26814157 -0.499347 -0.49186736 -0.65627635 -0.50322104 0.25169912
1.0541514 -0.2801346 1.0614427 -1.1573315 0.6375261 -1.5614564 -0.79987323 -0.3594808
-0.34998655 -0.28450006 0.5981489 -1.657879 -1.7380557 -1.7004637 -0.42934886 0.33223245
0.25310743 0.5009809 -0.40638724 -1.1406109 0.33839193 0.31271496 0.42060217 1.0851302
0.29930297 0.2389365 0.5096691 -0.25790548 -0.5807448 -1.0304239 -0.5765617 -0.566449
-1.4758382 -1.524944 -1.3741752 0.9087314 -0.671083 -0.1524045 -0.61364675 -0.6081985
-0.61251754 -0.61744606 2.300859 -1.1522678 -0.40075704 -0.18031704 2.2439823 0.43213305
-0.6642025 -0.16404024 0.49987966 0.285953 0.55977 -0.43937624 0.3321939 -0.80734456
-0.53788704 -1.1137027 -0.3571947 -1.8842597 1.1084136 -0.47554234 0.57038593 -0.8680595
0.50975025 -0.5998552 0.0006717622 -0.06208477 1.0561532 -0.40179887 1.157447 0.97395515

a.weight f4 [17747, 1]
00000000: 73ca 5d3f 564d cdbf 22fa 013f a496 dbbf
00000010: 22db 2ebf 3365 7f3e 4558 fdbe bf4a 5cbf
00000020: 156a 72bf 7478 5abf e2a7 853f dbe2 60bf
00000030: a646 23c0 24a5 c7be ac0b 1abd 34e0 44bf
00000040: 72cd a8be 5733 babe b503 b4bf d7aa 153f
00000050: e544 dfbe 55c2 08bf 2d1b 34bf 7734 c8bf
00000060: 4622 ecbe be84 7fbf e30a 6ebf 1adc 033f
00000070: 25ae 4bbf f389 83bf 3340 80bf 613b fbbe
00000080: 680a 9dbf 4fb6 b1be a9c6 cfbe 2726 33be
00000090: 6dd0 9abf 2b04 06c0 49ab 22bf 12d3 823f
000000a0: 701b 01c0 3dcf 62bf ab16 d7be 5042 74bf
000000b0: 4a1a d0bf 8342 5ebe 5fff c6be ee68 abbf
000000c0: f11c 10be 93a6 de3e 1c19 92bf 4361 d2bf
000000d0: f2e4 0b3e 778f 7ebf 3e0f aebf 860f 0dbf
000000e0: c164 02bf dd22 4cbe 7fb2 87bf dba8 14bf
000000f0: 65e8 c0be 51fc babf 7de8 23be 86dc 94bf
00000100: d000 713d c570 e73e d45c 00c0 d24d 38bf
00000110: 1172 7bbf 1943 acbf 5dab 56be dfc6 f0bf
00000120: 7b4f 28bf e93a 87be 7d60 c1bf 3962 71bf
00000130: 3592 6dbe d2bc 1dc0 e864 5cbe 5324 99bf
00000140: 0a6b 9abf 3163 11c0 3ae2 253f 5df1 713e
00000150: 9c86 93bf 153f 5cbf fe64 34bf d96f 99bf
00000160: 37fe 6bbf df57 15c0 274d 1d3f 2832 49bf
00000170: 8653 133f 6bb3 9fbf dbcf 2cbf d6fc 853f
00000180: d6d8 f0bf cd8a 00bf 59fb adbe 1212 febe
00000190: 0683 92be 66b8 71be c27d 38bf f110 acbe
000001a0: 3e8d d13f 5d63 073f ac26 dc3e 9d41 86bf
000001b0: ce4d 1ebf 8dec 213e 26c6 08bf 70d6 a5bd
000001c0: 39bd bebe 2a68 cbbd 5979 b73b e629 1fbf
000001d0: e2eb cdbe f373 4e3f cb8d 25bf 09a1 463e
000001e0: 12fb e03f a1b5 37bd c5aa 8c3e 90c0 43be
000001f0: 3b91 59bf 5800 38bf 3f41 74c0 14a8 f43d
00000200: ed10 6bbf 2c7a 8abf 77f5 2a3f 034b bdbf
00000210: fdd8 8b3f b4eb 72bf 0a8c fbbc dc6a 833d
00000220: 663a 35be 5426 ebbe 8d53 86be 1348 76bf
00000230: 3bea 12c0 e02e f7be c90c 75be 3f8b 3ebe
00000240: 574c 35bf 13b1 06bf f6e6 20bf 772d 89bf
00000250: f5f3 873e d06a d4bf f108 20bf c3f2 593e
00000260: 09e3 47bf a931 bfbe bec8 a2bf b8f8 6ebf
00000270: 9b5e f4bf 86a3 33bf 7698 91bf 3c9b a1bf
00000280: f2bc cbbe fe85 3cbf c1fe 68bf 96b1 d1be
00000290: faaa 8cbf deff e5bf 214f f9bd 5bfe 6dbf
000002a0: c68d 08bf 15bf 88bf 70d2 ddbe 887b b0bf
000002b0: f507 41bf 86e6 b8bf d495 fabf a121 0dbe
000002c0: 1b8d eebf 0b23 b33f fa28 ddbf cc52 c5bf
000002d0: 95b2 79bf b003 053e ce03 0fbf 337a 0040
000002e0: ff51 bfbf 4779 45bf 708e ccbf f8f3 c33d
000002f0: b261 6d3f 7a61 a33f d4d6 ccbf 9891 31c0
00000300: 1c97 82bf e8b0 33bf 3fce a43f f7b2 a6be
00000310: b4d5 8b3e fe76 85bf c826 e33e b644 be3f
00000320: d77d 11bf 47ef 0ec0 9d80 1dc0 6fe9 e4bf
00000330: a97e 02c0 2834 343f 1814 86bf 5288 bebe
00000340: af11 8fbf 17de 9dbf f39c 45be f68e bcbf
00000350: 2462 1cc0 e5f9 4cbf 2292 a5bf 589b d1bf
00000360: 440b bd3f fe91 46bf d282 82bf 1138 34bd
00000370: bfd6 973f 97a0 70c0 0682 cabe 5147 37bf
00000380: 217f 8f3f 69a1 48c0 28fc aebe 6315 8cbf
00000390: dc75 f3be 9860 e33c a315 3dbf 52b7 e63e
000003a0: 91f8 5fbf b38c 4ebf 6ed5 db3f de5e 9c3e
000003b0: 53f9 8b3e c801 79bf ca7c d4be 8319 1a3e
000003c0: 1ba5 29be e0e8 edbf 2002 0b3c 8cc2 5fbf
000003d0: 7872 6dbe deec 0ac0 942b d3bf 72bd 1fbe
000003e0: e35e 8cbf 394e 6b3c 5e00 ebbf be32 1540
000003f0: 6b54 00bf 1f65 2bbf e3db cb3f deaf 0b3f
0.8663704 -1.6039226 0.507723 -1.7155347 -0.6830312 0.24940948 -0.49481407 -0.86051553
-0.9469312 -0.85340047 1.0441859 -0.87846154 -2.551187 -0.3899318 -0.037608787 -0.76904607
-0.32969242 -0.36367294 -1.4063631 0.58463806 -0.4360725 -0.5342153 -0.70353967 -1.5641011
-0.461199 -0.99811924 -0.9298536 0.51507723 -0.795626 -1.0276474 -1.0019592 -0.4906874
-1.2268801 -0.34709403 -0.40581253 -0.17495023 -1.2094857 -2.0940044 -0.6354261 1.0220664
-2.0172997 -0.8859747 -0.42009482 -0.95413685 -1.6258023 -0.2170506 -0.38866708 -1.3391397
-0.1407354 0.4348646 -1.1413913 -1.6435932 0.13661554 -0.9943766 -1.3598402 -0.5510181
-0.5093499 -0.19935174 -1.0601348 -0.58070153 -0.37677303 -1.4608251 -0.16006656 -1.1629798
0.058838665 0.45203224 -2.0056658 -0.71993744 -0.98220927 -1.3457977 -0.20963807 -1.8810691
-0.6574628 -0.26412132 -1.5107571 -0.942905 -0.23200305 -2.4646497 -0.21522868 -1.196421
-1.2063916 -2.2716792 0.6479832 0.23627229 -1.1525455 -0.86033756 -0.704666 -1.1987258
-0.92184776 -2.3334882 0.6144585 -0.7859216 0.5754932 -1.2476629 -0.6750466 1.0467784
-1.8816173 -0.50211793 -0.33980826 -0.49623162 -0.28615588 -0.23605499 -0.7206689 -0.33606675
1.6371229 0.5288599 0.42998254 -1.0488774 -0.6183747 0.15812893 -0.5342735 -0.08097541
-0.3725374 -0.09931977 0.0055991826 -0.62173307 -0.40219027 0.80645674 -0.64669484 0.19397368
1.757662 -0.04485095 0.27474037 -0.19116426 -0.8498723 -0.71875525 -3.8164823 0.11946121
-0.918227 -1.0818534 0.667808 -1.4788517 1.0925595 -0.94890904 -0.030706424 0.06416866
-0.17698058 -0.4592768 -0.2623562 -0.96203727 -2.2955463 -0.4827795 -0.23930658 -0.18607806
-0.7081961 -0.52613944 -0.6285242 -1.0717 0.26553312 -1.6595097 -0.62513644 0.21284012
-0.78080803 -0.37342575 -1.2717512 -0.93348265 -1.9091371 -0.7017139 -1.1374652 -1.2625499
-0.3979259 -0.73641956 -0.91013724 -0.409558 -1.0989678 -1.796871 -0.12173296 -0.9296624
-0.5334133 -1.0683314 -0.43324614 -1.3787699 -0.75402766 -1.444535 -1.9576974 -0.1378236
-1.8636812 1.3995069 -1.727813 -1.5415893 -0.9753812 0.12989688 -0.5586518 2.0074584
-1.4946898 -0.7713818 -1.5980968 0.09568018 0.92727196 1.2764122 -1.600306 -2.7745113
-1.0202365 -0.7019181 1.2875441 -0.32558414 0.2731148 -1.0426939 0.44365525 1.4864719
-0.5683264 -2.2333543 -2.460975 -1.7883738 -2.0389807 0.70392084 -1.0474882 -0.3721338
-1.1177272 -1.2333401 -0.19298153 -1.4731128 -2.44349 -0.8006881 -1.2935221 -1.6375532
1.4769063 -0.77566516 -1.0196173 -0.04399878 1.186241 -3.7598016 -0.39552325 -0.71593195
1.1210672 -3.1348517 -0.34176755 -1.0944027 -0.47550857 0.02775602 -0.7386114 0.45061737
-0.8748866 -0.8068344 1.7174509 0.30541128 0.27338657 -0.9726834 -0.41501456 0.15048794
-0.16566889 -1.8586693 0.008484393 -0.8740623 -0.23188198 -2.1707072 -1.6497674 -0.15599611
-1.0966457 0.014361911 -1.8359487 2.331222 -0.5012881 -0.66951174 1.5926479 0.5456523

b.weight f4 [17747, 1]
00000000: d5eb 9ebf f9d6 0a3e 37f8 323f 09cb 01bf
00000010: d287 673f 5eb9 0840 2d92 b8bd d8d8 683f
00000020: 40c8 013e 89e9 c43d 72e0 a0bf 5548 e9bf
00000030: 1476 70be 1a4b b63f 3370 febe c5df 2fbf
00000040: 807e 82bf 50b9 833f 7d30 2a3f 01ce c93f
00000050: 2980 08c0 b218 22bf 03a0 5b3e c683 693f
00000060: 9fbe abbf efc7 ef3e 1e9f e0bf 5939 0540
00000070: 2792 21bf 7434 cabf fecc aabf 9bd2 7ebf
00000080: f14b 043e f1fe 77be 2172 a1bf 09e3 b8be
00000090: 9138 113e 18ec b6bf fa26 d9bf 5559 2040
000000a0: 502d 54be a95a 4f3f 2c6d afbf fe86 d33e
000000b0: b9f9 d23d 858a f9bd 8972 f7be d38f cabf
000000c0: 4a21 2ebf e7b1 073e 732c 2fbf 0add efbf
000000d0: f90e abbf b929 c2be f3e0 773f b68a 143f
000000e0: a90b 9bbf 52d0 c4b9 668f a3bf 5bb9 233f
000000f0: fa7a a9be 8d2f b3bf 969b ccbf 230d 64bf
00000100: 912c 783f e6c7 dbbf 729e 9abf f9f9 d1be
00000110: 1b09 783f 8e39 1d3f c25b 3cbf 93a7 fc3f
00000120: 7590 90bf e59c 64be 513f ba3f 2945 3b3f
00000130: d492 053f 728e 22c0 2b97 b43f 4ea9 20be
00000140: 3ea6 b83b e492 9fbe fcc6 9dbf 2139 a93f
00000150: 7cee 2abf 464d 773e d872 2c40 1aa1 a83e
00000160: a8ff a5bf 4531 1a3e b531 863e 3e73 52bf
00000170: 6141 e33f ee99 a5bf 8cab fabf b910 ce3f
00000180: 410b cc3f db30 6dbf 98ab cbbf df76 7cbe
00000190: b334 c83e 98fd 1a3e acf1 e6be 6e87 fabf
000001a0: d3c6 1440 a1cf d6be d569 33bf 11f3 ddbe
000001b0: c919 40bf 2b41 cdbe 96a2 0a3f 3816 a03e
000001c0: 0e1f 9abf 2e40 dabd 5140 3440 1bc8 a8bd
000001d0: 18af a83d d046 05c0 626c a73f e6bf 78bf
000001e0: a1f7 a4be 2395 9c3e 75d3 ddbf 20ba 6dbf
000001f0: c665 023f 7309 873f 34ef b3be 2e60 e2bf
00000200: 3978 b6bf 8cf3 083f 057a afbf bc27 653f
00000210: 67e9 aabe 5701 9f3f 17e6 eb3f a364 503f
00000220: 5fe7 1640 5435 fe3f ec34 f93f 4e26 d03f
00000230: aae6 b53e 28d8 0ebf 5561 bbbe 6fea 4140
00000240: d4fe d6bd 4b34 19be 86d5 843f 9d9c 04bf
00000250: de2d 3840 750d 6e3c 4fd4 973f e408 513f
00000260: 2eb4 9b3f 3b44 7f3f c5bd 513f 3286 813e
00000270: 9ebc 09bf f7f0 273f 8f25 aabe 57fa d53e
00000280: 5470 babf f0f3 b0be 5a68 73bf 83cc abbf
00000290: 6ca2 42bf 36fd 333f 7f1d d8be 7c14 a43f
000002a0: f9f2 303f d7fb e13e f49f b03f f153 a63e
000002b0: fa5f 2cbe fb23 513f 0649 c13e b1d6 fd3e
000002c0: 1526 163f b456 3040 c074 213f f543 ebbf
000002d0: 97e8 c23c ebb2 f3bf 4a9c 0c3f 84a5 0940
000002e0: b0ff c93d ffb1 6d3f 1d5b 3e40 5283 04c0
000002f0: 95aa 4abf fe44 2140 84cb 3b3f a24e 2a3e
00000300: 23f6 913f eaff 293f 490c b33f 08b4 c73f
00000310: 12fe 1040 624e 963f bc5f 2f40 3271 4640
00000320: 5c09 9d3f 158c 273f d0fa 8dbe a08f fbbe
00000330: d3f5 ac3e 0c53 d93f fadb ba3f 5e40 29bf
00000340: 1f92 48bf a926 0d3d 8ce6 e83f e856 163f
00000350: b4fe 1a3f 2650 4abf 6cf9 22bf 04df a03d
00000360: 8e98 f23f d400 2a3f d35a c83d 5ced 09bf
00000370: c889 4940 35b2 4c3e 46d3 8e3f e4b9 4d3e
00000380: c17b 7cbf f581 4e3f 98f4 f03f b59a 833f
00000390: 9074 2d3f a8c5 7cbe 2c1c 85be cba2 eb3f
000003a0: c7d9 b23f ad89 b3be 0cca 2b40 8c35 ff3f
000003b0: 2453 d53f be32 ca3f c3fc 653f 2054 ef3f
000003c0: 759c 96bf 9bc6 2f3f 865a 2abe 1150 78bf
000003d0: 3e4e b13f 6e4d 4b3e e749 eebf 9765 df3e
000003e0: 741d ad3f 34bd cd3f 2519 223f 4759 fb3f
000003f0: 83f4 b23f d866 a93f 86df 4f40 675f 1f40
-1.241572 0.13558568 0.69909996 -0.5070043 0.9044162 2.136314 -0.09012256 0.9095588
0.12674046 0.09614856 -1.2568495 -1.8225199 -0.23482543 1.4241669 -0.49694976 -0.6870082
-1.0194855 1.0290928 0.6648024 1.5765992 -2.1328223 -0.6331893 0.21447758 0.91216695
-1.3417548 0.46832225 -1.7548559 2.0816252 -0.63113636 -1.5797257 -1.3343809 -0.9954011
0.12919594 -0.24218346 -1.2612954 -0.36110714 0.14181735 -1.42908 -1.696502 2.5054524
-0.2072041 0.8099771 -1.3705192 0.41313928 0.10301537 -0.12184624 -0.4832957 -1.5825142
-0.68019545 0.13251458 -0.684272 -1.8739331 -1.3363944 -0.37922457 0.9682762 0.58024156
-1.2112933 -0.00037539244 -1.2778137 0.63954705 -0.33101636 -1.3998886 -1.5984981 -0.89082545
0.96943 -1.7170379 -1.2079604 -0.41011027 0.96888894 0.61415946 -0.7357751 1.973864
-1.1294085 -0.22325476 1.4550573 0.73152405 0.52177167 -2.5399442 1.4108633 -0.15689585
0.005635052 -0.31166756 -1.232635 1.3220559 -0.6677015 0.24150571 2.6945095 0.3293541
-1.2968645 0.15057857 0.26209798 -0.82207096 1.7754327 -1.2937601 -1.9583602 1.6098853
1.5940934 -0.9265267 -1.5911741 -0.2465472 0.39102706 0.15135801 -0.45106256 -1.957258
2.3246353 -0.41955283 -0.7008336 -0.43349507 -0.75039345 -0.40088782 0.54154336 0.31266952
-1.2040727 -0.106567726 2.8164256 -0.08241292 0.082365215 -2.082447 1.3079951 -0.97167814
-0.32220176 0.30582532 -1.7330157 -0.9286213 0.50936544 1.0549759 -0.35143435 -1.7685602
-1.4255439 0.53496623 -1.3709112 0.89513755 -0.33381197 1.2422284 1.8429593 0.8140356
2.3578718 1.9860024 1.9469275 1.626169 0.35527545 -0.5579858 -0.36597696 3.0299337
-0.10497823 -0.14961354 1.0377662 -0.5180147 2.8777995 0.014529576 1.1861666 0.8165419
1.2164361 0.99713486 0.8193019 0.25297695 -0.5380343 0.6560206 -0.3323178 0.41792557
-1.456553 -0.3456111 -0.950811 -1.3421787 -0.76029086 0.70308244 -0.42210004 1.2818751
0.69120747 0.4413745 1.3798814 0.32485917 -0.16833487 0.81695527 0.37751025 0.4957786
0.5865186 2.755292 0.6306877 -1.8380114 0.023792548 -1.9038976 0.5492598 2.1507273
0.09863222 0.92849725 2.974311 -2.0705152 -0.7916654 2.519836 0.73357415 0.16631559
1.140324 0.6640612 1.3988124 1.5601816 2.2655072 1.174267 2.7402182 3.100659
1.2268481 0.65448123 -0.27730417 -0.49133015 0.337813 1.6978469 1.4598382 -0.6611384
-0.78347963 0.034460697 1.8195357 0.5872636 0.60544896 -0.79028547 -0.6366184 0.07855037
1.8952806 0.66407514 0.09782948 -0.53877807 3.1490345 0.19989856 1.1158226 0.20090443
-0.98626333 0.8066705 1.8824644 1.0281588 0.67755985 -0.24684775 -0.25998056 1.8409055
1.397271 -0.35065976 2.684207 1.9938216 1.6665998 1.5796735 0.8983881 1.8697548
-1.1766497 0.6866242 -0.16636094 -0.9699717 1.3852003 0.19853756 -1.8616303 0.43632194
1.3524613 1.6073365 0.6331962 1.963662 1.3980869 1.323451 3.2480178 2.490198

c.weight f4 [17747, 1]
00000000: a9c1 893f f8ed e13e 1da0 c93f cacd 6bbf
00000010: 6a09 13be 646e 803e 62e1 643e 0a85 c3be
00000020: 9077 463f 7700 34bd 17cc 563e c95b d53e
00000030: fca4 cfbf 23f0 f4bf b1cc 0a3f 9d69 d23f
00000040: c399 253f a799 f83e 8637 ad3e 3e88 4f3f
00000050: 794d b9bf 995b c0bf a28b 3c3f 85b4 2dc0
00000060: bed6 35bf 1a18 12be 2ada bcbd 6a1b 503f
00000070: 3a8b 6bbf 7cc2 01bf 44ff 56bf 133c 8fbf
00000080: f202 eabf 7d8e 86be 3eb7 463e c87a 203f
00000090: a764 053f 7a09 313f 9a84 133f 5722 2f3e
000000a0: c34c 2dbe ab94 f93d 5641 28bf 8699 183f
000000b0: c91d 6ebf 7bc0 983d 51f7 d4be a25f d53d
000000c0: f64c 053e 22b2 523f 9e27 0ebe 8459 88bf
000000d0: eb03 cebe e85b 09bf cbf8 953d 6e7f bdbc
000000e0: 2d39 babf 68bc 373d 1dc8 79bf 23a5 54be
000000f0: 135e 3f3f ec84 74bf 1d20 c23e 3624 97be
00000100: e7ce 283d 1049 47be 2e37 5ec0 dc2d e53e
00000110: 9ec2 503e b3e8 2b3e d4db 5ebd a868 1b3e
00000120: db1b 09bc 589f 8b3f 7be5 363f 5af3 8dbe
00000130: 4245 113f b387 863f ce67 b43e be52 903f
00000140: 4932 893f 970e 0cc0 1ef8 e83c 87a1 0e3f
00000150: a65f 06bf a5c8 8bbf a8f6 403f 58db 5e3f
00000160: 2d71 173f 1b57 53bf 11bf 413e c5c2 0c3f
00000170: a765 7c3f 2e78 0e3f 3437 e03e c405 0b3f
00000180: 4d9b 973f 64d4 3a3f 6015 b03f 9425 6bbf
00000190: 18cb 7a3f 324b 803f 8cbb b33e 558e 20bf
000001a0: 5f04 b33e 1a7c 8e3f 515a f23f 58c5 533f
000001b0: faaa f23e 4528 d03f 77de 1f3e df5e 483f
000001c0: 52d0 9ebf daab 6d3e f1cc 42c0 3835 e5bc
000001d0: 51bc c23e 4e42 8dbe a5e5 1ebf 38c1 0e3f
000001e0: 2573 833f 4c2b b1bd b39d 1e3f fa2a 833e
000001f0: 4cfe b6be b308 68bf 4025 bb3f 6d86 e8bc
00000200: 9c3b adbf 72a0 8dbf 82e1 24be 6401 cbbf
00000210: d2da 0240 13e8 bfbf 9379 46bf ba1d b8bf
00000220: 9635 aebf 149e cdbf 4482 5cbf fb0b b6bf
00000230: 515c c8bf dba8 443f 02b9 eb3d 7f24 383f
00000240: e517 edbe 1b03 d23d 3740 4fbf be70 3d3e
00000250: 7d05 77bf 077a 1dc0 f3b1 b6bf f764 7bbd
00000260: 1efb bebf 19ce 183e d201 263f e868 553d
00000270: b8d6 7dbf 77f3 fcbf adbd 2ebe ada8 82bf
00000280: 331e c43f 2733 1d3e 3ad2 7abf 92cf 333f
00000290: d911 3c3e bf12 313f 537b 643f 57f6 babf
000002a0: 4b72 ecbe 0096 10c0 8754 19bf a6f7 d8bf
000002b0: f62d 29bf 9a9f 853f 61db c2bf ee76 983d
000002c0: 1e9f b8bf 0b9e 5a3e 33cc 05bf 354c c73f
000002d0: bce5 f33e 3d97 b83f 41c4 9d3e 3be9 2b3e
000002e0: 5e9a 65bf 17df fabf ce17 0cc0 a2df 45be
000002f0: eaba 1d40 95de 61bf 4465 8fbf 6506 963e
00000300: c40a 723f bd13 fdbf 77de 24bf 9f42 fcbc
00000310: 215a 06bf 7fd5 00c0 eb06 9fbf a4b4 103f
00000320: abe4 eabf 7da8 663f 77ab 0cc0 4d2d 12bf
00000330: 4689 f2bf af0b 073f 97ff 553e 7246 d7bd
00000340: e37e 153f bc3a 84bf 9477 a2bf 93eb 45bf
00000350: 08ce 463e fcd3 70bc 52df 1bbc c89b 063f
00000360: 71a7 86be 5cec 083e 606f 7a3e 88dd 91bf
00000370: 2969 9c3e 387f b6bf ac9e 3fbe 10c1 83bf
00000380: de4d e23f bae3 653f 71da 173f 652e 1bbf
00000390: eda4 3fbf feac 2440 afb6 8dbd 6fdc 08bf
000003a0: 8d48 27c0 d601 26bf 5f62 adbf 4ec6 3dc0
000003b0: 1c8d 4a3e 229c c9bf 55b5 08bf 4083 ccbe
000003c0: fbbb b13f cff1 a5bf 6a68 63bc 9516 fcbe
000003d0: 51b3 a7be 3d5f 753d 9402 0f3e 3261 823f
000003e0: 9559 b5bf dcfd 033d 1f91 3bbf 2db0 cfbe
000003f0: 5df8 a2bf dc11 99bf 86c7 0dbf aa12 b5be
1.0762225 0.44126868 1.5751988 -0.92110884 -0.1435906 0.2508422 0.22351602 -0.38187438
0.7752619 -0.043945756 0.20976292 0.4167159 -1.6222224 -1.9135784 0.54218584 1.6438481
0.64687747 0.48554727 0.33831424 0.81067264 -1.4476768 -1.5027953 0.7365056 -2.714143
-0.71030796 -0.14267007 -0.09221299 0.8129183 -0.9200932 -0.50687385 -0.83983254 -1.1190208
-1.8282149 -0.26280585 0.19405839 0.6268735 0.5210671 0.69155085 0.5762421 0.17102943
-0.16923814 0.12186559 -0.65724695 0.5960926 -0.930142 0.07458588 -0.41594937 0.10418631
0.1301764 0.8230306 -0.138823 -1.0652318 -0.40237364 -0.5365586 0.07322844 -0.023132052
-1.4548699 0.044857413 -0.97570974 -0.2076612 0.7475292 -0.9551532 0.37915125 -0.29519814
0.041212942 -0.19461465 -3.472118 0.4476155 0.2038674 0.16787986 -0.054408863 0.15176642
-0.008368458 1.0908003 0.7144391 -0.27724725 0.56746304 1.0510162 0.35235447 1.1275251
1.0718471 -2.1883905 0.028438624 0.5571522 -0.524897 -1.0920607 0.7537637 0.8705344
0.5915707 -0.8255479 0.18920542 0.54984695 0.9859261 0.5565213 0.43792117 0.5430567
1.1844269 0.7298033 1.3756523 -0.91854215 0.97966146 1.0022948 0.35104024 -0.6271718
0.34964272 1.1131623 1.8933812 0.82723 0.4739607 1.6262289 0.15612207 0.7826976
-1.2407324 0.23210087 -3.0437586 -0.027979478 0.380343 -0.2758965 -0.6206916 0.5576358
1.0269514 -0.08650836 0.6195938 0.25618726 -0.35740888 -0.90638274 1.4620743 -0.028384412
-1.3533816 -1.1064589 -0.1610165 -1.5859799 2.0446057 -1.4992698 -0.7752926 -1.4384072
-1.3610103 -1.6063867 -0.8613627 -1.4222406 -1.5653173 0.76820153 0.11509897 0.7193069
-0.46307293 0.102544986 -0.8095736 0.18500039 -0.9649275 -2.460573 -1.4273056 -0.061375584
-1.4920385 0.1492237 0.6484653 0.052102 -0.9915576 -1.97618 -0.17064543 -1.0207726
1.5321716 0.15351544 -0.9797703 0.702386 0.18366183 0.6916923 0.8925068 -1.4606427
-0.4618095 -2.2591553 -0.59894603 -1.6950576 -0.66085756 1.0439332 -1.5223199 0.07444559
-1.4423559 0.21349351 -0.5226471 1.5570132 0.4763621 1.4421154 0.30813792 0.16788189
-0.8968867 -1.9599332 -2.188953 -0.1932359 2.4645333 -0.8823026 -1.1202779 0.29301754
0.9454768 -1.9771649 -0.64401954 -0.030793486 -0.52481276 -2.0130308 -1.2423986 0.56525636
-1.8351034 0.9010084 -2.1979654 -0.57100374 -1.8948143 0.527522 0.20898281 -0.10511483
0.5839674 -1.0330424 -1.2692742 -0.7731258 0.19414532 -0.0146989785 -0.009513693 0.52581453
-0.26299623 0.13371414 0.24456549 -1.1395731 0.3054898 -1.4257574 -0.18712872 -1.0293293
1.7680013 0.8980061 0.5931769 -0.6061767 -0.7486103 2.5730586 -0.0691961 -0.53461355
-2.6138031 -0.6484655 -1.3545645 -2.9652286 0.19780391 -1.5750773 -0.5340169 -0.39943886
1.3885492 -1.2964419 -0.013879875 -0.4923598 -0.32753995 0.05990528 0.13965827 1.0185912
-1.4167963 0.03222452 -0.7326831 -0.405641 -1.2732044 -1.1958575 -0.55382574 -0.35365802
