IRT/irt_model.pth (torch, 231712 bytes, 4 tensors)

theta.weight f4 [4164, 1]
0	0x3d9e630b	0.07733735
1	0xbdac3f85	-0.08410553
2	0xbde78a9a	-0.11305733
3	0x3f2e6194	0.6811764
4	0xbf5704ce	-0.83991706
5	0xbf4a432a	-0.79008734
6	0x3dfee75d	0.12446473
7	0x3d0b1b95	0.03396185
8	0xbf58cb4d	-0.8468521
9	0x3e2a2c8a	0.16618553
10	0xbe438ac7	-0.19095908
11	0xbe0bc9e1	-0.1365123
12	0xbd27007d	-0.04077195
13	0xbde32c37	-0.11092418
14	0xbf624892	-0.88391984
15	0xbcc69345	-0.024240145
16	0x3ea20c20	0.31649876
17	0x3e2f4f4e	0.17120096
18	0x3e892233	0.26783904
19	0x3f524c08	0.82147264
20	0xbe929f9a	-0.2863739
21	0x3de7472f	0.11292874
22	0xbd7cb6e1	-0.061697844
23	0xbe865b5a	-0.2624157
24	0xbdab2a26	-0.083576486
25	0xbf3ee586	-0.74568975
26	0xbec492a2	-0.38393122
27	0x3f93f116	1.1557949
28	0x3e51a092	0.20471409
29	0x3c34f6e7	0.011045194
30	0x3f95d131	1.1704465
31	0xbf74b846	-0.9559368
32	0x3fb84c6c	1.4398322
33	0xbea0fce9	-0.31442955
34	0xbe79f3d3	-0.24409418
35	0xbe51cce1	-0.20488311
36	0xbf219f9c	-0.6313417
37	0xbf1f6ab6	-0.622722
38	0xbeba2975	-0.36359754
39	0x3ee93768	0.45550084
40	0xbd69f78f	-0.057120856
41	0xbf24401c	-0.64160323
42	0xbe440b36	-0.19144902
43	0x3fa2001c	1.2656283
44	0xbe07725d	-0.1322722
45	0xbf39ba7c	-0.7255018
46	0xbd283bff	-0.04107284
47	0x3e6bffb1	0.23046757
48	0xbf392d7d	-0.72335035
49	0xbe5f2803	-0.21792607
50	0x3e3a7feb	0.1821286
51	0x3e805794	0.25066817
52	0xbe2f08dd	-0.17093225
53	0xbedcc4dc	-0.43118942
54	0x3fca8158	1.5820723
55	0x3dad2cac	0.08455786
56	0x3eaed32e	0.34145492
57	0xbfcc9876	-1.5984027
58	0x3eaeb9b4	0.34126055
59	0x3f3decd5	0.741895
60	0x3fb06f4e	1.3783967
61	0xbe86aecf	-0.26305243
62	0x3d776df2	0.060407586
63	0x3e8b0c16	0.27157658
64	0x3bc1beb2	0.005912625
65	0x3dd7523c	0.10513732
66	0xbe5b44ac	-0.21412915
67	0x3e69c5aa	0.22829309
68	0x3fbd7132	1.480017
69	0xbc8d5829	-0.017253952
70	0xbf15cca9	-0.5851541
71	0x3f792d78	0.97335005
72	0xbeeeaea0	-0.46617603
73	0x3e89e610	0.26933336
74	0xbe0bf684	-0.13668257
75	0x3e95a6ba	0.29228765
76	0xbf160fa5	-0.5861762
77	0xbf03f9de	-0.5155314
78	0xbf27277e	-0.65294635
79	0x3ec85ac5	0.39131752
80	0x3d8a03d9	0.06739015
81	0xbf804521	-1.0021096
82	0xbf5eaabd	-0.86979276
83	0xbfa8240d	-1.3136002
84	0xbf21906a	-0.63110983
85	0xbf0652a6	-0.5246986
86	0x3e9006de	0.2813024
87	0xbe9f5578	-0.31119895
88	0xbe863b5c	-0.26217163
89	0xbdcc450c	-0.09974107
90	0xbf1056c2	-0.5638238
91	0xbf2eae4b	-0.682347
92	0xbe07664c	-0.13222617
93	0xbf5635a4	-0.836756
94	0xbf05cbc5	-0.5226405
95	0xbf2f4675	-0.68466884
96	0x3f3989e8	0.72476053
97	0xbf3c7539	-0.7361637
98	0xbe7285ac	-0.23683804
99	0xbe9449d5	-0.2896258
100	0xbe83a1bf	-0.2570934
101	0xbeb29245	-0.3487722
102	0xbdad58d1	-0.08464206
103	0xbf4b8dfe	-0.7951354
104	0x4057ffe9	3.3749945
105	0xbed8e4bb	-0.42362007
106	0xbfae7660	-1.3629875
107	0x3e18ec37	0.14933859
108	0xbf02ddc8	-0.5111966
109	0xbf535b6d	-0.8256138
110	0xbe2923f9	-0.16517629
111	0xbece5721	-0.4030085
112	0xbf4fa371	-0.81108767
113	0xbbed4df1	-0.0072419574
114	0xbf901fcb	-1.1259702
115	0x3e8496be	0.25896257
116	0xbf3b2200	-0.73098755
117	0x3c82b311	0.015954526
118	0x3cacc5a4	0.021090336
119	0xbb562e15	-0.0032681276
120	0x3f8840de	1.0644796
121	0xbf14c858	-0.581182
122	0xbf8317c9	-1.0241634
123	0x3e8cdbb6	0.27511376
124	0xbdb496cd	-0.088178255
125	0x3ef8288e	0.4846844
126	0xbdcdcc96	-0.10048787
127	0x3f38f2ef	0.7224569
128	0x3e258c23	0.16166739
129	0x3eedf748	0.46477723
130	0xbe5f4968	-0.21805346
131	0x3f3f6a2e	0.7477139
132	0x3e71ba16	0.23606142
133	0x3eaae091	0.33374456
134	0x3f2643be	0.64947116
135	0x3f86ee8a	1.0541546
136	0x3a946d3e	0.0011324061
137	0x3d573991	0.052545134
138	0x3e9d072f	0.30669543
139	0xbf1ec08f	-0.6201257
140	0xbf651dff	-0.89498895
141	0x3f904fd5	1.1274363
142	0x3dcd1a5c	0.10014793
143	0xbf6151df	-0.8801555
144	0x3df85c14	0.121269375
145	0x3f131504	0.5745394
146	0x3eb675d4	0.3563677
147	0xbf2e221b	-0.6802079
148	0xbf106618	-0.5640578
149	0xbe48df89	-0.19616522
150	0x3c8c19ac	0.017102085
151	0xbf6143d6	-0.87994134
152	0xbf97f1df	-1.1870688
153	0xbfb3aa14	-1.4036279
154	0x3f040c5b	0.5158135
155	0x3f27ad16	0.65498483
156	0xbe15557d	-0.14583392
157	0x3eb719dd	0.3576192
158	0x3e9d230c	0.306908
159	0x3f0dffec	0.5546863
160	0xbd805e8e	-0.06268035
161	0x3fc151c6	1.510308
162	0x3fab7b47	1.3396996
163	0xbf1be8e3	-0.6090223
164	0xbeb3bfbe	-0.35107225
165	0x3e62ecc3	0.2216063
166	0x3e98e9b0	0.2986579
167	0x3edf792b	0.4364713
168	0x3f0b3b94	0.54387784
169	0xbeedc96f	-0.46442744
170	0xbe970f9e	-0.29504102
171	0x3f3d95ed	0.74056894
172	0x3e03a1fe	0.12854764
173	0x3ea92589	0.3303645
174	0xbec55ae4	-0.38545907
175	0x3f1a0c65	0.6017516
176	0x3edd0048	0.43164277
177	0xbe7367bc	-0.2377004
178	0x3e58e343	0.21180443
179	0x3f35f1c9	0.7107206
180	0x3d74c911	0.059762064
181	0x3f5e2be4	0.8678572
182	0x3e42bb9f	0.19016884
183	0xbf798ef3	-0.9748375
184	0x3e459131	0.19293667
185	0xbdb87c1d	-0.09008048
186	0xbe5c2f65	-0.21502455
187	0xbf8a98fb	-1.0827936
188	0xbfd0c875	-1.6311175
189	0xbedcb91c	-0.43109977
190	0xbf8c4fc1	-1.0961839
191	0x3e40b3c4	0.18818575
192	0x3ceae9f0	0.028676003
193	0xbff7a77a	-1.9347985
194	0xbeeb0a8c	-0.45906484
195	0xbf838fbe	-1.0278242
196	0xbf551c1c	-0.83246017
197	0x3ee07d3c	0.43845546
198	0x3f6d47f6	0.9268793
199	0xbf3a7b81	-0.728447
200	0xbcc44576	-0.023958903
201	0x40126cfc	2.2879019
202	0x3e8cf18e	0.27528042
203	0x3f0c61b5	0.5483659
204	0xbf1c5b2e	-0.6107663
205	0xbfe9d0b0	-1.8266811
206	0xbf3ad863	-0.7298643
207	0xbefb5193	-0.49085674
208	0xbf2eeda7	-0.6833138
209	0xbfca1207	-1.5786752
210	0x3eef0548	0.46683717
211	0xbea37692	-0.319264
212	0xbff35c4d	-1.9012543
213	0xbeb2b7e0	-0.3490591
214	0xbfb07905	-1.3786932
215	0xbec7f8f8	-0.39057136
216	0x3f28ca1e	0.65933406
217	0xbec2a8f7	-0.38019535
218	0xbf63983b	-0.8890416
219	0xbe3a1b17	-0.18174396
220	0x3f3547bc	0.7081258
221	0x3f45f5cc	0.7732818
222	0xbfb61c86	-1.4227455
223	0xbea6f88f	-0.3261151
224	0xbfe77322	-1.8082011
225	0x3f6a567d	0.9153822
226	0xbf72ec2f	-0.9489164
227	0x3e96ebb9	0.29476717
228	0xbf493763	-0.7860014
229	0x3fb2f0e7	1.3979768
230	0x3f6b0eaa	0.9181925
231	0xbd2c67d3	-0.042091202
232	0x3f027cbe	0.5097159
233	0xbeb101e7	-0.34571764
234	0xbc873928	-0.016506746
235	0x3e8e6f39	0.2781923
236	0xbf66c1e0	-0.9013958
237	0x3f21ae0d	0.63156205
238	0xbeeac2a1	-0.45851615
239	0x3d415cca	0.04720763
240	0xbeaec6e4	-0.34136117
241	0xbf4b6b7a	-0.7946087
242	0x3ec36d2f	0.38169238
243	0x3f92d46b	1.1471075
244	0xbf35f4b2	-0.710765
245	0xbf9b71f1	-1.2144147
246	0x400ec370	2.2306786
247	0x3f2ad6a2	0.66733754
248	0x3fa1a646	1.2628868
249	0x3f7af86f	0.9803533
250	0x3f9c1167	1.2192811
251	0x400dd86e	2.2163348
252	0xbf235783	-0.6380541
253	0xbf003c71	-0.50092226
254	0xbf1b677d	-0.60704786
255	0xbf049d6a	-0.51802695

a.weight f4 [17747, 1]
0	0x3eac5a7a	0.33662778
1	0x3f8f153d	1.1178356
2	0xbf270b59	-0.6525169
3	0x401a1e79	2.40811
4	0x3f4818a1	0.7816258
5	0xbfca1ebe	-1.5790632
6	0xbed930a0	-0.4241991
7	0x3f5a773d	0.85338193
8	0xbfa59d08	-1.2938547
9	0xbfcfe6a6	-1.6242263
10	0x3f2362ce	0.6382264
11	0xbf11d9ff	-0.5697326
12	0x3f8d1433	1.1021789
13	0x3f9ea269	1.2393314
14	0x3fbd09fb	1.4768671
15	0xbeac9eb7	-0.3371484
16	0x3ce81890	0.028332025
17	0x3ebd68ec	0.36994112
18	0x3f1647c8	0.5870328
19	0xbf6dd36d	-0.92900735
20	0x3f42858a	0.75985014
21	0xbebf9a05	-0.37422195
22	0x3de5f8de	0.11229108
23	0xbf2aa297	-0.6665434
24	0xbe547cc1	-0.20750715
25	0xbf58cc80	-0.8468704
26	0x3eacd509	0.33756283
27	0xbf68ffaa	-0.9101511
28	0xbf62d314	-0.8860333
29	0x3da1d586	0.079020545
30	0xbe37158a	-0.1787931
31	0x3fc7263a	1.5558541
32	0xbeaf2557	-0.34208176
33	0x3bcfdbf9	0.0063433615
34	0x3f3a7df9	0.7284847
35	0xbe47066d	-0.19436045
36	0xbfafff69	-1.374982
37	0xbf228748	-0.6348767
38	0x3fe17ade	1.7615621
39	0x3f2b1681	0.66831213
40	0x3f12b0b1	0.5730086
41	0x3d8e64e2	0.069528356
42	0xbec75647	-0.38933012
43	0xbf407b70	-0.7518835
44	0xbf0b7215	-0.5447095
45	0xbf52ec06	-0.82391393
46	0x39e520d0	0.0004370273
47	0xc0238a91	-2.5553324
48	0xbdb657fc	-0.089035004
49	0xbf647e36	-0.8925508
50	0xbc22b9bd	-0.009931979
51	0x3d332898	0.043739885
52	0x3fb9b44a	1.4508145
53	0x3ea2b451	0.31778196
54	0xbf987397	-1.1910275
55	0x3f3433f2	0.7039176
56	0x3faf290e	1.3684404
57	0xbfa72fae	-1.3061426
58	0x3fb1cb84	1.3890233
59	0x3c7981e0	0.0152287185
60	0x400bceb7	2.1844919
61	0x3f082ad5	0.53190356
62	0x3e055547	0.13020812
63	0xbe6f6fcb	-0.2338249
64	0x3e77e04d	0.24206658
65	0x3f58710c	0.84547496
66	0xc03c2eda	-2.9403596
67	0x3ec4f157	0.38465378
68	0x3f0dee92	0.55442154
69	0x3eb8dc34	0.36105502
70	0x3dcd345b	0.10019752
71	0xbf01d613	-0.50717276
72	0xbe66d524	-0.22542244
73	0xbf02ff75	-0.51171046
74	0xbdcc48c7	-0.09974819
75	0xbf94cd4c	-1.1625152
76	0x3d0bcc54	0.03413041
77	0xbf1807ad	-0.5938671
78	0xc010ab2a	-2.260447
79	0xbe20b191	-0.15692736
80	0x3e59da19	0.21274604
81	0x3fa763b8	1.3077307
82	0x3ddd9211	0.108188756
83	0x3eaeffa9	0.34179428
84	0xbe3ef05a	-0.18646374
85	0x3e6a7d71	0.22899415
86	0x3d10a734	0.035315707
87	0xbe0668ef	-0.13125966
88	0xbe105f1a	-0.14098778
89	0xbf6afc5e	-0.9179133
90	0x3eb5a113	0.35474452
91	0xbe91bb3c	-0.2846316
92	0x3f260162	0.6484586
93	0x3f5bc82b	0.8585231
94	0x3f2cefc6	0.67553365
95	0x3fbf80aa	1.496114
96	0xbef578ac	-0.47943628
97	0x3f29b8ac	0.6629741
98	0xbb90882b	-0.0044107637
99	0x3f0c396d	0.54775125
100	0x3fa9c842	1.3264239
101	0xbfd85efd	-1.6903988
102	0x3f8f0958	1.1174726
103	0xbf861de1	-1.0477868
104	0xbea7ca75	-0.3277165
105	0x3f101d06	0.56294286
106	0xbef9b8d7	-0.48773834
107	0xbf75c692	-0.9600612
108	0x3e629ce0	0.22130156
109	0x3f661f9a	0.8989197
110	0xbfb2bd5d	-1.3964039
111	0xbeb20661	-0.34770492
112	0x3f841175	1.0317827
113	0xbecfbc59	-0.40573385
114	0x3d593dbd	0.053037394
115	0x3ef6e121	0.48218635
116	0x3fab567d	1.3385769
117	0xbed91515	-0.42398897
118	0xbf19ae3a	-0.60031474
119	0xbf85f288	-1.046464
120	0x3f44de38	0.7690158
121	0x3f3e84be	0.744213
122	0x3f951be1	1.1649133
123	0xbf1d8c11	-0.6154185
124	0xbfde6bbd	-1.7376629
125	0x3e2b0ccc	0.167041
126	0x3cfceea6	0.030875515
127	0xbf389ff1	-0.7211905
128	0x3ffd8ba5	1.9808241
129	0x3f930a70	1.148756
130	0x3f22de6c	0.6362064
131	0x3f8e90e2	1.1137965
132	0x3db798c3	0.08964684
133	0xbe8094f2	-0.25113636
134	0xbf1cc71b	-0.6124131
135	0xbdafa51b	-0.08576413
136	0xbf705540	-0.9388008
137	0x3f57dfee	0.84326065
138	0x3f3ebed7	0.7450995
139	0xbef06811	-0.46954396
140	0xbfca5bdc	-1.5809283
141	0x3f85e206	1.0459602
142	0xbe452d8b	-0.19255655
143	0xbfca4638	-1.5802679
144	0xbf2dd832	-0.6790801
145	0xbfa7fec0	-1.3124619
146	0xbfdfbbe0	-1.747921
147	0x3e7372b5	0.23774226
148	0x3e0ee225	0.13953455
149	0x3f7cb91b	0.9871995
150	0xbf8265ac	-1.0187278
151	0xbf8e8ae2	-1.1136134
152	0xbec02e20	-0.3753519
153	0x3be6f0c6	0.0070477454
154	0xbec7a78f	-0.38995025
155	0x3f776c22	0.9664937
156	0xbec17e3a	-0.37791616
157	0x3ea240d1	0.31690076
158	0xbf978c3a	-1.1839669
159	0xbfa7cacf	-1.3108767
160	0xbf199687	-0.5999531
161	0xbf747c66	-0.95502317
162	0x3f1fb3f3	0.62383956
163	0xbec32cae	-0.38120025
164	0xbf954831	-1.1662656
165	0xbeb7c0ac	-0.35889184
166	0xbfd9f44a	-1.7027676
167	0xbe78fb3a	-0.24314585
168	0xbeb5846d	-0.35452595
169	0xbfa5fe91	-1.2968313
170	0x3f6cd691	0.925149
171	0x3fbab5c5	1.4586722
172	0xbe32dc83	-0.17466931
173	0xbe795783	-0.2434979
174	0x3ffcaf99	1.9741088
175	0xbfaefaf8	-1.367034
176	0xbf1f8c06	-0.62323034
177	0x3f149c6f	0.580512
178	0x3e474436	0.19459614
179	0xbd872c0f	-0.066002004
180	0xbf52a0bc	-0.8227651
181	0xbeaef2ef	-0.3416972
182	0xbfa4a5c7	-1.2863091
183	0xc0323365	-2.7843869
184	0xbdf1b884	-0.11802772
185	0xbf487337	-0.78300804
186	0xbf8a77f1	-1.0817853
187	0x3f4c72b0	0.798625
188	0x3f24713c	0.6423528
189	0x3fc097f6	1.5046375
190	0x3fe05f0e	1.7529008
191	0xbfa60442	-1.2970049
192	0xbf2056bd	-0.6263235
193	0x3e4f7f07	0.20263301
194	0x3f6a69f6	0.91567934
195	0x3e435161	0.19074012
196	0xbecdf005	-0.40222183
197	0x3ea9bfe8	0.33154225
198	0xbe681bc2	-0.22666839
199	0x3fa1623b	1.2608103
200	0x3e52c79d	0.20583959
201	0xbfe28fb3	-1.7700104
202	0x3f2b2715	0.6685651
203	0x3f470efc	0.7775724
204	0xbf41a3d2	-0.75640595
205	0xbeaf3794	-0.3422209
206	0xbe3cce0f	-0.1843798
207	0xbfe29926	-1.7702987
208	0xbf9179e3	-1.1365322
209	0x3f0a73fb	0.5408322
210	0xbff15d17	-1.8856534
211	0xbf228dfb	-0.63497895
212	0x3f136c0b	0.57586735
213	0x3f810bac	1.0081687
214	0x3f3b5a17	0.7318434
215	0xbf32d9f9	-0.6986385
216	0x3f11e4aa	0.5698954
217	0x3eb7d251	0.35902646
218	0x3f479366	0.7795929
219	0x3dc8486e	0.0977944
220	0xbf0d38a6	-0.55164564
221	0x3fca9196	1.5825679
222	0x3f3935cc	0.7234771
223	0x400c3ddd	2.1912758
224	0x3e0e55e7	0.13899957
225	0xbf5de849	-0.86682564
226	0x3e8530f7	0.2601392
227	0xbda82ace	-0.08211289
228	0xbf8f18c7	-1.1179436
229	0xc000947c	-2.0090628
230	0xbf15347b	-0.58283204
231	0x3e5eb5b2	0.21748999
232	0xbf3d21de	-0.738798
233	0x3d0a3cab	0.033749264
234	0x3f5af2ef	0.8552694
235	0xbfa7f7b4	-1.3122468
236	0x3ecc8f37	0.39953014
237	0xbef4812f	-0.4775481
238	0xbf724bbe	-0.94646823
239	0x3f587d6c	0.8456638
240	0xbf21767e	-0.6307143
241	0x3ec510cd	0.3848938
242	0xbec43aac	-0.38326013
243	0xbf262449	-0.64899117
244	0xbc5ee118	-0.013603471
245	0xbf7732f7	-0.9656214
246	0xbf5e0742	-0.86729825
247	0x3fa673d5	1.3004099
248	0xbf87d2b8	-1.0611181
249	0x3f37f660	0.71860313
250	0xc02628f0	-2.5962486
251	0x3e8cbfd9	0.27490118
252	0x3fb4c39c	1.4122195
253	0x3e35c996	0.1775268
254	0x3ed44194	0.41456282
255	0x3e803e2e	0.2504744

b.weight f4 [17747, 1]
0	0xbe75f341	-0.24018575
1	0x3f989082	1.19191
2	0x3e9997a8	0.29998517
3	0x3e75c0da	0.23999348
4	0x3fa90512	1.3204672
5	0x3e52d287	0.20588122
6	0xbe8bb3e4	-0.27285683
7	0xbeb1faa3	-0.34761533
8	0xbfd118c7	-1.6335686
9	0xbf0b0d9d	-0.5431765
10	0xbcbce3ba	-0.023057807
11	0xbfa6d20d	-1.3032852
12	0x3df80285	0.121098556
13	0x3e971eb3	0.2951561
14	0xbf677292	-0.90409195
15	0x3eca6084	0.3952676
16	0xbefb404e	-0.49072498
17	0xbf9dd833	-1.2331604
18	0xbdf0c1b0	-0.11755693
19	0xbfeaa637	-1.8331975
20	0xbf9e13a6	-1.2349746
21	0x3f93ad0c	1.1537185
22	0x3f89993f	1.0749892
23	0xbe28a334	-0.16468507
24	0xbf83778d	-1.0270859
25	0xbeb4e1db	-0.35328564
26	0x3dde9a96	0.10869329
27	0xbf291a24	-0.6605551
28	0x3ec09401	0.37612918
29	0xbea24019	-0.31689528
30	0xbfae60b7	-1.3623265
31	0xbee7c848	-0.4526999
32	0x3e9aadec	0.30210817
33	0xbe824ee5	-0.25450817
34	0xbfa0b2d5	-1.2554575
35	0xbf13b36d	-0.57695657
36	0x3e475c66	0.19468841
37	0xbf4fd72d	-0.8118771
38	0xbf2c8f5c	-0.6740625
39	0xbf731132	-0.9494811
40	0x3fc81c78	1.5633688
41	0xbf40695b	-0.7516076
42	0xbef360fb	-0.47534928
43	0xbe94f084	-0.2908975
44	0x3f310162	0.69142735
45	0x3d35fef6	0.044432603
46	0xbf2cdeed	-0.6752766
47	0x3f38433a	0.7197758
48	0xbfae1f5b	-1.3603319
49	0x3f4e4134	0.8056824
50	0x3ea10178	0.31446433
51	0xbf907df4	-1.1288438
52	0xbf4a091e	-0.7892016
53	0xbf7fb0c9	-0.9987913
54	0x3fc2a0fa	1.5205376
55	0x3f1b4af2	0.6066123
56	0xbedbe9fe	-0.4295196
57	0xbf04dd38	-0.51900053
58	0x3ed58b05	0.41707626
59	0xbf271251	-0.65262324
60	0xbf37a4d5	-0.7173589
61	0x3e2ff03b	0.17181484
62	0xbfba2605	-1.4542853
63	0xbf507a42	-0.8143655
64	0xbf70413e	-0.9384955
65	0x3d6ded57	0.058087673
66	0x3fb3f0bb	1.405784
67	0x3f8871eb	1.0659765
68	0x3f094405	0.53619415
69	0xbf9f3fa5	-1.2441298
70	0x3ee1db9a	0.44112855
71	0xbf451d34	-0.76997685
72	0xbf481ffd	-0.7817381
73	0x3e712dff	0.23552702
74	0x3eb94d5a	0.36191827
75	0xbf1e455c	-0.61824584
76	0xbd6be1bd	-0.057588328
77	0xbeb42665	-0.35185543
78	0xbfc24d73	-1.5179886
79	0x3d61dfab	0.055144947
80	0xbf84297e	-1.0325162
81	0x3e9cea55	0.3064753
82	0x3df3397f	0.11876201
83	0x3e60ac4e	0.21940729
84	0xbefda5ed	-0.49540654
85	0x3fbd04f6	1.4767139
86	0xbe0a8160	-0.13525915
87	0xbf94c020	-1.1621132
88	0x3fef9afb	1.8719171
89	0xbea8e342	-0.32985884
90	0x3ebb7bd5	0.36617914
91	0xbe62c361	-0.22144844
92	0x3effc447	0.49954435
93	0xbc0bc41e	-0.008530645
94	0xbf19effb	-0.60131806
95	0x3f59b882	0.8504716
96	0x3f57ceed	0.8430012
97	0x3f0ae552	0.54256165
98	0xbf217202	-0.6306459
99	0x3ec1a82b	0.37823614
100	0x3f210615	0.62899905
101	0x3deda40a	0.116035536
102	0x3f6a565d	0.9153803
103	0x3d716e28	0.058942944
104	0xbf080759	-0.5313621
105	0x3f1dcfc4	0.6164515
106	0xbea7ad06	-0.32749194
107	0xbf892329	-1.0713855
108	0x3e96cfa9	0.29455307
109	0xbf647491	-0.89240366
110	0xbfe0e6eb	-1.757047
111	0x3e9eb248	0.30995393
112	0xbfd13815	-1.634524
113	0xbcdbc3d9	-0.026826786
114	0x3fc2ee3c	1.5228953
115	0xbf61ee73	-0.8825447
116	0x3f3c2440	0.73492813
117	0xc005d4cf	-2.0911138
118	0xbf175275	-0.59110194
119	0x3fec58f4	1.8464646
120	0x3ef85344	0.48501027
121	0x3e0ad81b	0.13559
122	0xbfba95f5	-1.4577013
123	0x3f9022a9	1.1260577
124	0xbd8d8752	-0.06910576
125	0x3f222463	0.6333677
126	0x3dbc71fe	0.0920143
127	0x3ee4dee1	0.44701293
128	0x3eb59751	0.35467008
129	0xbf82ea9a	-1.0227845
130	0xbf1f80e3	-0.6230604
131	0x3e656e9f	0.2240548
132	0x3d93cd45	0.072168864
133	0xbef9fa3e	-0.48823732
134	0x3fa35967	1.2761658
135	0x3fb11e21	1.383732
136	0xbea43af8	-0.3207624
137	0xbf1bfcd1	-0.6093264
138	0xbee9d316	-0.45668858
139	0x3ed51d3f	0.41623875
140	0xbfcbe10a	-1.5928051
141	0xbefbfbb6	-0.49215478
142	0x3f413328	0.75468683
143	0x3f82212e	1.0166376
144	0x3d2824ae	0.041050605
145	0xc00a10da	-2.1572785
146	0xbc937888	-0.01800181
147	0x3f297e0a	0.66207945
148	0x3e972da5	0.29527012
149	0x3fb51de9	1.4149753
150	0x400785a7	2.1175325
151	0xbf2eb294	-0.6824124
152	0xbe9c92bc	-0.305807
153	0x3f6bb33b	0.9207036
154	0x3f3d76ec	0.74009585
155	0x3e43a39e	0.19105384
156	0xbe30fd46	-0.17284116
157	0x3f129a77	0.57266945
158	0x3eb263b9	0.34841707
159	0xbec1ba29	-0.3783734
160	0x3f1ec2db	0.62016076
161	0x3e71ee66	0.23626098
162	0x3c3a24e0	0.011361331
163	0x3f923557	1.1422528
164	0xbfd0b7b6	-1.6306064
165	0xbd72272d	-0.059119392
166	0x3f4f7a67	0.81046146
167	0x3f853ec3	1.0409778
168	0x3cd8a3f6	0.02644537
169	0x3f1bcc06	0.6085819
170	0x3f09dde1	0.53854185
171	0xbe142f23	-0.14471106
172	0xbfed1edf	-1.8525046
173	0xbf6eb2f2	-0.932418
174	0x3f1a61f2	0.603057
175	0x3eebf85b	0.46087918
176	0xbc529d72	-0.012854921
177	0x40258ef3	2.58685
178	0xc014b397	-2.3234613
179	0xbf8e1a87	-1.1101846
180	0xbfd02ab6	-1.6263034
181	0xc0432618	-3.0492
182	0x3c50e7a0	0.012750536
183	0x3e9aaf7c	0.3021201
184	0x3e3eebe6	0.18644676
185	0x3fc013c9	1.5006038
186	0xbbe5aa7f	-0.00700885
187	0xbfcbdf9f	-1.5927619
188	0xbf0f3df5	-0.55953914
189	0x3f749d6a	0.95552695
190	0x3f493b45	0.78606063
191	0xbf8248fc	-1.0178523
192	0x400c2ed3	2.190358
193	0xbf35812d	-0.7090023
194	0xbf27f1d1	-0.6560336
195	0x3f4bdb47	0.79631466
196	0x3ffa2e3b	1.9545358
197	0x3f7326aa	0.9498087
198	0x3e5e4c80	0.2170887
199	0x3fd6ba60	1.6775627
200	0x3dcd294e	0.10017644
201	0xbf3117d2	-0.6917697
202	0xbe981a55	-0.2970759
203	0x3e198699	0.14992751
204	0xbec025ae	-0.37528747
205	0xbbab7d81	-0.005233467
206	0x3f756b7f	0.9586715
207	0x3f9cb82e	1.2243707
208	0x3f24ea87	0.6442036
209	0x3f814c29	1.0101367
210	0x3fd5bc2e	1.6698053
211	0x3f73b5a4	0.95199037
212	0x3fa498b9	1.2859107
213	0xbceca593	-0.028887546
214	0xbef7be4c	-0.48387372
215	0x3f54ebc9	0.8317228
216	0x3ed219eb	0.410354
217	0x3e873a3b	0.26411614
218	0x3b0e38ba	0.0021701292
219	0x3e3eb2a9	0.18622841
220	0x3d1f7e05	0.03893854
221	0x3e6cabbb	0.23112385
222	0x3fe4ec44	1.7884603
223	0xbdb79041	-0.08963061
224	0x3f7ecb0d	0.9952858
225	0xbfa055f8	-1.2526236
226	0x3f15b5f4	0.58480763
227	0xbeea3f62	-0.45751482
228	0xbed6ff21	-0.41991523
229	0x3f9bd44e	1.2174165
230	0x3f014097	0.5048918
231	0x3f5bc1a8	0.8584237
232	0x3f7c246f	0.98493093
233	0xbf7af454	-0.98029065
234	0x3fff0556	1.9923503
235	0x3fe2ce8a	1.7719281
236	0x3d24243a	0.04007361
237	0xbd4b63f4	-0.04965587
238	0xbed8b7c2	-0.42327696
239	0x3f8d5fa4	1.1044812
240	0xbf2d4d45	-0.6769603
241	0x3f90c234	1.1309266
242	0x3f0c16df	0.547224
243	0x3f92a3df	1.145626
244	0xbeae46f9	-0.34038523
245	0x3f16b520	0.58870125
246	0xbff68c3f	-1.926155
247	0x3df377f3	0.11888113
248	0xbf44306f	-0.76636404
249	0xbf735ae7	-0.9506058
250	0x40235f22	2.5526814
251	0x3f2145f0	0.6299734
252	0xbe103032	-0.14080885
253	0x3eb7ecb0	0.35922766
254	0xbee91260	-0.45521832
255	0xbf4212ff	-0.75810236

c.weight f4 [17747, 1]
0	0x3eb94b96	0.3619048
1	0x3fc6b78c	1.5524764
2	0x3fe3629a	1.7764466
3	0x3f51b581	0.8191758
4	0x3fbf5f51	1.4950963
5	0xbe841975	-0.25800672
6	0xbece89bf	-0.40339467
7	0xbea39a94	-0.3195387
8	0xbf8cff6e	-1.1015451
9	0x3f303952	0.68837464
10	0xbf30fc28	-0.6913476
11	0xbedaa1a5	-0.4270145
12	0xbeace687	-0.33769628
13	0x3f6f3c95	0.93451816
14	0xbf6922e4	-0.91068864
15	0x3fc13677	1.5094746
16	0x3f2ccbe9	0.6749864
17	0xbf87c320	-1.0606422
18	0xbed40bee	-0.41415352
19	0xbf9df95e	-1.2341726
20	0xbfba3d90	-1.4550037
21	0x3e4c14df	0.19929837
22	0x3fc88d2d	1.5668083
23	0xbfb5ae1e	-1.4193761
24	0xbf5c7709	-0.86119133
25	0xbf5ae662	-0.85507786
26	0x3d59206c	0.053009436
27	0xbedee8f6	-0.4353711
28	0xbede35e5	-0.43400493
29	0x3e63f932	0.22263029
30	0xbee3d131	-0.44495538
31	0xbf65f4a8	-0.8982644
32	0x3f01f882	0.5076982
33	0x3f0c2de5	0.5475753
34	0xbf6896eb	-0.9085528
35	0x3f73b3b5	0.95196086
36	0xbeb4b25c	-0.35292327
37	0xbfb83022	-1.4389689
38	0x3da27606	0.079326674
39	0x3f310866	0.6915344
40	0xbfdf510a	-1.7446606
41	0xbdcad89e	-0.09904598
42	0x3eabac5c	0.33529937
43	0xbe996076	-0.29956406
44	0xbe55599d	-0.20834966
45	0xbe20c00c	-0.1569826
46	0xbe1e6db8	-0.15471542
47	0xbf8a41f1	-1.0801374
48	0xbf8c733d	-1.0972668
49	0x3e3471bb	0.1762151
50	0x3f7bec04	0.98407006
51	0xbf76dc76	-0.96430147
52	0x3f51b301	0.81913763
53	0xbc8ac002	-0.01693726
54	0xbe704139	-0.2346238
55	0x3e2d4885	0.16922195
56	0x3ea042d1	0.31300977
57	0x3f78dd8c	0.97213054
58	0xbd19be94	-0.037535265
59	0x3e98b05a	0.29822046
60	0x3daf4f9e	0.08560108
61	0x3ff1fc3b	1.89051
62	0x3e87c9d4	0.2652117
63	0x3f389594	0.7210324
64	0xbf9d8237	-1.2305363
65	0x3e8a86ae	0.27055877
66	0xbf0905ce	-0.5352448
67	0x3f3a191e	0.72694576
68	0x3f521569	0.8206392
69	0xbfb92b0e	-1.4466264
70	0xbd6b8633	-0.05750103
71	0xbe8b658a	-0.27225906
72	0xbe83c820	-0.2573862
73	0x3efa2765	0.4885818
74	0x3f5a686e	0.853156
75	0xbf414b1f	-0.7550525
76	0x3eacaeb9	0.33727053
77	0x3f1abcc5	0.6044429
78	0xbe99fd7a	-0.300762
79	0x3fff6d9a	1.9955323
80	0xbfa3ab77	-1.2786702
81	0xbfb59aab	-1.4187826
82	0x3f9243aa	1.14269
83	0xbf063a2b	-0.5243251
84	0xbf1a1e2a	-0.60202277
85	0x3e9c22fc	0.3049544
86	0xbe6301d3	-0.22168665
87	0xbfbbe9c2	-1.4680712
88	0x3f488565	0.78328544
89	0xbf7d42e8	-0.98930216
90	0xbf24f84e	-0.6444138
91	0xbeb864ad	-0.3601431
92	0x3f7f6ec4	0.9977839
93	0x3e98aa0d	0.29817238
94	0xbff303e4	-1.8985562
95	0xbdcedb1f	-0.10100388
96	0x3f06f4ef	0.5271749
97	0x3f4d6b36	0.80241716
98	0xbd4ff20c	-0.050767943
99	0x3e9fb3ab	0.31191763
100	0x3dffc033	0.12487831
101	0xbeea48e4	-0.45758736
102	0x3f5c5a5b	0.8607537
103	0xbdbdcaa2	-0.09267165
104	0xbe991832	-0.29901272
105	0x3fe0fbfc	1.75769
106	0xbfac8cc6	-1.3480461
107	0xbf8f36bf	-1.1188582
108	0xbf365a66	-0.7123169
109	0xbf86d644	-1.0534139
110	0x3f552768	0.83263254
111	0x3f8bce52	1.0922339
112	0xbf1abc9a	-0.60444033
113	0x3f421283	0.75809497
114	0xbf551e60	-0.83249474
115	0x3f08ae3e	0.5339087
116	0x3f2be80a	0.6715094
117	0x3f9f4fa1	1.2446176
118	0xbfb0e061	-1.3818475
119	0x3f3a3a39	0.7274509
120	0xbdb9eedd	-0.09078763
121	0x3e1ebae4	0.1550098
122	0xbf0c8259	-0.54886395
123	0x3e00dad6	0.1258348
124	0x3eba1e99	0.3635147
125	0x3c0f8745	0.008760278
126	0xbf916067	-1.1357545
127	0x3f972bfb	1.1810297
128	0x3eaf069e	0.34184736
129	0x40005bc5	2.0056012
130	0x3f69b645	0.91293746
131	0xbf96a29b	-1.1768373
132	0x3f829df5	1.0204455
133	0xbdbee587	-0.093211226
134	0xbeb270d8	-0.34851718
135	0x3faa68da	1.3313248
136	0xbfd9c03d	-1.7011791
137	0xbf57423d	-0.84085447
138	0xbe76b21b	-0.2409138
139	0x3f2f22cf	0.6841249
140	0xbea59adf	-0.3234472
141	0xbf8adfa0	-1.0849495
142	0x3fafc6d8	1.3732557
143	0x3fd3ab25	1.6536604
144	0xbf924e72	-1.143019
145	0xbf9a690f	-1.2063311
146	0xbe6c987a	-0.2310504
147	0x3f12e86d	0.57385904
148	0x3f370901	0.71498114
149	0x3f86d5f0	1.0534039
150	0xbed8c34d	-0.42336503
151	0xbf967a1d	-1.1756016
152	0xbfd66fca	-1.6752865
153	0xbe0e4416	-0.1389316
154	0xbf1ac364	-0.6045439
155	0x3f2daf32	0.6784545
156	0x3f352a76	0.70767915
157	0xbf43662d	-0.7632778
158	0x3eeebe0c	0.4662937
159	0xbfe50d9b	-1.7894777
160	0xbf2d37f8	-0.67663527
161	0xbe06d394	-0.13166648
162	0xbfa571f8	-1.2925406
163	0xbeac839f	-0.3369417
164	0xbfe12024	-1.7587934
165	0x3f237c86	0.6386188
166	0xbe2dc007	-0.16967784
167	0x3f83ab0b	1.0286573
168	0xbf96c98b	-1.1780256
169	0xbff2baec	-1.8963294
170	0x3e8a6028	0.27026486
171	0xbf811cf7	-1.0086964
172	0xbfd0c2a8	-1.6309404
173	0x3f151a63	0.5824339
174	0xbea848e7	-0.3286812
175	0xbf688e2b	-0.9084193
176	0xbfcb2091	-1.5869313
177	0xbf44296b	-0.766257
178	0xbf87038c	-1.0547957
179	0xbf8cf2c8	-1.1011591
180	0x3ff28842	1.8947833
181	0xc002eb93	-2.0456283
182	0x3e13ac35	0.1442116
183	0xbecd0a30	-0.40046835
184	0xbe300d73	-0.1719263
185	0xbfa266fb	-1.2687677
186	0xbec834ee	-0.39102882
187	0x3f595b6f	0.8490514
188	0x3f24037e	0.6406783
189	0xbf6c9e92	-0.9242946
190	0x3f91d34c	1.1392608
191	0xbec61456	-0.3868739
192	0x3d453b07	0.048151996
193	0xbe4c4da4	-0.19951493
194	0xbf36f8d4	-0.7147343
195	0x3fa14bda	1.2601273
196	0xbf270508	-0.6524205
197	0xbfa53e9f	-1.2909735
198	0xbf042f08	-0.51634264
199	0xbcf61b97	-0.030042453
200	0xbf14ed08	-0.5817418
201	0x3f2bf7aa	0.6717478
202	0xbf4dc290	-0.80375004
203	0x3f0df25d	0.5544794
204	0x3ed0203b	0.4064959
205	0xbed420a6	-0.4143116
206	0xbf8ddbfc	-1.1082759
207	0x3f9df82a	1.2341359
208	0x3e899ee6	0.26879042
209	0x3e89aed0	0.26891184
210	0xbf863117	-1.0483731
211	0xbee20293	-0.4414259
212	0x3e852a9b	0.26009068
213	0x3f409dd7	0.75240844
214	0xbf249907	-0.64296
215	0x3f4e56aa	0.8060099
216	0x3f27bdc8	0.6552396
217	0xbf1cf9c9	-0.6131864
218	0x3ed455e2	0.41471773
219	0xbe68682d	-0.2269599
220	0xbe105dde	-0.14098307
221	0x3f52d16f	0.8235082
222	0xbf2213e2	-0.6331159
223	0xbf1076aa	-0.56431067
224	0x3fd8b20f	1.6929339
225	0x3ebcc516	0.36869115
226	0x3c97a536	0.018511396
227	0x3e2acda4	0.16680008
228	0xc005954a	-2.087237
229	0x3f9a9ac9	1.2078487
230	0x3efca24b	0.4934257
231	0xbeaeacec	-0.34116304
232	0xbfafa49c	-1.372211
233	0x3fa7025c	1.3047595
234	0x3e02d6e2	0.12777284
235	0xbe48925c	-0.19587082
236	0x4005578a	2.083468
237	0xbfb21f03	-1.3915714
238	0xbe95e84e	-0.29278797
239	0xbf696579	-0.9117046
240	0xbec64ca3	-0.38730344
241	0x3e818a0d	0.25300637
242	0x3f2ced71	0.67549807
243	0x3f4af607	0.7928166
244	0xbc410dd5	-0.011783083
245	0xbf7424e0	-0.95368767
246	0xbfc236bd	-1.5172955
247	0x3d6fca76	0.05854269
248	0x3f6b8b00	0.9200897
249	0xbeda3f86	-0.4262659
250	0x3f3408c1	0.7032586
251	0x3e553cee	0.20824024
252	0xbffa0502	-1.9532778
253	0xbf1d2483	-0.6138384
254	0xbf4f71f5	-0.8103326
255	0xbef5f441	-0.48037913
