IRT/irt_model.pth (torch, 231712 bytes, 4 tensors)

theta.weight f4 [4164, 1]
00000000: cb84 0abf b737 413f 6e15 14bf 639d d0be
00000010: bf62 123c eba5 24bf 54a1 613d bc8f 883e
00000020: 2b88 7cbf 4741 133d 99ee 59be 71a0 19bf
00000030: e280 a6be 16a5 f93e 7ada b63e a60e a9bd
00000040: 295d adbe 1eff ed3f b159 09bf 1fb5 893f
00000050: 31b8 0a3f 3471 d8be 60c0 233f 6ecb a43f
00000060: 3993 46bf 061b b3be c2b2 d8bc 4dfc b83f
00000070: f91d 6bbf 6b02 bdbf 4b06 7fbf 832d 98bf
00000080: b285 aebf cee9 cdbd 3b31 60bf 3b52 cb3f
00000090: 65f2 4abf ab9d cdbe 231c 87be 4fae 8e3e
000000a0: 3508 253e e869 bf3f 6ec9 cebd 2635 af3b
000000b0: dafe 923f 72bf 68bd 31b3 07be 04ae 66bd
000000c0: c0a0 e9be 27c2 f2be 28bc 0d3e f843 433b
000000d0: fe19 1cbe 7fec d4be 81df 653f f842 bd3d
000000e0: d3b9 323f 5c6f b53e e20d fcbd 3b24 f2be
000000f0: b3b1 0f3f 1cd8 0b3f ad35 bdbd ccb4 073f
00000100: dfa4 46be 8d4e 09bf c13a 11bf fd14 edbe
00000110: fbcd 6abd f6c0 133c f41c a9bd 2f69 863e
00000120: 22c5 ce3e a71f 8e3e eb77 62be 8c82 2d3d
00000130: ea49 17bf 6dbb 9cbd d795 493f 6c06 e03e
00000140: 98ea 41bf 926a 64bf d016 84bf 6986 b4bf
00000150: b6fc afbe c94d 10bf 3bea ccbd 2c2d 41be
00000160: 7f6c a63e 118b 433e 2667 03bf 678c fabf
00000170: 4f52 123f 1a45 32bf a8ad febe e25b 23be
00000180: da4f 763e a5ae 80be cd93 9ebe 1ada 28bd
00000190: 9ced 99bc d73b adbe 8d85 5dbf cc48 3fbf
000001a0: 358e 4bbf 39a3 793f 1443 bbbf 347f 2ebe
000001b0: 0d4a f5bd cc1a bfbc c82b 403e c68d 02bf
000001c0: 3550 96bd e4b5 84bf 58b0 c5bf 9127 1e3e
000001d0: d2fe dfbd 3106 333e 56bb 8a3e e40f 053e
000001e0: 85c4 313f 4388 153f d191 67be f0d7 95bd
000001f0: 286d 0c3f 3497 84be c23d ef3e 2aa1 56be
00000200: 655f f63e 2109 b33f a2b6 533e fd02 223f
00000210: ea21 d2be e628 0a3f 50c6 6e3e 1c46 2d3f
00000220: dab0 633f ac71 a33e c180 a8be 8216 3a3f
00000230: 3f51 4fbd 0365 5bbe 6acb 6bbf bb65 893e
00000240: 9489 0dbf 1a00 333e 91ee acbe ea1a 7dbf
00000250: 61c9 1dbf 4ce2 3cbf 2030 4abf 998b 98be
00000260: e9f1 b7be 15b8 053f 9b53 96bc fe4b 5d3f
00000270: 0d00 11be 2986 e43c 0a0b 14be 34c8 ccbb
00000280: 3550 f7be d32c a03f e887 eebe 96a2 f53e
00000290: 5a12 c73e 070b 3f3f 2e74 0c3f f140 2c3e
000002a0: 684f 0abd 740b 51be 7001 f33e 5d60 bfbd
000002b0: 2e75 2e3f 98d2 543f 25f2 5b3f 9844 713f
000002c0: 0a08 b5be 7056 d03e 9e80 343f ec46 b13d
000002d0: 8ba5 bfbe 4024 c1bd ed79 44bd 5e83 633e
000002e0: c7a0 183e 6105 d73e 7f1f 19bf c7e9 22bf
000002f0: 43ea 49bf 9d65 7c3f 5ceb 1bbf 3fcc bc3e
00000300: 873c 30be 864c a8bd 8beb 3940 4015 083d
00000310: 99ca 93be f895 293f e48f 21bc 9c30 84bf
00000320: 7a92 8fbf 3722 02bf 543f afbe 89d7 c23e
00000330: 7869 8f3c f0ec 05bf 7138 b73f 935b 7dbf
00000340: 57a1 ecbd 3131 bdbf d7ac cbbe 626e 663e
00000350: 6d9d b43e a533 92bd 36ca d23d 1467 f9bd
00000360: b109 cfbf decb 113e d791 c2bf e677 c2bf
00000370: 9367 17bf ab8d aa3e fa83 3ebf 9540 9c3e
00000380: 1ee6 a7bf 965f 1d3e 9f3b 39bf d5d1 7cbe
00000390: 08a2 7fbf 5eae 1340 a535 773f 238c a2bc
000003a0: 5edd 91bf 0f7c 85bf dae5 c6bf 9e0a debf
000003b0: e47a 77bf 4a50 40bf 6265 493e 716a ad3f
000003c0: b892 9bbf 3f35 71bc c373 50be d1ac e83e
000003d0: 2d02 abbf 6107 ae3f 9d90 913e e42a b43f
000003e0: 6415 433e d9a9 9e3f 364e cb3f 949d 203e
000003f0: 0d2a aabe d5d0 a7bf 80eb d53f 9e0f 42be
-0.54108876 0.7547564 -0.578452 -0.40745077 0.008934676 -0.6431567 0.055085495 0.2667216
-0.98645276 0.035950925 -0.21282424 -0.6001044 -0.32520205 0.48758763 0.3571356 -0.08254747
-0.33860138 1.859348 -0.53652483 1.0758399 0.54187304 -0.42273867 0.63965416 1.2874582
-0.77568394 -0.34981555 -0.026452426 1.4451996 -0.9184261 -1.4766363 -0.9961898 -1.1888889
-1.363455 -0.1005436 -0.8757512 1.588447 -0.79276115 -0.40159354 -0.26388654 0.27867362
0.16116412 1.4954195 -0.100970134 0.005346912 1.1484025 -0.0568232 -0.1325195 -0.056318298
-0.45630455 -0.4741375 0.13841307 0.0029795151 -0.1524429 -0.41586682 0.89794165 0.09241289
0.69814795 0.35436523 -0.123073354 -0.47293267 0.5613052 0.5462663 -0.092387535 0.5301025
-0.19398831 -0.53635484 -0.56730276 -0.46305075 -0.057325345 0.009018173 -0.082574755 0.26252124
0.40384775 0.27758524 -0.22116058 0.042360827 -0.5909716 -0.07652936 0.7874426 0.437549
-0.75748587 -0.89225113 -1.0319462 -1.4103519 -0.3437249 -0.5636869 -0.100056134 -0.18864888
0.3250465 0.19096018 -0.5132927 -1.9574097 0.5715684 -0.6963669 -0.49741864 -0.1595302
0.24053898 -0.25133243 -0.30972138 -0.041223623 -0.018790059 -0.33834717 -0.8653191 -0.74720454
-0.79513866 0.97514683 -1.4629846 -0.17040712 -0.11977015 -0.023328207 0.18766701 -0.5099758
-0.07339517 -1.0368009 -1.5444441 0.15444781 -0.10937275 0.1748283 0.2709605 0.12994343
0.6944049 0.58411044 -0.22614218 -0.073165774 0.5485406 -0.2589661 0.46726805 -0.20959917
0.48119655 1.3987161 0.20675138 0.6328581 -0.410415 0.53968656 0.23317838 0.67685103
0.8894173 0.31922662 -0.3291073 0.72690594 -0.05061459 -0.21425252 -0.9210726 0.26835427
-0.5528805 0.17480507 -0.33775762 -0.9886919 -0.61635405 -0.737828 -0.7897968 -0.29794005
-0.3592675 0.5223401 -0.018350413 0.8644408 -0.14160176 0.027896004 -0.14457336 -0.006249452
-0.4830338 1.2513679 -0.46588063 0.47975606 0.3888119 0.746262 0.54864776 0.16821648
-0.033767134 -0.20414525 0.47462034 -0.09344552 0.6814755 0.8313384 0.8591636 0.9424529
-0.35357696 0.40690947 0.70508754 0.086561054 -0.37430987 -0.09430742 -0.04796784 0.22218081
0.14905082 0.4199629 -0.59813684 -0.63637966 -0.7887308 0.9859255 -0.60906005 0.36874577
-0.1721059 -0.08217721 2.9050014 0.03322339 -0.28865507 0.6624446 -0.009860966 -1.0327334
-1.1216576 -0.5083346 -0.34228003 0.38055065 0.017506346 -0.5231466 1.43141 -0.98967856
-0.11554211 -1.4780637 -0.39780304 0.22503045 0.35276356 -0.07138757 0.10292475 -0.12177864
-1.6174833 0.14237925 -1.5200757 -1.519284 -0.59142417 0.3331121 -0.7442013 0.30518022
-1.3117101 0.15368494 -0.723566 -0.2468942 -0.99856615 2.3075175 0.9656623 -0.019842213
-1.1395681 -1.0428485 -1.5538895 -1.734699 -0.9667189 -0.7512251 0.1966758 1.3548108
-1.215415 -0.0147221675 -0.2035666 0.45444348 -1.3360039 1.3596002 0.28430644 1.4075589
0.19051129 1.2395583 1.5883243 0.15685111 -0.33235207 -1.3110605 1.6712494 -0.1895127

a.weight f4 [17747, 1]
00000000: 7b2b 52be 13a9 04c0 642c 7abf 068c a13e
00000010: 75b6 52bf 1296 5d3f e949 fcbe 079f 013f
00000020: 5208 3a3f f74c ac3f bdd3 6c3b 1e1d bd3e
00000030: 6f3a 9e3e ddff 863e 11c3 533e cb97 45be
00000040: 6e7b bbbf b1c7 133f 24b3 ad3e fa45 b73e
00000050: ca82 0ec0 526c a03e fc48 23bf 303f 1bbf
00000060: 0bf0 27bf d43f 1f3f 5989 34bf 2116 0cbe
00000070: 7b95 173f b3d6 473e 0763 9d3e ff09 f6be
00000080: 5560 83bf eed8 e13f 7a87 e6bf 7667 1a3f
00000090: 4485 933f bb5d ec3e e766 15bf b0c7 9ebf
000000a0: e23d 9c3f 8e94 1abf 0193 5b3e 9e4d 403e
000000b0: 9a9a b33e 125d 93bd 64e8 2bbe 1e1a 183f
000000c0: 0510 f8bf 5adb f83e 7a14 b13f 19ce 1bbe
000000d0: 5c3b ec3e efea 56bf 4ef0 ba3f 1624 48bf
000000e0: dcea 76be f1a7 263f 0759 943f 8f40 943f
000000f0: 23ff d33d 201e 743f 0e63 043f b1ff 75bf
00000100: a839 833f 6616 96bf 77cf ccbe 51f6 f9bd
00000110: 1f70 5e3e 6711 a53f 04e2 133e 4770 f9be
00000120: da2d fcbe 8f1f cc3e 1a37 0dbf 71e1 93be
00000130: 7d04 0940 7752 993f c9a9 fb3e 877f b6bf
00000140: 57e9 5fbf 5b37 e3bd c5e4 9b3e ac95 87be
00000150: abbb c3be f088 8fbf b1f0 dbbc b344 b9bc
00000160: 03ed c2be 4827 003e f5f2 563e a398 9abf
00000170: 7089 1cbf b0f8 9a3f 845a 8b3e 3cd3 583f
00000180: 8541 68be 8606 dd3d 0de4 1e40 20db 3b3e
00000190: 3f93 b2be d191 c03f 87e3 8f3f 9480 b3be
000001a0: 0b0d 523f d17d b33e 1f0c e1bf be9a debf
000001b0: 2630 6abe 6c68 513f 60a2 f03e 728e b6bf
000001c0: ec35 0ebd aa15 983f 2eb6 d9bf 3ac1 58bf
000001d0: 6203 f03e 97e8 473e 98c4 febf ae63 fd3e
000001e0: 2cd4 c0bf 011a f13d 50b6 73bf 5976 37bf
000001f0: 404b f3be 0325 4040 6de1 e43e d554 d43e
00000200: 3603 9d3f 93b8 1cbe 37bf 6bbf 4af4 403e
00000210: 4058 c0bc 9817 0e3f 2b2f 283f 0b38 203f
00000220: 85f8 a53f 8e69 8f3f ccd6 b6bf f9b7 463f
00000230: 5a1d 853f 5afe 26bf 64ab d0bd 2c85 ee3f
00000240: 1818 8bbe 0be8 b63f 72e7 ebbe 0e64 af3e
00000250: 4371 2cc0 0a87 a63f 092c 6ebf 349f 43be
00000260: 36bd 1fc0 c3a7 acbf 64a2 8abf 5b78 58bf
00000270: b4c4 19bf 6641 a53f 3fe3 3cbf 3ac4 eabf
00000280: 283b 1a3f 8a18 1fbf 2f17 85bf dee3 39bf
00000290: 7b94 4e3f 890e dc3f 126b c0bf ea74 ae3f
000002a0: 1f92 863e 0843 9dbe 98d4 8e3d 40a7 403e
000002b0: eb72 42bf b55e 363e c083 f9bd 0f49 64bf
000002c0: ecc7 8e3f 02e1 a03f 8f12 99bf dbcb c4bd
000002d0: d943 3c3f 0c9f c9bf b8ad 343e cddd b03f
000002e0: eef2 8fbe 47ee 3e3f 7acd b43f f912 f53e
000002f0: 1808 f23f 9dfd edbe e483 9a3f 810a 83bf
00000300: 021b 93be e729 573d 3bd7 10be b3ba a23f
00000310: 111c f43c 0a18 af3f 8bab 833f b6ba bcbf
00000320: f0b3 a5bc 9439 eabf 7c33 18bf 95b9 323f
00000330: d94b 943f bf19 57be c788 2fbf 7828 82bf
00000340: 4bf8 c93f b47e 013f ec3d bebc cee8 b0be
00000350: c83b 95be 1b88 813f 2eb9 a83e 1b35 0140
00000360: 1835 c9be 2579 923e 78ff 26bf 349a e93d
00000370: ef13 7dbf dab8 f13e 215a 1ebf 480c 493e
00000380: 2f8a 9d3f 4575 9dbf 7ee5 2ec0 7f1b 8a3f
00000390: dee5 b43e 909f e63e 5209 a23f 52f7 25bf
000003a0: 9c8c dbbc 246b 24be ba46 8e3c 9c9e 50bf
000003b0: 7ad3 c9bd 584c bb3d 8409 5a3e 7d9f 313f
000003c0: a1f8 b53e 059d 173f f5e4 71bf 91cc 8fbf
000003d0: 4e47 7e3e f727 a6bf a7b8 953f 7f24 1cbf
000003e0: a77e f5bc bd98 26bf 4ab2 2c3f ee7c ad3e
000003f0: bf46 eb3e b1df afbf 4ec8 26bf d32e 3dbe
-0.20524399 -2.0728195 -0.97723985 0.31552142 -0.8230966 0.86557114 -0.4927514 0.5063328
0.72668946 1.3460988 0.0036136948 0.36936277 0.30903956 0.26367083 0.2067988 -0.19296186
-1.4647043 0.5772658 0.33925736 0.35795575 -2.2267327 0.31332642 -0.6378324 -0.6064329
-0.6560065 0.6220677 -0.70522076 -0.13680317 0.59212464 0.19515495 0.30739614 -0.480545
-1.0263773 1.7644327 -1.8010094 0.6031412 1.1525044 0.4616526 -0.5836014 -1.240469
1.2206385 -0.60382926 0.21442796 0.18779609 0.3507889 -0.07195486 -0.16787869 0.5941485
-1.9379889 0.48604852 1.3834374 -0.15215339 0.46139038 -0.8395223 1.4604585 -0.7818006
-0.24113029 0.6510001 1.1589669 1.1582202 0.10351398 0.9535847 0.51713645 -0.9609328
1.025197 -1.1725585 -0.40002033 -0.12205184 0.21722458 1.2895936 0.14441687 -0.48718473
-0.49253732 0.39867827 -0.55162203 -0.28882936 2.140899 1.1978291 0.49152973 -1.4257668
-0.87465423 -0.110945426 0.30447975 -0.26481378 -0.38229117 -1.1213665 -0.026848169 -0.022615766
-0.3807145 0.12514985 0.20991118 -1.2077831 -0.61147213 1.2107143 0.27217495 0.8469732
-0.22681244 0.1079226 2.482669 0.18345308 -0.34877965 1.50445 1.1241311 -0.35059035
0.8205115 0.35056928 -1.7581824 -1.7390974 -0.2286993 0.8179996 0.46998882 -1.4262221
-0.034719393 1.1881611 -1.7008722 -0.8466984 0.4687758 0.1952232 -1.9903746 0.49490112
-1.506475 0.11772538 -0.9520006 -0.7166496 -0.4751835 3.002259 0.44703236 0.41470972
1.2266605 -0.15304784 -0.92088646 0.18843189 -0.02347958 0.5550475 0.6569697 0.62585515
1.2966467 1.1204088 -1.4284301 0.7762447 1.0399582 -0.6523186 -0.1018894 1.8634391
-0.2716682 1.4289564 -0.46075016 0.34256023 -2.694413 1.3009961 -0.9303594 -0.191037
-2.4959235 -1.3488697 -1.0830808 -0.8455865 -0.6006577 1.2910583 -0.7378425 -1.8341134
0.60246515 -0.6214682 -1.03977 -0.7261332 0.80695313 1.7191936 -1.5032675 1.3629429
0.26283357 -0.30715203 0.06974143 0.18813801 -0.759566 0.17809565 -0.121833324 -0.8917398
1.1154761 1.2568667 -1.1958789 -0.09609195 0.7354103 -1.5751662 0.17644393 1.3817688
-0.28115028 0.7458233 1.4125206 0.47866037 1.890872 -0.46482554 1.20715 -1.023758
-0.28731543 0.052530196 -0.14144604 1.2713226 0.02979854 1.3679211 1.0286726 -1.474448
-0.020227402 -1.8298821 -0.5945356 0.69814426 1.1585647 -0.21005915 -0.6856808 -1.01686
1.5778898 0.5058396 -0.023222886 -0.34552616 -0.29147172 1.0119661 0.3295378 2.0188663
-0.3929832 0.2860805 -0.65233564 0.11406365 -0.9885854 0.47211343 -0.61856276 0.19633591
1.2307795 -1.2301413 -2.732757 1.0789641 0.35331625 0.45043612 1.2659094 -0.64830506
-0.026800446 -0.16056496 0.01736771 -0.8149202 -0.09854789 0.09145421 0.21292692 0.69383985
0.3554125 0.5922397 -0.94489986 -1.1234304 0.24831888 -1.2980946 1.1696976 -0.6099319
-0.02996762 -0.6507681 0.6745955 0.33884376 0.45952412 -1.374014 -0.6514939 -0.18474893

b.weight f4 [17747, 1]
00000000: c301 90bd 7df0 38bd b7f1 fa3e d9fe 303f
00000010: ea3c c23f 4626 863f 8b30 cabd 1ac9 84be
00000020: f7c4 783f 3a72 0f40 fc00 9a3d 533d d4be
00000030: a24a df3d 8fca 213e 2057 82bf ccda 5bbf
00000040: 6685 cb3e 707c 0c3f b2bc 4bbf 2d53 073f
00000050: 4b4a 953f 0b8d 383f 3378 70bf bfcd 69bf
00000060: 805b 81bf 96f6 96be ec96 adbf da8f debf
00000070: babe e13e 2cac 52bf f1d7 703f d13e 123f
00000080: f474 7f3f b2dc 8b3f 40af dc3d e4e6 26bf
00000090: f185 e03e 0481 a93e d270 34bf 6ac3 97bf
000000a0: 9b98 0cbd e8d1 79be 1866 0d3f 7ad7 383f
000000b0: 419e 5d3f 6666 243e 409c f03e 65b6 3d3f
000000c0: 44b9 6cbf 0e99 96be 88a8 dc3f 864d fabd
000000d0: 3992 57be 3b44 81be 6c3e 0c3e 5f58 62be
000000e0: 662c bdbe e5e2 f7be 39b8 bb3e 5f59 14bf
000000f0: 83a5 9b3e 93d2 18bf 499e 42bf b1a2 ae3e
00000100: ec35 1e3f 8256 3d3f 0e46 9c3f e685 20bf
00000110: acb8 ad3e 53d6 ddbe ee46 b83e 58f9 40bf
00000120: a234 32c0 68a3 9ebc 77af 9fbe c0e6 b2be
00000130: 41d3 72be 017d 5ebf b7ab 9b3f 47e4 893f
00000140: 1773 48be 2557 813f 5412 e6bd 32f5 45bf
00000150: 30a6 a13d c287 24bf 4449 693e b26e 023f
00000160: cc82 893e 5e7e 633e 1d45 193f 94f4 12bf
00000170: a596 ff3e 235b 173f c07b 32be c0b6 14bf
00000180: 806c e43e dfaf bbbe de0d ab3f 4a0b a93e
00000190: bd0a 20bf 659e 063e 1e8e 40bd 820a 3ebf
000001a0: 6915 293f 8e91 3dbf 71b1 a93f 0da0 eeba
000001b0: 6ecf 8cbf 1ebb 8bbd b379 00c0 2d2c 6a3f
000001c0: ebbf 01be cfd9 083f 7e94 ef3f c599 32bf
000001d0: 622c 283e 4fd6 dbbe de1f 8c3d 3bd7 bbbf
000001e0: 90f8 91bf 9548 6d3f e79b 2b40 66dc 6ebf
000001f0: 6da5 24bf f6d9 633f 25aa 25bf 26c0 37be
00000200: 4dca 513f 9291 3abe 986e 903e 8381 1d3f
00000210: 259e 15bf 013d 4bbe 3e75 0a40 be68 98be
00000220: 937b 123e bb8e 813f af62 893c a429 fd3d
00000230: d761 c23f 11e0 9dbe 36e4 283f 8fec 3d3f
00000240: d90a 6a3f 5826 053f 3e25 86bf 3112 d0bf
00000250: 2f07 bebe 817b 28be 9610 d1bf 5f72 883d
00000260: ed44 e9be 223f 493f 7248 90bf a26c 9ebc
00000270: 55a9 f73b 091d f13e 065c cabe 3c1f 983f
00000280: b47e a0be 5bd1 203f f7ae 8ebe 7ee1 20bf
00000290: 79df 5e3e 712b 3c3f eaf3 f9be cd30 af3f
000002a0: cada e63e 1ea8 9e3f ffd0 9b3e 3c8e 3b3e
000002b0: 7e5b c1bd 1b74 c1bf 769b 1240 7b8a 77be
000002c0: 6243 403f 1584 a23f cc43 94bf d4d4 733f
000002d0: 97f7 b5bf 6a86 0bbf 45fa 8fbe 02b8 f33e
000002e0: 9f8e 3c3f 2903 623f 9690 373f 4b10 ab3e
000002f0: 7661 f5be 303a 823f b282 843e 3f78 2dbf
00000300: 785d 2ebf ca55 b13f 9a16 9fbe 84b9 a23f
00000310: 6074 b0bd 63c7 883e a099 c13f c858 66bf
00000320: d51b a73e e3ef 9fbf 86ea b63f b2c6 93bf
00000330: f7db c93f 9a5a 543f f498 2140 9470 903f
00000340: 20ed ecbf ca4a 32bf 140c 2f3f ee25 13be
00000350: 6d77 c73e 74c2 993f 2f44 1c3e f75d db3e
00000360: 0f92 f53f 3afb c3be 9885 1dbf 7b85 74bf
00000370: 4f3f 0abe 2fdd 2cbe 1281 92be a0b5 323f
00000380: f5e6 acbf 6972 76bf 312d 1e3f 6a0d 2c3f
00000390: e226 86bf ad39 71bf ccf8 f73e 80e4 cc3f
000003a0: 3f45 4abf ebb6 16bf c624 c93e dace a0be
000003b0: 780b 96bf 6fef 873f 07dd 0e3f 37f9 933b
000003c0: 4990 48bf ead5 4e3f 0d0b 3f3f 31c7 943f
000003d0: d738 b63e d7a6 f8bf 1c7b 60bf fd7c 8bbe
000003e0: 7b3b 12be c3ac 96bf 35fb 8e3e dd99 8a3f
000003f0: 4e2f 143d 726d 663f 0a3c b03f 9649 043f
-0.07031586 -0.045151222 0.4901254 0.69138867 1.517484 1.048043 -0.0987254 -0.25934678
0.97175545 2.2413468 0.07519719 -0.41453037 0.10902907 0.15799926 -1.0182838 -0.8588073
0.39750212 0.54877377 -0.795848 0.5286129 1.1663297 0.72090214 -0.9393341 -0.9132957
-1.0106049 -0.29485005 -1.3561683 -1.738765 0.44090825 -0.82293963 0.940795 0.571271
0.9978783 1.0926726 0.10775614 -0.6519606 0.4385219 0.33106244 -0.7048465 -1.1856511
-0.034325223 -0.24396479 0.5523391 0.7220379 0.865696 0.16054687 0.4699421 0.74106437
-0.9247019 -0.29413646 1.7238932 -0.12221818 -0.21051873 -0.25247368 0.13695687 -0.22104023
-0.36947936 -0.48415294 0.36663988 -0.5794887 0.30399713 -0.5969631 -0.76022774 0.341085
0.6180103 0.73960125 1.2208879 -0.6270431 0.33929956 -0.4332758 0.35991615 -0.7538047
-2.7844625 -0.019365028 -0.31188557 -0.34941673 -0.237134 -0.8690949 1.2161778 1.077279
-0.19575153 1.0104719 -0.112339646 -0.77327263 0.07893026 -0.6426965 0.22781855 0.5095016
0.26857603 0.22216174 0.59871083 -0.57404447 0.4991962 0.5912344 -0.1743002 -0.58091354
0.4461403 -0.36657616 1.3363607 0.33016425 -0.62516385 0.1314636 -0.047010534 -0.74234784
0.66048294 -0.74050224 1.3257276 -0.0018205658 -1.1000803 -0.06822799 -2.007428 0.91473657
-0.12670867 0.5345735 1.8717191 -0.69765884 0.1642318 -0.42936942 0.06842016 -1.4675058
-1.140398 0.92688876 2.6813905 -0.9330505 -0.6431492 0.89004457 -0.64712745 -0.17944393
0.8194931 -0.18219593 0.28209376 0.61525744 -0.58444434 -0.1984749 2.163406 -0.29767412
0.14304952 1.0121683 0.016770689 0.12361458 1.5186108 -0.30835012 0.6597322 0.74189085
0.914228 0.5201163 -1.0480115 -1.6255552 -0.37114856 -0.16453363 -1.6333187 0.066624396
-0.455604 0.7861196 -1.1272109 -0.01933891 0.0075580277 0.47092465 -0.39523333 1.1884532
-0.31346667 0.6281945 -0.27867863 -0.62844074 0.21764936 0.73503786 -0.48818904 1.3686768
0.45088798 1.2395055 0.3043289 0.18315977 -0.09441279 -1.5113558 2.2907386 -0.2417392
0.7510282 1.2696558 -1.158319 0.95246625 -1.4216183 -0.54501975 -0.28120628 0.47601324
0.7365512 0.8828607 0.71704996 0.33410868 -0.4792592 1.0174007 0.25880963 -0.67761606
-0.6811137 1.3854306 -0.3107193 1.2712865 -0.08615947 0.2671462 1.5125008 -0.8997922
0.32638422 -1.2495083 1.4290321 -1.1545012 1.5770253 0.82950747 2.5249605 1.1284356
-1.8509865 -0.6964537 0.68377805 -0.14369938 0.38958302 1.2012467 0.15260385 0.42845127
1.9185199 -0.38277608 -0.6153197 -0.95516175 -0.13500713 -0.1688125 -0.28614098 0.6980839
-1.3507982 -0.96268326 0.61787707 0.6720797 -1.0480616 -0.9422863 0.48432004 1.6007233
-0.7901191 -0.5887286 0.39285868 -0.31407815 -1.172225 1.0619944 0.5580601 0.0045157927
-0.7834516 0.80795157 0.7462624 1.1623288 0.3559024 -1.9425915 -0.8768785 -0.27243796
-0.14280502 -1.1771473 0.2792603 1.0828205 0.036177926 0.9001075 1.3768322 0.51674783

c.weight f4 [17747, 1]
00000000: 865b ae3e 3341 b03d ee45 febe 7e0d 093f
00000010: 2c9e 5fbe 7845 763e 729d bc3f 7ce3 97bd
00000020: ae22 d93f 965d 7c3f 67d1 d03e be5f 083f
00000030: ff2e 1abe 4100 ccbf f85f b9bf 88c0 b73e
00000040: 3905 283f a72c 9c3e ce11 06bf 2855 20bf
00000050: 2937 a73e d051 49bf 6d0f 95be 8192 8abf
00000060: c176 44be 01b4 a7bf 0ca5 87bf 8aa5 cebf
00000070: 5917 c8be 9c39 233f 3a2b 0640 0929 70be
00000080: fe35 e7be 4400 9c3f 0755 57bf 9466 fcbd
00000090: d9f1 3b3f 0258 ac3e 49ff 5d3f e5d9 96bf
000000a0: 0693 e4be dd67 4cbf c556 803f 9af9 31bf
000000b0: eed8 b83e 2f4d 463f e55c 423e 1744 fd3e
000000c0: e632 4bbe 13ff 9dbd 70f2 d53e 1f6e 393e
000000d0: bed1 633f 6b27 543e 9ddd bcbd 631f 1b3e
000000e0: 2ed8 063f 3625 2a3f 0174 813f 13b2 953f
000000f0: 063b df3e c09e 2cbe 3849 a8be 8310 edbe
00000100: aa67 113f 090c e23e 28b8 483f 849c 81be
00000110: e770 34bf 7aa4 88be 9583 0540 b6e2 e0be
00000120: 6c23 92bf 2cf6 8cbf 26f6 92be c707 903e
00000130: 632c c0be 6d9e e23d b7d2 573f cd57 07bf
00000140: e944 373e 1c85 5f3f 997c 813f d08f 1dbf
00000150: 2cca cdbf 2310 01be 1579 90be 9799 de3e
00000160: 974f 5c3e af08 81bf 1ae4 18bf 7745 b4bf
00000170: 90f1 633f c98f b4bf dca2 bf3e b851 1a3e
00000180: f70b 553d a44b eb3b 2255 683f 7a1b bbbf
00000190: 8133 7fbf c0cf 82be 5505 2d3f dbb6 dcbe
000001a0: 3a41 8dbe 2b74 11be d221 efbe 7f48 8a3f
000001b0: ac1e 08bf cc75 4e3e 80f4 bb3e 3551 303f
000001c0: 4e26 89bf 6367 a63f 9a06 fdbe a4d3 ddbf
000001d0: df4d 443f bd45 2a3e 758f f63e 6a7b 79bc
000001e0: b3e4 46be eac0 46bf 3944 2abd 9591 dd3e
000001f0: 23a6 fabe db4f 073f 78f6 31be 98b0 2b3f
00000200: d4b9 a1bf d478 9a3e 8f2b 8a3f ddf3 b2bf
00000210: 8fa5 9bbf fece 41bf 6c9f f13c 9066 52bf
00000220: eb9e de3f 56c5 0cbf 566e 9dbf 91ba 8ebf
00000230: e1b8 fdbc e0ca 74bd fdcb 53bf d4f2 a03e
00000240: 192e b7be 8a4f 0840 372c 7d3f 306d bdbf
00000250: 1524 14c0 9956 02bf b3d3 dbbf b0a7 41bf
00000260: d75d 383e a923 2fbf 2289 d8be 941d 66bf
00000270: f0ec 523d 55c5 0dbf 9b9e 98bb fec2 683c
00000280: c1df a8bf 129e 7abf f3e4 20bf d3db 7f3f
00000290: 5f1b 78be bd55 333f ca95 b7bc 173d 86bf
000002a0: 24f7 9cbf 704d c9be e6f8 5f3e fa78 873d
000002b0: 2238 503f 2bad 95bf 4c59 a73e 87ec c7be
000002c0: d4a1 313e 22c1 26bf cc0c f63e b17e cebf
000002d0: dbe4 f2bf c156 6b3e 3187 c2bf 7187 e5bd
000002e0: a75f d23e 0ad4 1cbf 466c 0abf afbc da3e
000002f0: dfb8 5a3f 6b51 f6be db5e e33f d605 b9bf
00000300: cc20 303d 6925 a1be ef16 603f 665c 8a3f
00000310: fa37 653f 5775 5ebf deaf 8f3e 8882 4abe
00000320: 8660 f0be 1792 0abf 22b6 d9bf d6bd 773f
00000330: ded0 5cbe 6e32 afbd 464f 1a3d 4005 e3be
00000340: 7c29 2bc0 6bc1 12bf 04df 61bf 9c12 90be
00000350: 31f9 8b3d b367 08be a7c5 6b3d d74c d33e
00000360: 6665 643f abc0 a3bf 66ef 8ebf 7130 aebf
00000370: 829b a8bf ba1f 953c 8523 f5be 15c4 9a3e
00000380: f051 27bf 0d08 633f 04f6 c8bf ecc2 15bf
00000390: e455 7bbf c753 14be b414 9d3e 529e 43bf
000003a0: e3b8 9ebf fdc3 d3be 9d8d 01c0 0577 133f
000003b0: f5e6 9ebe 7fa4 d7be 850e d7be 96e5 0ac0
000003c0: 9093 0dbf 3425 48bd 0e4a b53d ac79 143f
000003d0: 0a98 26bf a0af febe 465a 45bf 24c6 efbf
000003e0: eced 56bf c6dc 013e 9087 a83d 31fb 823e
000003f0: c21a e73e 84e4 973e 4d59 263f 790c 34bf
0.34054202 0.08606186 -0.49662727 0.5353621 -0.21837682 0.24049938 1.4735548 -0.07416436
1.6963708 0.985803 0.4078476 0.5327109 -0.1505699 -1.5937577 -1.4482412 0.35889077
0.6563297 0.30502817 -0.5237092 -0.6262994 0.3265927 -0.7864046 -0.2911333 -1.082596
-0.19185926 -1.3101808 -1.0597243 -1.6144269 -0.39080313 0.6375978 2.0963883 -0.23453154
-0.4515838 1.2187581 -0.84114116 -0.12324253 0.73415905 0.33660895 0.8671766 -1.1785246
-0.4464342 -0.7984598 1.002648 -0.69521487 0.36103004 0.7746152 0.18980749 0.4946601
-0.19843635 -0.07714667 0.41786528 0.18108414 0.88991916 0.20718162 -0.09221957 0.15148692
0.52673614 0.6646303 1.0113527 1.1694969 0.4359972 -0.16857433 -0.3286836 -0.4630166
0.56798804 0.44149807 0.78406 -0.25314724 -0.70484775 -0.26687986 2.0861561 -0.43922967
-1.141706 -1.1012626 -0.2870342 0.28130934 -0.37533864 0.110653736 0.843059 -0.5286835
0.17897381 0.87312484 1.0116149 -0.61547565 -1.6077323 -0.12603812 -0.28217378 0.43476555
0.21514736 -1.0080775 -0.59723055 -1.4083699 0.8904047 -1.410638 0.3742894 0.15070236
0.052013364 0.007180648 0.907549 -1.461776 -0.99687964 -0.25549126 0.6758626 -0.43108258
-0.27588826 -0.14204471 -0.4670549 1.0803374 -0.531718 0.20162123 0.36709976 0.6887391
-1.0714815 1.3000301 -0.494191 -1.7330213 0.7668132 0.16628166 0.48156324 -0.015227178
-0.1942318 -0.77638113 -0.04156897 0.43275133 -0.48954877 0.52856225 -0.17379177 0.67066336
-1.2634835 0.3017031 1.0794543 -1.3980671 -1.21599 -0.7570647 0.029494964 -0.8218775
1.7392248 -0.5498861 -1.2299297 -1.1150686 -0.030971946 -0.05976379 -0.82733136 0.31435263
-0.35777357 2.1298547 0.9889559 -1.4798946 -2.3147023 -0.5091339 -1.717398 -0.75646496
0.18004547 -0.6841379 -0.42292124 -0.8988888 0.051495492 -0.5537923 -0.004657579 0.014206646
-1.3193284 -0.97897446 -0.6284935 0.999448 -0.24229191 0.700527 -0.022410292 -1.0487393
-1.2262921 -0.39316893 0.21872291 0.06614871 0.8133565 -1.1693472 0.32685316 -0.39047644
0.17346889 -0.6513845 0.48056638 -1.6132413 -1.8976091 0.22982313 -1.5197507 -0.11207474
0.41088602 -0.61261046 -0.5407146 0.4272208 0.8543834 -0.48108992 1.7763323 -1.4454906
0.043000028 -0.31473854 0.87534994 1.0809448 0.8953854 -0.86897796 0.28063864 -0.19776356
-0.46948642 -0.54129165 -1.7008708 0.9677404 -0.21564052 -0.085545406 0.037673257 -0.44339943
-2.674407 -0.5732638 -0.8823092 -0.28139198 0.06834639 -0.13320808 0.057561543 0.41269562
0.8921722 -1.2793173 -1.1166809 -1.3608533 -1.3172457 0.018203605 -0.47878662 0.30227724
-0.653594 0.8868416 -1.5700078 -0.5850055 -0.98177934 -0.14485084 0.30679858 -0.7641345
-1.2400173 -0.41360465 -2.0242684 0.57603484 -0.3103558 -0.42117688 -0.42003265 -2.1702628
-0.5530329 -0.048863605 0.088520154 0.57998157 -0.65075743 -0.49743366 -0.7709087 -1.8732343
-0.8395679 0.12681875 0.082289815 0.2558227 0.45137602 0.2966653 0.6498001 -0.7033153
