IRT/irt_model.pth (torch, 394528 bytes, 4 tensors)

theta.weight f4 [44875, 1]
000000 a2 29 96 3f 01 6b 4b 3f 29 3c e4 3f 9b 2b a4 be
       1.1731455 0.7946015 1.783086 -0.32064518
000010 6c 03 31 bb 1e d7 a0 3f 31 a9 a4 3f f3 72 cc bf
       -0.0027010096 1.2565649 1.2864133 -1.597258
000020 83 49 91 bf 42 ae 00 bf 64 60 ee bf 42 22 a9 3e
       -1.1350559 -0.50265896 -1.8623166 0.3303395
000030 e9 c0 45 bf 6f 6d 82 3e 53 ff fe be 56 4b cf bd
       -0.7724748 0.25474116 -0.49804172 -0.10121791
000040 21 0d 1f bf 38 d5 ff be 02 e0 5f bf ec 00 88 3e
       -0.6212941 -0.4996736 -0.87451184 0.26563203
000050 9d 23 29 c0 09 ea 98 be 9f 61 07 3f fb 0a 53 bf
       -2.6427987 -0.29866055 0.5288333 -0.8243863
000060 ae ca 80 3f 61 ec e7 bc d9 4a 43 be 93 27 af bc
       1.0061853 -0.028310956 -0.19071521 -0.021381175
000070 14 6c cc be 72 84 a7 3f 1f 23 7f 3f d7 09 2f 3f
       -0.39926207 1.3087294 0.99662966 0.6837439
000080 29 fc ee be fb 8a 8f 3d 0d 90 e6 be 7c c4 fa be
       -0.46676758 0.0700893 -0.45031777 -0.4897803
000090 bd 5e 77 3f 1d 4c 10 3f ca 97 59 3f 05 57 1f 3e
       0.96628934 0.5636614 0.84997237 0.15560539
0000a0 06 5d 79 3e 1d 68 db 3e f4 63 0c 3f 7c 62 ea be
       0.24351892 0.4285287 0.54840016 -0.45778263
0000b0 3d 70 06 c0 43 aa d9 be 5b 17 46 bf d0 fb 97 bf
       -2.1006005 -0.42512712 -0.7737939 -1.1873722
0000c0 50 3f 4d bf 33 7c 1d bf 61 f5 f2 be d4 de 39 bd
       -0.8017473 -0.6151764 -0.47452834 -0.04537852
0000d0 55 6d 3c bf 6e 3c 01 40 d2 ff 40 bc a7 54 b1 bf
       -0.7360433 2.0193133 -0.011779742 -1.3853959
0000e0 38 02 12 3f 82 8c cd 3f e4 b7 b2 be 38 b7 d4 be
       0.57034636 1.6058505 -0.34905922 -0.41546035
0000f0 da c7 e8 3d 0e 34 54 be 93 ea 53 be 57 33 25 bf
       0.11366244 -0.20722982 -0.20694952 -0.64531463
000100 2f 70 40 3e 07 77 ba 3d 2a 4c 59 3d ec db 02 be
       0.18792795 0.09104734 0.05305115 -0.12779206
000110 94 8b 3b 3e 49 97 d9 bd 6a 20 a3 bf c8 f3 4b bf
       0.18314964 -0.106245585 -1.2744267 -0.79668856
000120 69 a4 0e 3f 8e 3b ad 3d 34 0b a3 3e 7b 8e 61 bf
       0.5571962 0.08458625 0.31844485 -0.8810803
000130 83 0f 23 bf 74 7d 4e be 8d cb 9e bf e0 13 9b be
       -0.63695544 -0.20165044 -1.2405869 -0.302886
000140 0c 2e 76 be 9d 24 a7 3e cd 83 9e bf e5 e3 d2 be
       -0.24041003 0.3264512 -1.2383972 -0.41189495
000150 57 fb 34 3f a1 76 8f bf 02 f2 80 3f d5 d2 a9 bf
       0.70696014 -1.1208078 1.0073855 -1.3267466
000160 37 09 af bf 6a 56 27 bf c9 63 47 3f 0e 03 60 be
       -1.3674687 -0.6536623 0.77886635 -0.21876165
000170 af da fa be a2 4d 88 3f 3e 32 6d bf b7 54 48 bf
       -0.48994967 1.0648692 -0.9265479 -0.78254265
000180 ed 2b 10 bf cd f6 6d bf 95 74 7f 3e 0d f7 e2 3d
       -0.56317025 -0.92954713 0.24946816 0.110822774
000190 f8 ea 18 bf e2 b7 16 be 47 fa b3 3d 4f a5 d6 bd
       -0.59733534 -0.14718583 0.08787971 -0.10480749
0001a0 6e 08 05 3f 9d 8c 3e be 98 75 95 3f 18 e7 06 40
       0.5196599 -0.18608327 1.1676512 2.1078548
0001b0 54 d8 90 be 12 0c 52 3f 9f e1 67 3e fa 54 74 3f
       -0.28290045 0.8204967 0.22644661 0.95442164
0001c0 05 64 b0 3d 33 fe 1b 3f 37 de 0f 3e 05 7e 67 be
       0.08612827 0.6093475 0.14049612 -0.22606666
0001d0 dc a4 84 bf 49 9c e8 bf f5 ee 92 3f 39 93 96 bf
       -1.0362811 -1.8172694 1.1479174 -1.1763679
0001e0 65 63 34 3e 81 cd 69 be cc 2d b6 3f c8 af 6a 3f
       0.17616041 -0.228323 1.4232726 0.9167447
0001f0 89 4b 9e bf 67 1f 79 3e ad 52 23 3f 08 0a 0b bf
       -1.2366802 0.24328385 0.6379803 -0.5431218
000200 59 ad 6a bf d6 d3 3b bf 67 b8 97 3f f7 59 b1 3d
       -0.9167076 -0.7337011 1.185315 0.086597376
000210 2e 97 5b bf 9c 87 31 3e 2d 65 bb bf 40 43 87 3f
       -0.85777557 0.17336887 -1.4640251 1.0567398
000220 27 e5 98 be fe 13 f0 3f c7 08 d8 bd 6d e6 b0 bf
       -0.2986233 1.8756101 -0.10548549 -1.382032
000230 a3 85 34 3f 99 94 8d be 05 5b 9e bf 31 c2 83 bf
       0.70516413 -0.27652434 -1.2371527 -1.0293638
000240 21 9e 80 bf c2 a5 93 be 2d b7 d8 bd d1 40 e4 be
       -1.0048257 -0.288374 -0.10581813 -0.445807
000250 16 82 a3 3e 50 51 d7 3f a9 b0 02 3e 76 90 2b 3f
       0.31935185 1.682169 0.12762703 0.67017305
000260 fd fc 10 3f 48 60 ce 3e d9 98 7f bf fd 01 e5 3d
       0.5663603 0.40307832 -0.998426 0.1118202
000270 7e 67 09 bf bb 97 d5 3e e3 e6 82 bf c9 83 a7 bf
       -0.5367354 0.41717324 -1.0226711 -1.3087093
000280 72 4d 3a 3e 10 e0 39 3f 08 5d 74 3f 00 bd 27 3f
       0.18193606 0.7260752 0.95454454 0.65522766
000290 12 a7 17 3f 44 30 4f 3d c1 93 f5 3e 92 40 02 3e
       0.59239304 0.05058314 0.4796429 0.12719944
0002a0 12 b3 c2 3e 16 00 c6 3e 72 4a 3a 3f d0 6e 7a 3e
       0.38027245 0.3867194 0.72769845 0.24456334
0002b0 2f 61 06 3f 0e c9 35 bf 5d af 9f bf 0b d4 02 bf
       0.5249204 -0.7100991 -1.2475392 -0.511048
0002c0 6d bd 81 3f 35 c3 c8 3e 30 bd 96 bf 0b 5f 66 3f
       1.0135933 0.3921143 -1.1776485 0.89988774
0002d0 06 db d2 bf f0 35 ff be 27 21 b1 3e 7e 2d a2 3f
       -1.6473091 -0.4984584 0.34595606 1.2670133
0002e0 44 8e 4c bf 09 11 e2 be 1e 15 37 3e 21 01 58 bf
       -0.7990458 -0.44153622 0.1787915 -0.8437672
0002f0 73 14 53 bf 48 85 c6 be cc e6 80 3f a8 fb 03 40
       -0.8245308 -0.3877356 1.0070434 2.0622349
000300 98 0e 54 3f ec de 50 bf 57 66 5b 3e 74 ef fc 3e
       0.8283477 -0.8159015 0.21425758 0.49401438
000310 ce 8f c6 3e a6 fa 9d 3e 0b 11 5e 3d 07 2b 0b 3f
       0.3878159 0.30855292 0.054215472 0.5436253
000320 91 a2 a2 3e db 98 4b 3e 27 37 e3 3f 87 e7 19 c0
       0.31764653 0.19882528 1.7751206 -2.4047563
000330 b8 db 2e 3e e6 93 60 bf 08 a8 4a 3d ad 6b 1a 3f
       0.17076004 -0.87725675 0.049476653 0.6032055
000340 9e 3d bf 3f 87 2d 6f 3f 19 a5 bd be 71 39 1c 3f
       1.4940679 0.93428844 -0.37040022 0.6102515
000350 96 2a 3e 3d 1c 81 4a 3f 68 2f 0c 3d fa 0d 21 3f
       0.046427332 0.79103255 0.034224898 0.6291195
000360 a5 24 47 bf 25 9d 26 3f 42 fd 16 3f 55 f3 72 3f
       -0.7779029 0.65083534 0.5898019 0.94902545
000370 6a bd 53 3d 5b 62 14 3d 40 9e 6a bf b0 21 cd bd
       0.05169431 0.03622661 -0.9164772 -0.10016191
000380 af a5 4e be 79 dc df be a6 eb 6d 3f 35 a3 85 bf
       -0.20180391 -0.43722895 0.92937696 -1.0440432
000390 9a 04 2f 3f 64 66 d9 be 67 58 a1 bf e8 c7 dc 3e
       0.68366396 -0.4246093 -1.2605103 0.43121266
0003a0 4f 17 25 3f 0e 3c c2 bf dc 2a 79 40 4c 6e eb 3f
       0.6448869 -1.5174577 3.893241 1.8393035
0003b0 bc d0 c6 be fd 6b da bf e1 38 ec 3f 82 98 73 bf
       -0.38831127 -1.7064205 1.8454858 -0.95154583
0003c0 69 5a 58 bf 83 18 49 bf 24 bf 24 be db 79 05 be
       -0.84512955 -0.78553027 -0.1608854 -0.13034765
0003d0 ce e3 9a be ff c0 81 be f3 e3 28 40 cd 5d 83 3f
       -0.30251926 -0.25342557 2.638913 1.0263001
0003e0 59 0e ac be 19 61 55 be ac 53 ff bd 02 6c 81 3f
       -0.33604696 -0.20837821 -0.12467131 1.0111086
0003f0 a8 31 05 c0 d8 a0 72 bf a2 ac 67 3f 5f 07 43 3f
       -2.0811558 -0.9477668 0.9049779 0.7618312

a.weight f4 [17747, 1]
000000 84 f6 65 be b4 15 4b 3f cf ea 42 bf 85 53 f6 bf
       -0.2245732 0.7932999 -0.7613954 -1.9244238
000010 33 40 9d bf 19 ae a1 bf 1e 18 d1 bf ff 40 bf bf
       -1.2285217 -1.2631255 -1.6335485 -1.494171
000020 fb f9 36 bf fd 43 2b bf e5 24 25 bf fb d7 87 be
       -0.7147519 -0.66900617 -0.6450942 -0.26531968
000030 14 1b b7 bf fe 73 d4 bb 6c b2 43 bf 3d 0b b9 3e
       -1.4305139 -0.006483554 -0.76444125 0.36141387
000040 f5 4d 36 3f 7e f6 e4 bf 38 16 fb bf b4 fe 25 be
       0.71212703 -1.7887723 -1.9616156 -0.16210443
000050 46 78 a4 be 3a 8d 1c bf 27 78 e9 bf 75 19 15 3e
       -0.3212301 -0.61152995 -1.8239793 0.14560492
000060 a3 32 ea bf b8 bb 08 c0 7d 09 37 be cb 52 b4 be
       -1.8296703 -2.1364574 -0.17874713 -0.35219416
000070 02 45 00 bf e5 28 5c bf c4 1e 88 bf 5b b5 55 bf
       -0.501053 -0.859999 -1.0634389 -0.8347985
000080 8d 20 e2 bf ad d6 a5 bf 8e d1 84 3d 37 12 19 c0
       -1.7666184 -1.2956139 0.06485282 -2.3917367
000090 a4 eb c7 bf 4c ee c2 bf bb b3 91 3e f2 15 f7 3d
       -1.5618787 -1.5228972 0.28457436 0.120647326
0000a0 92 f1 13 be 54 ba ca bf af 0d 18 c0 dc 8c 03 bf
       -0.1444762 -1.5838113 -2.3758352 -0.5138681
0000b0 3e 35 bb bf 2e 47 cb be 0f 1b a9 be d7 e9 c2 3c
       -1.4625623 -0.39702743 -0.33028457 0.023793144
0000c0 4f 62 2e 3e e3 fb 95 bf 3a 21 a2 bf 5c 9e 8a bf
       0.17029689 -1.1717495 -1.266639 -1.0829577
0000d0 db 0f 84 be 19 a3 db bf 00 ea e3 be 28 04 3b bf
       -0.25793347 -1.7159148 -0.44514465 -0.73053217
0000e0 eb c8 13 bf ef 97 91 3f ef a1 0e c0 1c 33 8f 3f
       -0.5772845 1.1374491 -2.2286336 1.1187472
0000f0 30 e8 d1 bf 13 ab 41 be 8a 74 9b bf c9 85 71 3f
       -1.6398983 -0.18912916 -1.214494 0.94344765
000100 dc 32 1e c0 94 cb 7f bd da 6a 8d bf 4f b0 ef bf
       -2.4718542 -0.062450007 -1.1048234 -1.872568
000110 d4 59 f7 bf d6 af 3f bf 66 8c 25 bd d6 8b 37 bf
       -1.9324288 -0.7487768 -0.040417098 -0.7169775
000120 5b d4 98 bf 96 b4 ad be 20 34 fb 3f 76 e6 bd bf
       -1.1939806 -0.3392684 1.9625282 -1.4835956
000130 4a 2d 09 3f 48 a6 e5 bf fd c3 22 c0 df b4 3a 3f
       0.5358473 -1.794137 -2.5432122 0.7293224
000140 2f cd d5 be bb 2e d4 bf e8 24 b1 bf 38 de 87 3e
       -0.41758105 -1.6576761 -1.3839388 0.26536727
000150 1d ae cd bf 6d 68 97 bf 1b f2 8e 3f 17 bb 62 bf
       -1.606876 -1.1828743 1.1167635 -0.88566726
000160 8e 7f 8f bf 7d 2d 8a bf d9 f2 ea bd 50 93 f9 be
       -1.1210802 -1.0795132 -0.11472101 -0.48745203
000170 d6 8f 3f bf f5 43 af bf 42 cf 83 bf 45 ea b6 bf
       -0.7482885 -1.3692614 -1.0297625 -1.4290243
000180 20 f5 c6 bd ff a1 60 bf f9 ee ae bf 73 a9 19 c0
       -0.09714723 -0.87747186 -1.3666679 -2.4009674
000190 7b 00 f3 bf 85 71 92 bf 13 0d 79 bf 78 93 e4 3f
       -1.8984522 -1.1440893 -0.97285575 1.7857504
0001a0 28 27 a1 be 30 70 a2 be 75 6d 90 be 80 1c 39 3e
       -0.31475186 -0.31726217 -0.2820851 0.18077278
0001b0 e5 46 61 bf 8d dd 10 3f 5c 6b 02 c0 71 27 24 c0
       -0.879988 0.5658806 -2.0378027 -2.5649073
0001c0 e6 f3 38 be d6 ba d5 bf 34 c3 57 be 65 ea 00 bf
       -0.1806179 -1.6697643 -0.21070558 -0.5035766
0001d0 1d f6 12 bf 7e f8 36 bf 49 dd f0 bf 60 f6 81 be
       -0.5740679 -0.7147292 -1.8817531 -0.25383282
0001e0 4e 78 d7 be af 20 98 bf e6 1a 74 bf e1 7d bc be
       -0.42083973 -1.1884974 -0.95353544 -0.36814788
0001f0 49 4a 11 bf c7 ed a8 3d db 93 2d be bf ed af bf
       -0.56753975 0.082484774 -0.16950934 -1.3744429
000200 8f ca 56 bf bc f3 3b 3e 00 d0 8f be ce 62 63 be
       -0.8390283 0.18354696 -0.2808838 -0.2220566
000210 ad 5a 4e bf 88 59 a5 3e 68 d1 9a bf 6a 94 89 bf
       -0.8060711 0.3229487 -1.2095156 -1.0748417
000220 40 a3 5e 3f 5c 17 fd 3c 11 7d 25 bf 9e 82 37 bf
       0.8696785 0.030894928 -0.6464396 -0.7168368
000230 69 6f 02 3e 01 0a 6e 3b 81 24 76 be 4a e4 c1 3f
       0.12737812 0.003632188 -0.24037363 1.5147793
000240 fd 4c dd bf 60 5d 85 bf 1d f4 ce 3f 6a 07 fe be
       -1.728912 -1.0419121 1.6168247 -0.4961503
000250 a4 cc b1 3c b7 d5 ce bf 86 13 bc be 88 f3 8d bf
       0.021704026 -1.615897 -0.36733645 -1.1089945
000260 7b c8 1e 3e 4b 6a aa bf 83 65 c5 be 5b a9 90 3e
       0.15506165 -1.3313688 -0.3855401 0.28254208
000270 ed f4 1c bf 51 39 ac bf ec 9e 81 3e dd 92 46 be
       -0.6131123 -1.3454992 0.2531656 -0.19391961
000280 e1 4b f1 3c 1d 44 c5 be 02 5c 12 c0 16 61 c6 3f
       0.029455127 -0.3852853 -2.2868657 1.5498378
000290 7a 99 ba be 6d 7c 38 c0 1d 9c ab bf ce 95 00 bf
       -0.36445218 -2.8825943 -1.3407017 -0.50228584
0002a0 70 fb b8 bf f0 3a 2b 3e f7 db 28 c0 32 51 f1 bf
       -1.4451733 0.16721702 -2.6384256 -1.8852904
0002b0 21 b1 89 be a0 d5 3e 3f b4 f0 57 bf a5 98 c2 bf
       -0.2689295 0.74544716 -0.8435166 -1.5202833
0002c0 8a a4 51 3f 6e 05 29 bf 32 33 7a bc 9b b5 ca be
       0.8189169 -0.6602391 -0.015270995 -0.3959168
0002d0 8c b4 e5 3f 56 92 2d bf 2e 27 0e 3e 47 15 53 3f
       1.7945724 -0.67801416 0.13882133 0.8245434
0002e0 58 34 c5 bf 79 10 a2 bf d2 da 85 3e f1 d4 28 bf
       -1.5406599 -1.2661277 0.2614351 -0.6594992
0002f0 cf e5 c5 3e 24 6d d9 3f 98 bf af 3f db cf 37 bf
       0.38651893 1.6986432 1.3730345 -0.7180154
000300 84 b4 00 3c 27 cf 77 bf 82 ca 5d 3f 9b 2c 23 bf
       0.007855538 -0.96800464 0.8663713 -0.6373994
000310 e3 66 9e 3b c3 69 cf be ea 9d a1 3f 68 c4 ab bf
       0.0048340424 -0.40510377 1.2626317 -1.3419313
000320 57 77 89 3e e1 e4 63 3e 22 fa 16 be 02 e1 d3 bf
       0.26848862 0.22255279 -0.14743856 -1.6553042
000330 6e b2 87 bf 22 7d b1 bf 22 9c ce be e2 70 b4 be
       -1.0601327 -1.3866313 -0.40353495 -0.35242373
000340 a8 bb e4 bf 08 ab 88 bf b8 b4 ac 3f e7 d2 04 c0
       -1.7869768 -1.0677195 1.3492651 -2.0753725
000350 f8 9a b6 be 8c c6 74 bf ff 1a e9 bf 5a 0a 07 3f
       -0.35665107 -0.9561546 -1.8211364 0.5275017
000360 2e af 98 bf ae 9a 83 bf 06 70 c9 bf 01 55 e0 bb
       -1.1928461 -1.028158 -1.5737312 -0.0068460708
000370 32 10 ea 3c b4 77 15 3f 5e ee bd be 50 c0 3c bf
       0.028572176 0.5838578 -0.37095922 -0.73730946
000380 3b f1 83 bf 9a fb c1 3e e6 04 19 c0 dc 2f da 3e
       -1.0307993 0.3788727 -2.390924 0.4261464
000390 b8 1a ae bf f4 56 2f 3f 5e 4f a8 bf 8b 14 ed bc
       -1.3601904 0.68492055 -1.3149221 -0.02894046
0003a0 97 cb 9b be e5 91 91 bf 1e ef af bd d5 f8 45 bf
       -0.30428764 -1.1372648 -0.0859053 -0.7733281
0003b0 94 9e c2 be b7 48 9d bf 76 e8 83 3f 77 76 9e bf
       -0.3801161 -1.2287816 1.0305316 -1.2379903
0003c0 eb 60 45 be aa d5 70 3f 11 92 8a bf 71 6d 29 3f
       -0.19275253 0.94076025 -1.0825826 0.6618262
0003d0 41 16 b4 bf 53 89 a3 bf d8 fb 97 bf 60 ae 8c bf
       -1.4069291 -1.2776283 -1.1873732 -1.0990715
0003e0 96 5c dc 3e e5 e7 11 be 9c 1c 90 3e f7 96 bd 3f
       0.43039387 -0.14248617 0.28146827 1.4811696
0003f0 9d d3 ca bf e5 01 ab be 84 60 c8 be 7f 10 2d be
       -1.5845829 -0.33399883 -0.39136136 -0.16900824

b.weight f4 [17747, 1]
000000 92 7a a1 bf 04 b7 99 3f 44 cb c0 be 18 4d 3b bd
       -1.261553 1.2008977 -0.3765508 -0.04572782
000010 16 fb 00 bf e4 45 a8 3f 4a 81 3d bf 50 5d 2e 3f
       -0.50383127 1.3146329 -0.74025404 0.68111134
000020 f5 98 12 bf bd e1 f6 bd d6 32 4b be 30 b5 8c bf
       -0.57264644 -0.12054775 -0.19843611 -1.0992794
000030 86 bb 15 40 c5 75 a1 3f 52 40 b2 3e b1 92 c0 be
       2.3395705 1.2614065 0.34814698 -0.37611917
000040 18 75 af 3f b7 23 2b bf 38 34 e8 3d 07 2d 23 bf
       1.3707609 -0.6685137 0.11338085 -0.6374058
000050 45 2e 38 bf 6b 40 21 40 3a f9 99 be 38 b3 00 40
       -0.719456 2.5195568 -0.30072957 2.0109386
000060 b8 bb 1b bf 6f a0 89 be 34 a4 2f 3f b1 a9 b5 3f
       -0.6083331 -0.26880214 0.6860993 1.4192411
000070 f9 1b 7c 3f 45 64 d3 bf 14 3c a2 3e 92 8f 06 3f
       0.9848018 -1.6514975 0.3168646 0.5256282
000080 4b d7 aa 3f e3 26 2d 3f f4 94 a3 bf 65 29 bf bf
       1.3346952 0.6763746 -1.2779832 -1.4934508
000090 a9 7b 76 3f 19 d6 d4 bd 2a 6c eb be 15 9f 74 3f
       0.9628244 -0.103923984 -0.4598096 0.9555524
0000a0 24 17 19 3f a8 da ea be 8c 1b d0 bd 8f 2c 43 bf
       0.59800935 -0.45869946 -0.10161504 -0.76239866
0000b0 56 61 70 3e d6 a7 c1 bf b7 43 e7 3f 40 73 0b bf
       0.2347463 -1.5129344 1.806754 -0.5447273
0000c0 bd fa 3b 3f 65 81 37 bf 0f 21 8d bf bb cf 82 be
       0.7342947 -0.71681815 -1.1025714 -0.2554911
0000d0 1f 46 c3 bf 78 76 8b 3f 66 2f 84 3f 8e 8f 4d 3e
       -1.5255774 1.0895529 1.0326965 0.20074293
0000e0 8c ef a9 3e d6 e5 48 3f 5b 0b 7b bf 78 ca 83 3f
       0.33190572 0.784757 -0.980642 1.0296164
0000f0 51 4b 01 bf 32 c3 a9 be d1 9c 46 3f c8 d6 01 3f
       -0.5050555 -0.33156735 0.7758303 0.50718355
000100 e6 ff 95 3f cd 6a 34 bd c5 53 cc 3f 92 79 be 3d
       1.1718719 -0.044047166 1.5963064 0.093005314
000110 33 c4 d5 be 0d 55 6f bf 79 38 c6 3f 1c f4 39 3f
       -0.4175125 -0.9348915 1.5485984 0.72638106
000120 72 68 89 bf ee ee b7 bf 0f bf 85 3f 9f f2 eb be
       -1.0734999 -1.436979 1.0448931 -0.46083543
000130 82 4b cf 3f 0c 15 e9 bd 46 22 8a bf 1b c6 1a bf
       1.6194918 -0.113809675 -1.079171 -0.60458535
000140 6f d2 da bf 50 83 7b 3f 2d 2a 90 3f de 10 97 3f
       -1.7095469 0.9824724 1.1262871 1.1802022
000150 fb b9 6f be 62 39 ee be 66 60 cd 3f c3 cf b0 bf
       -0.2341079 -0.46528155 1.6045043 -1.3813404
000160 c4 66 bf 3f 0a c6 18 3f ed b7 5f be ff 9c c9 bf
       1.4953237 0.59677184 -0.21847506 -1.5751036
000170 f1 37 20 3f 6e 65 7d 3d 4f 80 92 bf 23 05 07 3f
       0.6258536 0.06186431 -1.1445407 0.52742213
000180 ed f8 b6 bf 70 26 44 be 8a 73 a5 bf a1 53 59 be
       -1.4294716 -0.19155288 -1.2925885 -0.21223308
000190 d8 e7 24 bd 72 d0 d1 bf e5 0f 92 3e 14 48 be 3f
       -0.040260166 -1.6391737 0.28527752 1.4865746
0001a0 1e a8 90 3f 7b 0f 95 bf 96 f1 ff be 0e f9 f5 be
       1.1301305 -1.1645349 -0.49989003 -0.48041576
0001b0 a7 92 fc 3f e1 1b ab bf 3d 0c 09 3e f9 8f 96 3e
       1.9732255 -1.3367883 0.13383575 0.29406717
0001c0 39 f7 66 3f 2a e7 04 bc 00 df 54 40 80 e5 fb bf
       0.9022098 -0.008111754 3.3261108 -1.9679413
0001d0 b2 5b 86 bf 04 96 ca bf 42 cb a5 3d 2f 8c 35 3f
       -1.0496733 -1.5827031 0.08095409 0.7091703
0001e0 4a d3 9e bf 21 6c 7b be c4 26 e7 3e f8 64 75 3f
       -1.240823 -0.24552967 0.45146763 0.9585719
0001f0 e1 e6 c8 bd be 7b 27 3f 81 7a 93 be 51 f2 31 3f
       -0.09809662 0.6542319 -0.288044 0.6951037
000200 26 f5 43 3d 8c 35 85 3f 85 50 b2 bf 75 49 13 40
       0.047841214 1.0406966 -1.3930823 2.3013585
000210 63 f5 f5 be 67 02 cc 3f c0 c2 3a 3f cb 1d c1 3e
       -0.48038778 1.5938233 0.72953415 0.37718043
000220 4d 5b ff 3f 98 cc c4 3f d9 40 fb 3e 38 cf e3 3f
       1.9949738 1.5374937 0.49072912 1.7797613
000230 b0 23 e9 3f b1 c7 e3 3e a3 bc 57 3f a2 38 05 3f
       1.8214016 0.4448829 0.8427221 0.5203954
000240 1b e4 9d 3e e6 55 1e 3f ff 14 aa 3f cc 0a cb 3d
       0.30838093 0.6184982 1.3287657 0.09914169
000250 2f 9c be 3f b8 c5 71 3f 79 e9 a5 3f 81 8f af 3f
       1.4891413 0.9444232 1.2961875 1.3715669
000260 63 3f 06 40 b5 13 6b be 16 8f ab 3f 98 80 91 3f
       2.0976188 -0.22956736 1.3403041 1.1367369
000270 ca 67 d9 3f 3f 09 f5 3d 7a ec 0b 40 dc 67 23 3f
       1.6984799 0.11964654 2.1863084 0.6383035
000280 97 e6 8c 3e 7a e5 49 3f 3b bc 95 3f 61 95 d7 bf
       0.27519676 0.7886578 1.1698068 -1.6842462
000290 46 c0 65 3e ae bd 37 3f 8d 72 22 be a6 52 e2 3f
       0.22436628 0.71773803 -0.1586401 1.7681472
0002a0 3a 87 52 3f 9c 8d 10 40 37 66 bb be a1 c9 68 be
       0.8223759 2.2586432 -0.3660142 -0.22733165
0002b0 1b ad 13 3f d5 6d 8c 3f c8 91 cf 3f e3 ed d7 3d
       0.57686013 1.0971018 1.6216364 0.1054342
0002c0 43 4d bd 3f 54 a8 02 3f a6 b0 46 3f af 8a 28 be
       1.4789203 0.510381 0.77613294 -0.16459154
0002d0 55 e7 82 bf e9 89 41 bf 10 4a 06 40 04 fa b3 3f
       -1.0226847 -0.7560106 2.0982704 1.4060674
0002e0 77 b7 fd 3e 3c 38 80 3e b3 97 bd 3f d5 53 76 bf
       0.49554035 0.25042903 1.481192 -0.9622167
0002f0 9f f8 d1 bf a8 6a 10 40 7a f6 85 3f 01 25 bd bd
       -1.6403998 2.2565098 1.0465844 -0.092355736
000300 d4 14 3d 3f 4d f9 7d 3f 17 2b d3 3f 03 e5 52 3f
       0.73859906 0.9920853 1.6497525 0.82380694
000310 b3 63 33 3f e3 4a d1 3f f2 0c 4c 40 e3 0b e6 bd
       0.70074004 1.6350979 3.18829 -0.11232736
000320 26 aa 85 3f e8 85 fa 3e 80 65 be 3f e4 de 8b 3d
       1.044255 0.48930287 1.4874725 0.068296224
000330 ee 3f 58 3e 71 a4 ed 3e 6f 12 d6 3f 82 20 2d be
       0.21118137 0.4641452 1.6724375 -0.16906932
000340 f2 3e 24 3f ba 0e ce bd 52 0f 1a 40 5b 23 42 3f
       0.64158547 -0.100614026 2.407185 0.758352
000350 c7 e5 c5 3f d5 8d ee be 65 7a c2 bd 9c 3d f5 3e
       1.5460747 -0.46592584 -0.09496001 0.47898567
000360 c9 06 3f 3f e4 cb 90 3f 36 d9 09 40 40 94 e4 3d
       0.7461973 1.1312222 2.1538825 0.11161089
000370 87 82 c9 3f b5 d1 8e 3f ac dd 0d 3e 66 d8 ad 3f
       1.5742959 1.1157748 0.13854092 1.3581665
000380 41 98 af bf f0 79 96 be d1 51 87 bf 2d 7f 5e 3e
       -1.3718339 -0.29389906 -1.0571843 0.21728201
000390 ba 1b 00 bf 68 21 86 bf 3c 0c 5d 3e 92 17 ad 3f
       -0.5004231 -1.0478945 0.21586698 1.3522818
0003a0 7f da 0b 40 d9 a9 91 3b 0e f2 b4 3f fe 89 ce 3f
       2.185211 0.0044452962 1.4136369 1.6135862
0003b0 a0 89 a8 3f f6 9d 4a 3f 3c 02 a5 3f d1 81 cf 3e
       1.3167 0.7914728 1.2891307 0.4052873
0003c0 c1 4f b8 bf 78 fa b3 3f 69 bd ab bf 68 5e 29 3e
       -1.4399339 1.4060812 -1.3417178 0.1653992
0003d0 9c 17 e1 3e 1f 2e b2 be f8 42 96 3e 39 df 4a 3f
       0.43963325 -0.34800813 0.29347968 0.7924686
0003e0 eb 2d b4 3f da 32 b6 3f ee 91 05 40 06 24 03 40
       1.4076513 1.4234269 2.0870318 2.0490737
0003f0 0c 67 d1 3e 3b d4 8e 3f 61 a0 e8 3f 5f e1 61 3f
       0.4089893 1.1158518 1.8173944 0.88234514

c.weight f4 [17747, 1]
000000 41 33 70 3f d1 82 4d 3f d2 84 38 3f 9f 8f f2 be
       0.9382821 0.80277735 0.7207767 -0.473752
000010 09 58 ca bf b3 1f ad be 5b 39 e2 3e 68 22 4f bf
       -1.5808116 -0.33813247 0.44184384 -0.80911875
000020 aa 9d bf 3e f7 51 d3 bd c7 9c 57 3f 59 09 36 3e
       0.37424976 -0.10318368 0.842236 0.17777003
000030 fe 65 e3 be 05 10 6c bf 46 b9 ba 3e 33 ec bf 3f
       -0.4441375 -0.92211944 0.36469477 1.4993957
000040 ce 46 bf 3f e9 5b b1 3e 17 cb 82 3e 66 47 63 bf
       1.4943483 0.34640434 0.2554557 -0.8878082
000050 96 d3 c2 bd c8 9e 1e 3f f7 25 52 3e 55 12 00 bf
       -0.09513013 0.6196103 0.20522295 -0.5002797
000060 ad 87 c0 3e 6a e2 6e bf 03 03 48 3f 06 01 ac 3e
       0.37603512 -0.9331423 0.78129596 0.3359453
000070 63 0d f0 bd 4f 9b 52 bf c4 c8 35 3e 24 32 33 bd
       -0.11721303 -0.8226823 0.17752367 -0.04374899
000080 4a 66 3f bf 1d 0f 6f be 72 f5 07 bd 57 29 ee bd
       -0.74765456 -0.23345609 -0.03319306 -0.11628979
000090 5b b1 95 3e 7f 92 41 3f c2 a9 44 3f 54 6b cb be
       0.29236874 0.7561416 0.7682153 -0.39730322
0000a0 59 38 1a 3f 19 be 47 be 9d 88 f3 3e d6 24 d3 bf
       0.6024223 -0.1950611 0.47565165 -1.6495616
0000b0 07 96 48 bf 32 f1 93 bf 04 f3 77 3f dd 63 ec 3c
       -0.78353924 -1.1557982 0.9685519 0.028856212
0000c0 59 77 9d 3f 6e 53 38 bf 69 59 12 bf 26 88 a0 3b
       1.2302047 -0.72002304 -0.5716768 0.0048990427
0000d0 22 64 10 3f 20 16 8f bd 61 43 92 3e eb ce 01 be
       0.5640279 -0.06986642 0.2856703 -0.12676589
0000e0 94 af cf 3e fa 54 97 3f aa ac b9 be 0c b2 60 3e
       0.40563643 1.1822808 -0.36264545 0.2194292
0000f0 bd 65 b8 3e f1 26 17 be ce c7 ae 3f ad 7a 7c 3f
       0.3601512 -0.14760949 1.3654726 0.9862469
000100 39 30 38 bf ab 8e 19 3f 3d c7 6e bf 58 f5 2f 3f
       -0.7194858 0.5998332 -0.93272763 0.6873374
000110 23 78 0a bf 44 1a 8c bf a5 c6 9f 3f 78 6e 72 be
       -0.54089564 -1.0945516 1.2482497 -0.23674953
000120 62 51 0c ba b4 84 4d bf e7 7c 39 3f 4b a2 d0 bf
       -0.0005352703 -0.80280614 0.7245621 -1.6299528
000130 89 ae 1f 3f bc f0 5b 3f 06 3f 30 bf 29 78 b6 be
       0.62375695 0.85914207 -0.68846166 -0.3563855
000140 82 3f d4 be 47 dc a5 bf 4d 6c 23 3f 3b 8c 15 3f
       -0.41454703 -1.2957848 0.6383713 0.584171
000150 4b 13 1c bf 8c 7d 97 be 38 62 47 3f 72 9f b2 3e
       -0.6096694 -0.29587972 0.77884245 0.34887272
000160 66 40 ab 3f 3c f3 48 bd 56 96 29 bf a2 99 d6 3e
       1.3379028 -0.04906009 -0.6624502 0.41914088
000170 85 d6 97 be 1f 8c cc be e8 0e db 3e 9d a8 6a be
       -0.29655853 -0.39950654 0.4278481 -0.22915883
000180 13 7a fb be f0 25 de 3f 59 62 fa 3f 80 02 06 bf
       -0.49116573 1.7355328 1.9561263 -0.52347565
000190 d2 35 6e 3f 11 86 8c bf 64 96 29 3f dd 9a ae 3f
       0.93050873 -1.0978414 0.662451 1.364101
0001a0 02 31 07 bf 58 bd 68 3e 25 c3 05 40 c0 92 4d 3f
       -0.52809155 0.22728479 2.0900357 0.8030205
0001b0 79 f4 17 40 d2 d4 56 be 77 52 d6 bd aa 38 3b 3f
       2.3742964 -0.20979622 -0.10464948 0.7313334
0001c0 5f 0d d8 3e e9 0f 23 3f d6 66 3a c0 5f ea 76 bf
       0.421977 0.6369615 -2.9125266 -0.9645137
0001d0 87 1a f7 3e c4 81 ca 3f 70 1f 07 bf 56 c2 d8 3e
       0.48262426 1.5820851 -0.52782345 0.42335767
0001e0 89 8c a9 3e bc 2a 78 3e 91 a3 40 40 a9 d4 bf 3e
       0.33115032 0.24235052 3.0099833 0.37466934
0001f0 75 63 90 bf e2 0f d8 be ee ee 5b 3f 70 c2 3c 40
       -1.1280352 -0.42199618 0.8591145 2.9493675
000200 af 0f 8a 3d 40 4c e9 3d 0c ed 71 3e 53 61 e4 be
       0.06741273 0.11391497 0.23625582 -0.44605502
000210 48 e2 48 3f 1b f7 23 bf ff e3 de bf ab d5 db bf
       0.7847028 -0.6404893 -1.7413329 -1.7174581
000220 4e 96 6a bf 6e f6 ad bf b7 78 b9 bf b1 d0 62 bf
       -0.91635597 -1.3590829 -1.4489964 -0.8859969
000230 16 80 4f be 80 87 8f 3f 05 08 84 3f c4 27 ee 3f
       -0.20263705 1.1213226 1.0314947 1.8605886
000240 f6 1a a9 be 99 f3 67 3f 02 42 49 3f 1b d0 b2 be
       -0.33028382 0.90606076 0.78616345 -0.34924397
000250 0e 44 7c bf 97 6f 84 bf 55 31 51 bf 05 dc 98 be
       -0.98541343 -1.0346555 -0.817159 -0.29855362
000260 49 7c 04 bf bb 81 98 bf 3b bc 6a 3e c2 3e 88 3f
       -0.51752144 -1.1914591 0.22923367 1.0644152
000270 3c fc 1c bf af e8 32 bf 3b 81 a5 3f fa 5d 0f bf
       -0.6132238 -0.69886297 1.2930063 -0.5600277
000280 7c 4c 4b 3f 1f a9 e2 3e fe fc 37 3d 36 a0 b3 3e
       0.7941358 0.44269654 0.044919007 0.3508317
000290 e1 67 a8 3e f8 02 7e 3e 82 9e 9b bc de f7 62 bf
       0.32891753 0.2480582 -0.01899648 -0.88659465
0002a0 c5 8f 8d bf ba d0 25 bf fc 2a e3 bf 7a 86 6b bf
       -1.10595 -0.64771616 -1.7747493 -0.9200207
0002b0 f1 fd 0f bf d2 32 88 3f 7d 61 bb be 42 fb 8c bf
       -0.5624686 1.0640509 -0.36597815 -1.1014178
0002c0 b8 be 06 bf 92 83 a9 bf 9c f7 17 3e 2a 32 af 3e
       -0.52634764 -1.3243277 0.14840549 0.3421796
0002d0 ed b1 ea bf 7a 94 93 3f 2a ef 1d 3f e4 df 44 bd
       -1.8335549 1.1529686 0.6169306 -0.04806508
0002e0 5b ac 5d bd 23 fc 0a c0 7c ea 33 bf c0 ec c9 3e
       -0.05411945 -2.1716392 -0.7027967 0.39438438
0002f0 89 e0 1a 3f 65 b0 69 bf 50 49 a1 be 64 4c a0 bf
       0.60498863 -0.9128478 -0.31501245 -1.2523313
000300 c4 a2 2e 3f cd 33 af bf 97 46 63 3b 75 b6 81 be
       0.6821711 -1.3687683 0.0034679526 -0.25334516
000310 03 bf a0 bf 28 ef 3c bf c5 59 cd be d4 19 c5 bf
       -1.2558292 -0.73802423 -0.4010755 -1.5398507
000320 6b 8f a3 bf 33 e3 02 3e a8 d1 70 bf b6 7c 57 3f
       -1.2778143 0.12781982 -0.9406991 0.8417467
000330 e9 d5 ba bf a1 78 fe be d6 c5 53 be e6 2f 90 be
       -1.459653 -0.49701408 -0.20680937 -0.28161544
000340 65 01 10 3f 4f d4 65 bf 64 9c ef bd 24 a9 88 bf
       0.5625213 -0.8977708 -0.11699751 -1.0676618
000350 91 f6 88 3f e3 5d f7 3e 7a 51 75 be e7 50 1d be
       1.0700246 0.48313817 -0.23956862 -0.15362893
000360 1c 7b 9a bf dd 2a 92 bd 60 6a e5 3e 2b 1a 92 be
       -1.206882 -0.07137082 0.4480772 -0.2853559
000370 21 b5 58 bf 34 12 2f be 6c 19 18 bf 61 af 7b be
       -0.8465138 -0.17096788 -0.5941379 -0.2457862
000380 5a c5 53 3f 93 ea 0e 3e 79 3a d4 bf ce 42 15 be
       0.8272301 0.1395667 -1.6580344 -0.14576265
000390 60 84 cf bf be 63 c9 3d 66 43 9c bf 5c 7b 5a bf
       -1.6212273 0.098334774 -1.2208068 -0.8534448
0003a0 3f c8 99 bf fb 02 81 be d3 6b c5 bf f9 e7 3b c0
       -1.2014235 -0.25197586 -1.542353 -2.9360335
0003b0 86 c8 b7 be 51 21 5a bf f3 9c c9 3e 5b 48 05 c0
       -0.35895175 -0.85207087 0.39377555 -2.0825412
0003c0 00 94 9e 3e 74 36 38 3e 83 1c 66 bf 24 3b 93 3f
       0.3097229 0.17989522 -0.89887255 1.1502423
0003d0 39 f3 89 bf b7 ad 02 bf 43 cc 9d 3e 09 d0 d6 3e
       -1.0777351 -0.5104632 0.30819902 0.41955593
0003e0 c6 d2 92 be a5 89 07 be b9 c0 48 3e 57 35 66 be
       -0.28676432 -0.13236101 0.19604768 -0.22481285
0003f0 d5 be de bf c2 7d 62 bf 62 da 65 bf 2a c9 6d 3d
       -1.7401987 -0.8847314 -0.8978635 0.058053173
